deepset_moonboard.pth (torch, 238980 bytes, 10 tensors)

encoder.0.weight f4 [128, 64]
000000 06 f2 d3 bd 46 76 0a be e6 7b 11 be 3f eb 5f 3d
       -0.10348897 -0.1352168 -0.1420742 0.054667708
000010 7d b3 e0 bc ee 4d 72 bd 99 9d 53 3d 12 fe 26 3b
       -0.027429337 -0.05915635 0.05166397 0.0025481028
000020 5e 2a 55 bd 94 ac 00 be 50 72 80 3d 26 84 44 bd
       -0.052042358 -0.12565833 0.062718034 -0.04797759
000030 67 54 03 3d e2 3c 54 3d 5b 40 49 3d 08 56 29 bd
       0.032062914 0.051815875 0.04913364 -0.04134181
000040 52 d3 d7 3d 15 4b 02 3d 0c 34 a0 3d d4 63 a7 3c
       0.10538353 0.031809885 0.07822427 0.020433344
000050 4e f2 fd 3d 0b fb 3d 3d 47 46 05 3e 63 c2 e1 bc
       0.123997316 0.04638199 0.1301509 -0.027558511
000060 ba 33 0f be 83 c4 d2 bc 43 42 14 bd d7 13 8a bc
       -0.13984576 -0.02572847 -0.036196005 -0.016855163
000070 a3 a6 16 3d 1c 5d 0a bd 26 14 d1 3d 2a 95 c6 3d
       0.03678001 -0.033780202 0.10208921 0.096964195
000080 57 94 27 be 11 62 9a 3d 6d fb a6 bd 3b b9 ed 3c
       -0.16365181 0.07538236 -0.081534244 0.029018989
000090 99 c2 05 bc 36 4f 02 3d b5 b0 15 be 4d ec 08 bc
       -0.0081640715 0.031813823 -0.1461819 -0.00835712
0000a0 9f f5 b7 3d 09 5d cf 3d 68 97 bb bc bf a0 3c bd
       0.089823954 0.10125167 -0.022899345 -0.046051737
0000b0 47 9d 76 3a ad 0d 07 3e b4 39 d0 3d 73 eb 0f 3d
       0.00094075914 0.1318881 0.10167256 0.03513665
0000c0 97 73 73 bd 77 4d e7 bd c3 21 67 bd 53 05 d9 bd
       -0.059436407 -0.11294072 -0.056428682 -0.10596719
0000d0 02 a7 03 3e 30 77 05 3e 1a b4 09 3e 1f 23 1e 3e
       0.12856677 0.13033748 0.1344761 0.15443085
0000e0 32 85 13 3e 34 bd de bd 12 9d 01 be 43 e9 b0 3d
       0.14406279 -0.108759314 -0.12657574 0.08638241
0000f0 d2 b8 f3 3c 73 8c 81 3d 8d 88 75 bd b0 ae 61 bd
       0.029751215 0.06325617 -0.059944678 -0.055098236
000100 a1 aa 96 3d 3b cc bc bd d8 d2 9f bd 73 e7 87 3d
       0.07356764 -0.09218641 -0.07803887 0.06635942
000110 23 f8 98 3d 01 f4 9d 3d eb da ff bc 3b 6e aa bd
       0.07469203 0.07712556 -0.031232318 -0.08321806
000120 c2 9b d1 bd 4e d4 2d bc 59 08 0a 3e 39 e6 7c bd
       -0.102347866 -0.010609699 0.13479747 -0.061742995
000130 da ee 1f 3c c6 ea b7 bd c6 b9 fe 3d bf 20 7d 3d
       0.0097615365 -0.08980326 0.12437777 0.061798807
000140 3f 4b d0 3d e0 77 df 3d ce 50 90 3d 51 a1 cd bd
       0.10170602 0.10911536 0.07046662 -0.10040534
000150 fe b4 8c 3d e7 17 ef 3c e3 95 51 bd a6 5a c9 bd
       0.06870459 0.029186202 -0.051168334 -0.09831743
000160 e8 31 de bc bc 15 8d bc 28 b4 10 3e a4 42 19 3d
       -0.027123407 -0.017222278 0.14131224 0.03741707
000170 a9 ac d6 bd 42 be 06 be c2 25 02 3e 19 ca 53 bd
       -0.10482151 -0.13158515 0.12709716 -0.051706407
000180 f9 db 37 3b 6e 97 ef bd cf 16 40 bd df 28 be 3d
       0.0028054698 -0.11698805 -0.046896752 0.09285139
000190 98 6b 33 3d 66 03 9b 3d b9 8a 10 be d7 0d 7a 3d
       0.04380378 0.075690076 -0.14115418 0.061048355
0001a0 8d f6 9c bd 29 3a 84 3c e5 32 b9 3d 35 3d 96 3c
       -0.07664213 0.016141014 0.090429105 0.018339733
0001b0 24 f1 48 3c ef 51 4f 3d b4 82 9a bd f7 ba 92 bc
       0.012264524 0.050615247 -0.07544461 -0.017911417
0001c0 48 ac fc bc 71 2d 4d bd cb 0b fb 3d 13 2d e7 3d
       -0.030843869 -0.050092164 0.12258109 0.11287894
0001d0 86 91 60 3c 3b 48 09 be 6e 3d 97 bd 86 f2 ca 3d
       0.0137065705 -0.1340646 -0.07384764 0.09909539
0001e0 8f 07 87 bd 93 61 f0 bd 9a 91 8f bd e0 b1 63 3d
       -0.065932386 -0.11737361 -0.07010193 0.055589557
0001f0 0e 59 82 bd 13 de 0a 3d 09 77 ce bc 45 91 a9 3d
       -0.06364642 0.033903193 -0.025203245 0.08279661
000200 27 00 d0 3d 8f 69 f1 bd 6b 46 38 3b 63 6a d6 bb
       0.10156279 -0.11787712 0.0028118144 -0.006543444
000210 00 db e6 bd cf c9 5a bd 1b eb 6a 3d 9f 82 89 bc
       -0.1127224 -0.053415116 0.05735312 -0.016785918
000220 a5 8e d9 3d e3 01 e0 3d d9 07 56 bd 15 c8 59 3d
       0.106229104 0.1093786 -0.052253578 0.05316933
000230 f1 f9 5f 3d a8 02 ca bd f4 37 fd bd 2f f9 a5 3d
       0.054681722 -0.09863788 -0.12364188 0.081041686
000240 c5 88 ca bd 77 8d 90 3b f0 9b 4a bd f6 c0 1a bd
       -0.09889368 0.004411395 -0.04946512 -0.03778168
000250 76 a8 07 3d c3 0a 90 bd 18 8d f9 bd 04 c8 e4 3d
       0.03311964 -0.07033303 -0.121851146 0.111709625
000260 c7 28 ac 3d e8 78 06 be 48 39 77 3d a4 47 c3 bd
       0.08406215 -0.1313206 0.060357362 -0.09535149
000270 8b ab a4 bd 95 fa 1b be 91 d3 bd bd 3c a5 78 3d
       -0.08040532 -0.15232308 -0.09268869 0.060704455
000280 cd 75 0e be cf df 97 bb 55 f1 84 3d bc 5c ab bd
       -0.13912125 -0.0046348344 0.06491343 -0.08367297
000290 9f 27 89 3c 96 8b 99 bd d0 84 bd bc 30 6c cf 3d
       0.016742526 -0.07497327 -0.023134619 0.10128057
0002a0 2d 0f b5 bd 87 1f 8a 3c 1e 2b 2a bd 6b 32 02 bd
       -0.08840785 0.016860737 -0.041545026 -0.031786364
0002b0 8d ab fa 3d 13 be d2 3c f6 e7 44 3d c5 6f 83 bd
       0.12239752 0.0257254 0.048072778 -0.06417803
0002c0 e9 5d dd bd c2 8e ae 3d b7 ff ec bd f0 97 41 bb
       -0.108089276 0.08523323 -0.11572211 -0.0029540025
0002d0 12 cb 53 3c 8d 7f 5e bc 13 91 80 3d 89 72 10 3d
       0.012926834 -0.013580215 0.06277671 0.03526548
0002e0 d5 7d 29 be 05 e6 ab bc 8a 6b 09 be d3 75 8e 3d
       -0.16551907 -0.020983705 -0.13419929 0.06956067
0002f0 93 71 20 3d 80 ad d6 bd 98 7a c7 bd 36 a4 84 bd
       0.039170813 -0.10482311 -0.0974018 -0.06476633
000300 36 73 03 bc 29 bf e7 3d 1b c8 d5 3d 0e 90 85 3c
       -0.008023074 0.11315758 0.10438558 0.016304042
000310 f2 71 0d bc f8 38 1e be d1 96 44 3a af 30 19 3d
       -0.008633124 -0.1545142 0.000749928 0.037399944
000320 f3 0a 89 bd 04 f4 9d bd d9 88 ad 39 ee 35 01 3e
       -0.066915415 -0.07712558 0.0003309909 0.12618229
000330 50 c9 b9 bc 9e 18 04 3d 4e d6 a0 3c b4 4e b7 3c
       -0.022679001 0.03225004 0.019633438 0.022376396
000340 b5 9f a6 3d 32 bd df 3c c1 9c 4c 3d 57 4a 92 bd
       0.081359304 0.027311895 0.04995418 -0.071430854
000350 4e 8b c1 3d a4 bb 97 3d 39 cc aa bc 29 60 c8 3d
       0.094503984 0.074088365 -0.020849334 0.09783966
000360 f6 83 03 3d 31 7c ae 3c 9b a5 a5 bd 74 6f c6 bc
       0.03210827 0.021299453 -0.08088227 -0.024223067
000370 fd 13 99 3b 8b 86 e1 bc fa 2c 48 bd c4 fe cb bd
       0.0046715722 -0.027529975 -0.048871018 -0.09960702
000380 42 b5 89 3d 48 cf cf 3d 10 fa 6b 3d 21 fd 01 3e
       0.06724025 0.10146958 0.057611525 0.12694217
000390 e3 4e 80 3d e6 57 e5 bd 1b af 91 3d 4b 9a c8 3d
       0.062650464 -0.11198406 0.07113477 0.09795054
0003a0 bb 46 19 3e 7e 45 c3 3c ab 39 c2 3d 41 86 0a bd
       0.14968388 0.023836847 0.094836555 -0.03381944
0003b0 d0 6c 8d 3d 96 3e 60 bd bb 8b 1f bc d4 d6 d7 3d
       0.0690552 -0.054747187 -0.009737904 0.10539022
0003c0 66 be 60 3c 86 c8 89 bc b1 35 d4 bd bc 10 fc 3c
       0.0137172695 -0.01681925 -0.10361803 0.030769698
0003d0 93 74 ed 3d 16 d9 9d 3d e4 a3 7e bd f1 52 c3 bd
       0.115945004 0.077074215 -0.062168017 -0.09537304
0003e0 b6 71 ea 3c 38 de 8e 3d 23 f6 1b 3e 56 91 e8 3c
       0.028618675 0.069759786 0.15230612 0.028389614
0003f0 13 d7 b4 3c 01 02 dd bd 38 9b 5c 3d 23 48 ce bd
       0.022075212 -0.10791398 0.053858966 -0.10072353

encoder.0.bias f4 [128]
000000 8f 15 8b ba 0a 07 a7 bc a4 83 31 3c 04 1d 5b bb
       -0.0010611283 -0.020389099 0.010834608 -0.0033434043
000010 ec 3d b9 bd 47 ac 16 3d 7c 16 c5 bd f4 21 83 bb
       -0.09045014 0.03678539 -0.09623429 -0.0040018503
000020 80 2b b2 bd 79 67 71 3d c3 6f 96 bb b3 e3 44 bd
       -0.08699703 0.05893657 -0.0045909598 -0.048068713
000030 57 05 ba 3b 27 74 d4 ba a8 5f da ba db 7a bd bd
       0.005676906 -0.0016208933 -0.0016660588 -0.092519484
000040 23 4b 78 bd 3a 57 ae bd 42 6f cb bd c6 e3 81 3d
       -0.06061853 -0.08512731 -0.0993333 0.063422725
000050 b1 88 94 3c be a7 f8 3c 0b 67 c1 3d 79 d7 90 bb
       0.018131586 0.030353423 0.09443482 -0.0044202176
000060 6b 48 81 bd 40 6d f4 3d c6 5c 3e 3d f8 18 f5 3d
       -0.06312641 0.119349 0.046475194 0.11967653
000070 a1 13 c1 bd 7e 84 ac 3d 45 f7 b9 3d d8 6e c6 3d
       -0.09427572 0.084237084 0.09080366 0.096891105
000080 dd 87 31 bd 12 f3 d5 bd f0 91 92 bd d2 ec ba 3d
       -0.04334246 -0.104467526 -0.071567416 0.09127201
000090 c2 7d ae bd c4 09 ca 3d 29 f3 e2 3c 4e 58 02 3e
       -0.0852008 0.09865144 0.027703838 0.12728998
0000a0 9a 91 ba 3b 2b 84 70 bd a6 ea d0 bb c8 b7 97 3c
       0.0056936266 -0.058719795 -0.0063756285 0.01852025
0000b0 39 10 d7 bc b3 bb c9 bd 90 0f c7 bd 76 04 06 3d
       -0.026252853 -0.09850254 -0.09719765 0.032719098
0000c0 e5 a0 e1 3d 80 cc 89 3c c4 92 cf 3d a6 68 f1 3c
       0.11017016 0.016821146 0.10135415 0.029468846
0000d0 0e 56 b1 3b 1f ff 6a 3c b2 3f 81 bd bd d7 ba bd
       0.00541187 0.014343052 -0.06310977 -0.0912318
0000e0 cb eb d2 bd 84 5b 9d bc 58 d4 aa 3d ca cd 76 3d
       -0.1029888 -0.019208677 0.083412826 0.06025485
0000f0 42 40 be 3d 46 70 a7 bd 8c 62 29 bb e1 36 fb 3a
       0.092896 -0.08175711 -0.0025846092 0.0019166135
000100 07 06 44 bd b1 8b 91 bd 46 85 c0 3d 45 c0 95 bc
       -0.04785731 -0.07106722 0.0940042 -0.018280158
000110 24 84 d5 3d 87 d2 82 bd 18 da 05 3d cb dc 67 bc
       0.104255944 -0.06387811 0.032678694 -0.014151762
000120 49 e3 87 bc f6 c7 8f 3d 4b 36 ed bd 56 7e 1f 3e
       -0.01658787 0.070205614 -0.11582621 0.15575537
000130 67 6c 09 3d 57 f9 a9 bc 79 0f 0a 3e f7 05 8c bd
       0.033550646 -0.020748777 0.13482465 -0.06837075
000140 77 07 f8 bd 0e 5a be bd a3 84 9e 3d ac b2 00 bc
       -0.12110799 -0.0929452 0.07740142 -0.007855099
000150 30 44 e6 3d be d0 ba 3d 08 1a c4 3c 51 4f ec 3c
       0.112434745 0.09121846 0.023938194 0.028846415
000160 06 73 d4 3c 37 c3 f6 bd 08 6f 6c 3d d6 02 06 3c
       0.025933754 -0.12048953 0.057723075 0.008179387
000170 f0 7c 73 bd 18 f2 9c bd a4 48 4b 3d 59 49 ad bd
       -0.05944532 -0.07663363 0.049629822 -0.084612556
000180 66 d5 ed bd 39 7d 39 bc b8 50 80 3d f9 fa f0 bd
       -0.11612968 -0.011321359 0.06265396 -0.11766619
000190 cc a5 f4 bc 70 49 cd bd 21 ba 19 3d b5 02 ba 3d
       -0.029864214 -0.10023773 0.037531022 0.090825476
0001a0 6c a1 d6 bc 8c ae b2 3b ef bb 74 bd 74 99 14 3d
       -0.026200019 0.0054529365 -0.05974954 0.036279157
0001b0 e4 34 fb 3b 8e 45 43 bd 97 8f 17 bd c7 1b 74 bb
       0.007666217 -0.047673754 -0.037002172 -0.0037248002
0001c0 ff 54 07 bd e0 e4 f9 3d 1c 14 1c bc 99 99 c8 3c
       -0.033040043 0.122018576 -0.009526279 0.024487304
0001d0 54 21 88 3d 2b 28 33 bb 9b 36 14 3e e5 37 f3 3d
       0.06646982 -0.0027337174 0.14473955 0.118758954
0001e0 02 3c f2 3c d7 4b da 3d 0a 53 6e bd 4c 8e 39 3c
       0.02956963 0.106589966 -0.05818466 0.01132543
0001f0 64 d8 23 3d 14 c3 5b bd c3 e3 90 3c 67 b3 2a bd
       0.040001288 -0.053652838 0.01768673 -0.041674998

encoder.2.weight f4 [128, 128]
000000 a4 7c 67 bd 62 60 3f 3c fc 7e 49 bd 87 54 ff bb
       -0.05651535 0.011680694 -0.049193367 -0.007792059
000010 82 27 82 bc 0a 5f 7f 3d b3 53 88 3d ba de 73 bc
       -0.01588798 0.062346496 0.06656589 -0.014884645
000020 08 3e 6b bd 80 ce 1c 3d 2c 92 ac bd 9c 7a 8e 3d
       -0.057432204 0.03828287 -0.084263176 0.0695698
000030 62 5d 8c bd 00 0a 8f bd 96 98 3d bd 72 f3 76 3d
       -0.06853749 -0.06984329 -0.046288095 0.06029076
000040 99 3b 4e 3d b2 19 6e bd 75 1e 44 bd b2 0b 90 bd
       0.050349806 -0.058129974 -0.04788061 -0.07033481
000050 bf 9a fc bb d8 13 fc bc 78 17 e0 3c 09 70 ca 3c
       -0.007708877 -0.030771181 0.02735494 0.024711626
000060 13 c8 4e bd 33 41 b9 bd 46 01 61 3c c5 b7 2a bd
       -0.050483774 -0.09045639 0.013733214 -0.041679163
000070 e8 a0 c0 bd 01 73 2f bd 2e 22 d7 bc 44 0d 37 3d
       -0.094056904 -0.042834286 -0.026261415 0.044690385
000080 f6 35 34 3d ee c1 2e bd c6 d7 44 bc ea fb 83 3c
       0.043996774 -0.042665415 -0.012014335 0.016111333
000090 53 73 37 3d 22 c0 e5 3c 53 22 6b bd d8 06 35 3d
       0.044787716 0.028045718 -0.05740578 0.04419598
0000a0 c7 ad f4 3c 88 75 c0 bb 9d b9 75 3b 26 3d b0 bd
       0.02986802 -0.005873386 0.0037494667 -0.08605413
0000b0 1f 40 86 bb cf da f3 bc 4a f5 85 bd c4 e5 e8 3d
       -0.0040969993 -0.029767422 -0.06540926 0.11371949
0000c0 34 28 9d 3d 7b 3e a4 bd dd 32 b5 bd 9f fc 54 3d
       0.07673684 -0.0801973 -0.08847592 0.05199873
0000d0 f2 f4 c8 bd 7d 45 4d bc ff 9d 49 3d 59 ec 68 3d
       -0.098123446 -0.012528774 0.049222942 0.056866024
0000e0 a3 be 42 bd 58 57 6f 3d 14 4c 99 3d 09 35 cd bc
       -0.047545087 0.058432907 0.07485214 -0.025049703
0000f0 89 2a 2e 3d e8 bf 15 bd ac 17 8e bd 6e ef 87 bd
       0.042521033 -0.03655997 -0.06938109 -0.066374645
000100 83 09 9e bd 7a 38 83 bd 66 00 74 3d 09 f6 63 3c
       -0.07716658 -0.064072564 0.059570692 0.01391364
000110 0c b1 a0 bd 86 d8 94 3d a9 ce 11 3c 9e cf be bc
       -0.07846269 0.07267861 0.008899369 -0.023292359
000120 51 de 9a bd a8 6b 4e 3d 87 fd 8d bd f5 2a 76 bd
       -0.07561935 0.050395638 -0.06933122 -0.06009956
000130 2c db 91 bd 8c 3e 2c 3d 10 e8 25 bd 53 70 a9 3d
       -0.07121882 0.042051837 -0.040504515 0.08273377
000140 22 6c 66 bd 93 9e a3 3d 5a 29 ce 3c 09 19 93 3a
       -0.056255467 0.0798923 0.025166202 0.0011222671
000150 f7 22 a9 3d 43 78 8b bc 7f 72 0c 3d 44 c8 77 bd
       0.08258622 -0.017025119 0.03428888 -0.060493723
000160 5a bf 8e bd fb b1 39 bc 6f e9 02 3d c4 2b f2 3b
       -0.06970091 -0.011333938 0.0319609 0.007390471
000170 1b 8c d8 3d e2 90 b3 3d 1c 4b 86 3d be e3 c5 3c
       0.10573598 0.087678686 0.06557295 0.024156447
000180 36 5b f2 bc 86 04 df 3b ab 1d 1f bc 84 87 bf bc
       -0.029584508 0.006805959 -0.009711663 -0.023380049
000190 28 2a a5 3d a0 30 72 3d 89 13 71 3d 46 cc d2 3c
       0.08064681 0.059128404 0.05885652 0.02573217
0001a0 40 a3 8c bc 68 99 15 39 55 81 85 bc c9 bc 4c 3d
       -0.017167687 0.00014266896 -0.016297022 0.049984727
0001b0 92 9d 34 bd 21 9b 0c bd 7d 39 24 bc 57 70 43 bd
       -0.044095583 -0.03432763 -0.010023472 -0.047714557
0001c0 dd 52 a0 bc ae c5 49 3b ef a6 e6 3b 22 2b a1 3c
       -0.019570762 0.0030787992 0.007038943 0.019673888
0001d0 76 a8 f2 3d bb 93 9d 3d a9 95 48 bd aa f8 98 bd
       0.118485376 0.07694193 -0.048970852 -0.07469304
0001e0 b7 80 98 3d 19 af 5d bd d8 22 e5 3d c3 ad 49 3c
       0.074464254 -0.054122064 0.111882865 0.012309494
0001f0 ec 29 be bd b0 09 95 bb c8 26 d9 3c ca b9 9b bc
       -0.0928534 -0.004548274 0.02650775 -0.01900949
000200 49 e5 f8 3d 01 72 9a 3d 86 9e 80 bc 13 25 47 bc
       0.12153108 0.07541276 -0.01570059 -0.012154835
000210 9b 45 70 bd 9f 20 dc 3c dd 0a ae bd 5c a3 18 3d
       -0.05866013 0.026871024 -0.08498166 0.037265167
000220 3c 7a b1 3d 5c e6 a2 bd 74 86 92 3d b4 26 90 bd
       0.086658925 -0.07954094 0.07154551 -0.07038632
000230 a1 1c 9e bd 02 08 a6 3d d7 9e b1 3d 2d a6 91 3c
       -0.07720304 0.08106996 0.086728744 0.017779434
000240 8e e3 61 bb 0d 82 66 3d 2a 3c 05 3e 86 03 13 bd
       -0.0034467909 0.05627637 0.13011232 -0.035892032
000250 bd 50 a5 3d 2b db 72 3c ca a0 97 3a 3e a5 9c 3d
       0.0807204 0.0148227615 0.0011568305 0.07648705
000260 96 67 8d bd 91 30 08 3d 94 e0 e4 bc 1d 52 85 bc
       -0.06904523 0.03324944 -0.027939118 -0.016274506
000270 80 8e ba bc 22 21 65 3b b2 30 85 3c 79 96 37 bd
       -0.022773027 0.0034962376 0.016258571 -0.044821236
000280 6b 56 a5 3c e4 86 75 bd 2d 83 01 bd c7 d7 93 3c
       0.020182809 -0.059943095 -0.03161924 0.018047227
000290 6c 84 e3 bc 8b 78 d7 3d 61 69 0c 3c 3d c3 30 bc
       -0.027773105 0.105210386 0.008570046 -0.010788736
0002a0 03 48 de bd f9 1a 86 3d 42 07 ee 3d 25 0d 67 3d
       -0.10853579 0.065481134 0.11622478 0.05640902
0002b0 68 53 61 bc fe ef d5 bc 47 8f a8 3b 1f a5 8a bd
       -0.013752796 -0.026115414 0.005144033 -0.067697756
0002c0 8b f6 71 bd 8f d1 98 bd 25 71 45 bd d5 d4 80 3d
       -0.059073012 -0.07461845 -0.048203606 0.062905945
0002d0 08 da ce 3c 44 ff 66 3c e2 d7 8f 3a e6 bf 03 bd
       0.02525045 0.014098946 0.0010974372 -0.03216543
0002e0 45 f7 21 bd ca c7 02 3d 3d 04 05 3b e1 3b 63 bd
       -0.039542455 0.031928815 0.0020296716 -0.055477027
0002f0 3b d5 6f bc 2f e6 81 bd 85 e7 7d bc ae e3 ac 3a
       -0.01463824 -0.06342732 -0.015497093 0.0013190412
000300 3d 74 56 3c d6 46 9b bd 08 76 e4 bb 43 df 42 3c
       0.013089237 -0.0758187 -0.0069720782 0.01189405
000310 f5 67 a0 3c 39 4b c3 3d 87 51 40 3d 15 f3 d9 bc
       0.01958082 0.09535832 0.04695275 -0.026605168
000320 04 ba 71 bd fd 15 c0 3d ab 80 f4 bc c8 24 07 3d
       -0.05901529 0.09379194 -0.02984651 0.03299406
000330 23 f0 9e 3d 5d 68 75 3d 6f 7e e7 3c e9 89 c9 bc
       0.07760646 0.05991398 0.02825853 -0.024601893
000340 46 72 b1 3d 29 99 6b bd 8f ca 8b 3c 09 92 70 3d
       0.08664374 -0.05751911 0.01706436 0.05873302
000350 f3 17 14 3d f3 18 33 bc 77 10 ee bc a4 e9 bd 3d
       0.036155652 -0.010931241 -0.029060585 0.09273079
000360 06 61 8b 3d cc c1 68 3d f3 7d 1c 3d bc a1 2e 3b
       0.06805615 0.056825444 0.038206052 0.0026646694
000370 58 44 5f bc 64 1e 60 bd ec 39 8e 3d 53 df b6 bd
       -0.013627134 -0.054716483 0.069446415 -0.089293145
000380 2d e8 a6 bd 55 81 ba 3d 43 34 7c bd 40 5e 5b bd
       -0.08149753 0.091066994 -0.06157328 -0.05355668
000390 f5 5e 02 bb 0c 46 35 3c ac 14 28 bd 1c a7 8d bd
       -0.0019893025 0.011064064 -0.04103534 -0.06916639
0003a0 9f 3a d3 bc 9a 8f 33 bc a3 81 b6 3d 6d 73 f3 3c
       -0.025784789 -0.01095953 0.08911445 0.029718125
0003b0 47 fe 3b bd c9 18 10 3d 62 9c c2 3d d6 d4 84 bd
       -0.045896795 0.035179887 0.09502484 -0.06485908
0003c0 8f 9e 35 3d bf 78 a6 bd 14 7b 3b 3d e6 a4 67 3d
       0.044340666 -0.08128499 0.045771673 0.056553744
0003d0 65 18 7f 3d fd 9b 3e 3d 57 1e af bd 37 55 e9 bc
       0.062279124 0.04653548 -0.08550709 -0.028483016
0003e0 4d eb b6 bd 5b 4f e6 3c 25 2f aa bc 58 17 d6 3d
       -0.08931599 0.028114012 -0.020774433 0.10453671
0003f0 94 ec 5f 3d b5 c6 3e bd 02 e1 c3 bc 92 4d ea 3c
       0.054668978 -0.04657622 -0.023911003 0.028601442

encoder.2.bias f4 [128]
000000 4e 16 44 bc 6d f4 e2 bb fd a6 85 bd 75 aa bf 3d
       -0.0119682085 -0.0069261105 -0.06525991 0.09358684
000010 f3 c9 85 3d 5e 97 93 bd a1 cd 82 3d 47 d1 76 bd
       0.065326594 -0.072066054 0.06386877 -0.060258176
000020 3a 09 85 bd 92 fa 94 bb 61 e7 56 3d f3 95 44 bc
       -0.064959005 -0.004546472 0.052466754 -0.011998641
000030 39 8f 07 3d 68 89 82 bd 1e 8a a1 3c c5 1a b7 3d
       0.033095572 -0.063738644 0.01971918 0.08940653
000040 fd 21 f7 3c e9 13 19 3d 7f 88 96 bc 00 25 96 bd
       0.030167574 0.037372503 -0.018375633 -0.07331276
000050 a2 06 e9 bc a0 a0 81 bd 1c fb e1 3c 8a cd 7a 3d
       -0.028445546 -0.06329465 0.027585559 0.061231174
000060 fb d0 06 3d d0 c9 d6 3d 4e 9f 03 bb 4a ba bd 3d
       0.032914143 0.104877114 -0.0020083967 0.092640474
000070 a5 99 32 bd a5 1c 99 bc cb 78 54 3d 51 2b 81 bc
       -0.043603558 -0.018690417 0.05187301 -0.015767725
000080 47 15 c6 bc fc 65 30 bd 56 77 22 bc 18 43 32 bb
       -0.024180068 -0.04306601 -0.009916147 -0.0027200636
000090 84 ce 26 3d a2 0a ea bc 45 00 7e bd c8 07 27 3d
       0.040724292 -0.028569523 -0.062011976 0.040778905
0000a0 29 3c 68 bc 0b 6f 85 3d 4e cf 10 bd 95 0a aa bc
       -0.0141745 0.065153204 -0.03535395 -0.020756999
0000b0 6e a7 ce 3d 08 4f 9e 3d ef 18 08 bd 7b 01 a9 bc
       0.100905284 0.07729918 -0.033226904 -0.020630589
0000c0 f3 83 d8 3c 3f 81 be bc e2 81 4c 3c a3 ef d5 bc
       0.026430106 -0.023254989 0.012482138 -0.026115244
0000d0 4d f4 84 bb fb ed 09 3c 3b 86 ff 3c a6 36 9c bd
       -0.0040574432 0.008418555 0.031191936 -0.07627611
0000e0 52 90 62 bd d6 68 76 3c 77 d9 3e 3d 8c 85 af 3d
       -0.055313416 0.015039643 0.04659411 0.08570394
0000f0 45 1e d0 bc ff 3b 28 3c 69 aa 42 3d ae ea 87 bc
       -0.025405059 0.01026821 0.047525797 -0.016591396
000100 30 62 96 bd 90 79 63 3c fb 12 63 bd 96 d8 11 bd
       -0.073429465 0.013883963 -0.055438023 -0.035606943
000110 87 52 55 bd 46 1f c1 3c 8c 13 2a bd 30 d2 98 3b
       -0.052080657 0.023574483 -0.041522548 0.004663728
000120 7c df dd 3a 32 9d 29 bc 08 93 85 bd 55 7d c6 3b
       0.0016927565 -0.01035242 -0.065221846 0.006057421
000130 e5 c8 c9 3d 71 5e 13 3d 6e b0 58 3d 08 35 ae 3d
       0.09852771 0.03597874 0.05290263 0.08506209
000140 09 3a c4 3c 62 19 66 bd 56 38 a0 3a d2 5b 32 3d
       0.023953455 -0.05617655 0.0012223821 0.043544598
000150 54 94 84 3d b2 54 7b bc b9 5e c8 3d 61 dd 53 3d
       0.06473604 -0.015340017 0.09783692 0.051724795
000160 ea 16 5a bd 36 e9 8e bd 58 bc 6e 3d 65 e7 3d bd
       -0.05324451 -0.06978075 0.058285087 -0.046363253
000170 51 37 54 3d c6 26 60 bd 8b 85 2e 3d c8 e3 a1 3d
       0.051810566 -0.054724477 0.042607825 0.07904774
000180 4b 8a 02 bc cc 31 80 3b 20 95 b4 3d c8 50 9d 3d
       -0.007967542 0.0039121863 0.08817506 0.076814234
000190 15 f7 da 3d 8a 6f 74 bd 85 18 3e 3d 92 c2 c5 bb
       0.106916584 -0.059676684 0.046410102 -0.0060351575
0001a0 4e 98 13 3d 4c b3 74 bd 29 99 0c 3d 0f 29 bb 3d
       0.03603392 -0.059741303 0.034325752 0.09138691
0001b0 bb 90 7c 3d 03 e0 3f 3d 40 ce 65 bd 54 4d f0 bc
       0.061661463 0.046844494 -0.0561049 -0.029333748
0001c0 fa 51 31 bb b6 31 b5 bc 08 04 4e 3d 7c 01 c7 3c
       -0.0027056918 -0.02211843 0.050296813 0.0242927
0001d0 48 d3 51 3c 75 9e f0 bc 6d e7 fd bb 95 0f 22 3c
       0.012806721 -0.029372433 -0.0077485354 0.00989141
0001e0 1d 50 f7 bb 3a ed 15 bd 0e b0 57 3d c7 e3 81 bc
       -0.007547392 -0.03660319 0.052658133 -0.015855683
0001f0 23 9f 83 3c 9b 92 09 bd c4 8f 83 3c 9d 6f 80 bd
       0.016067093 -0.03358708 0.016059764 -0.062712885

encoder.4.weight f4 [128, 128]
000000 20 c6 07 bd f1 a7 72 3b af 50 97 3d 43 e7 48 3d
       -0.03314793 0.003702637 0.07388436 0.049048673
000010 50 9b 92 bd 9a 8b 82 bb 5d d5 7b bd 57 fd 89 bc
       -0.0715853 -0.003983927 -0.061482776 -0.016844435
000020 f6 9a ba bc 2c 8f a8 3c 6f d5 0e 3d ec dd bf 3d
       -0.02277897 0.020576082 0.034871515 0.093685
000030 1a 19 81 bd 8d ec 75 bd b7 ce b7 3d 03 20 cf bd
       -0.06303616 -0.060040046 0.089749746 -0.101135276
000040 6e 93 95 3d 8c 0a 8f 3d 60 66 93 bd 59 b6 f1 bd
       0.073035106 0.069844335 -0.07197261 -0.11802358
000050 5d f7 8e 3d 6e cb d3 bd 56 db 4e 3d 3e 4a 5d bb
       0.069807746 -0.103415355 0.050502144 -0.0033766176
000060 1d 61 3b bd c3 ba 20 3d b7 27 63 bd b6 36 6d 3d
       -0.04574691 0.03924061 -0.055457797 0.057913505
000070 e6 b7 88 bc 76 24 a1 bc 9f 70 96 3d 9c 7e e1 3c
       -0.016689252 -0.019670706 0.073456995 0.027526192
000080 e6 5e 80 bd 5c 88 9f bd d6 f6 08 3d 99 0e b1 bd
       -0.062681004 -0.0778968 0.033438526 -0.086453624
000090 a6 54 0a 3d 47 b8 23 3d 04 b3 92 bd 5b 11 49 3d
       0.033772133 0.039970662 -0.07163051 0.049088817
0000a0 27 9c 08 3c 72 dc 63 3d 90 7d fc bc e9 7e c9 3d
       0.008338011 0.055630155 -0.030821592 0.09838659
0000b0 dd 6d c2 bd c3 c4 a6 bd 9e e5 88 bc d3 81 f4 bc
       -0.09493611 -0.08142998 -0.016711053 -0.029847061
0000c0 25 f6 83 3c 4c 3f f2 39 a2 3f 2b bd 38 0a 89 bd
       0.016108582 0.00046204997 -0.04180873 -0.06691402
0000d0 4f f6 c7 3c 5e db b1 bd 88 26 58 bd f2 6f de 3c
       0.024409441 -0.08684419 -0.05277112 0.027152989
0000e0 a5 11 6a bc 38 0c c8 bc 00 61 91 bd 83 9c 80 3d
       -0.014286433 -0.024419889 -0.070985794 0.06279852
0000f0 1e 06 c8 3c ee ad 98 bd 1c ca 8c 3d 84 35 33 3c
       0.02441698 -0.074550495 0.06874487 0.010938052
000100 ec 4b 15 3d 4a d5 a0 bc a9 dd 40 bc a6 b1 9e 3c
       0.036449358 -0.019632954 -0.011771598 0.019371819
000110 9d 4b 29 bd 99 1c a2 3d c2 bc 85 3d 01 bc f0 bc
       -0.041331876 0.07915611 0.06530143 -0.029386522
000120 af f8 39 bd 66 58 b5 bb 99 c3 2c bd 57 0a 68 3d
       -0.04540318 -0.0055342196 -0.042178724 0.056650486
000130 f0 4c ba bc f6 af 6c bd 23 0d b3 3d 9b 76 9f 3d
       -0.022741765 -0.057784997 0.0874274 0.07786294
000140 65 cd 9f 3d 74 2d b0 bd aa cc b0 3c db ed ab 3c
       0.07802848 -0.086024195 0.021581966 0.020987442
000150 52 5a 10 bd 4f 7a 96 bd 23 46 74 3c 8b b8 f7 bc
       -0.035242386 -0.07347547 0.0149093 -0.030239364
000160 f5 6d a0 3c 47 3a 06 3d 52 b2 8d 3d ba 3e b0 3d
       0.019583682 0.03277042 0.069187775 0.08605714
000170 50 90 5c bd aa 69 07 be 6b 55 04 3b 3e b6 d9 bc
       -0.053848565 -0.13223901 0.0020192515 -0.026576158
000180 33 4f 23 bb 88 71 88 bd aa 3d 76 ba 19 78 c2 3c
       -0.0024919033 -0.06662279 -0.0009393344 0.023738908
000190 1a 0d 0e 3d 28 ab 26 bd e9 e6 11 3d ff 2b 1e 3d
       0.034680463 -0.04069057 0.035620604 0.038616177
0001a0 b4 bb 7e 3d c7 f7 92 3d ab be c6 bd d7 e6 8b bd
       0.062190726 0.07176166 -0.09704336 -0.068311386
0001b0 5c 9a 51 3d c3 6f 83 3d cf 27 93 3d 19 ef 04 3c
       0.0511726 0.06417801 0.07185327 0.008113646
0001c0 b2 da cf bd c2 df 63 bd fd c1 77 3d 18 e9 32 bd
       -0.10149135 -0.055633314 0.060487736 -0.043679327
0001d0 73 69 46 3c ca af c8 3d 05 bb 5b 3b 7f e3 05 bc
       0.012110102 0.09799154 0.003352822 -0.008171915
0001e0 bc a1 d2 3c f1 55 b7 bc d6 b2 05 3d c3 a7 b6 3d
       0.025711887 -0.022379847 0.032641254 0.08918717
0001f0 fb d6 d6 3d 81 3d ee bc 85 5f 9c 3d 5b 8c c2 bc
       0.10490223 -0.029082062 0.076354064 -0.023748567
000200 2a db 80 3c d3 36 71 3c 3c 09 a7 bd fa 3f c8 3d
       0.015729506 0.014722544 -0.08156058 0.097778276
000210 e9 ad af 3d 25 dd b3 bd 41 32 5e bd 6c cd b9 bc
       0.085780926 -0.08782414 -0.054247145 -0.02268096
000220 37 73 0e bd 88 d7 f7 b9 50 e5 e3 bd 4e 86 6d bd
       -0.034777846 -0.00047272095 -0.11127722 -0.05798941
000230 b7 4b d6 bd d6 86 4a 3d 41 67 c1 bd 45 76 cc 3c
       -0.1046366 0.049444996 -0.09443522 0.024958739
000240 25 4b 6a bc 35 4b a0 bd 0f 40 f2 3c 09 82 29 bd
       -0.014300142 -0.078268446 0.029571561 -0.041383777
000250 e3 cd 75 bd 49 d1 10 3d 27 fb 2d 3d d6 c8 c7 bd
       -0.060010802 0.03535584 0.042475846 -0.09755103
000260 4f 9a bb bd 83 ff ef bc 69 d2 ab bd d9 34 73 3d
       -0.091602914 -0.029296642 -0.08389742 0.05937657
000270 2d 7d d9 3c e8 1e b2 bd ca 3d 6d 3d 52 3d 27 3c
       0.026548946 -0.08697301 0.057920255 0.010207491
000280 05 96 8b bc d1 7b 0b bd ab b9 94 bc 5e 84 31 3d
       -0.017039308 -0.034053627 -0.01815494 0.043339126
000290 2c 96 ea 3d 5e 05 e4 3d 5c 4b 6e 3d 4f 37 f3 3d
       0.11454424 0.11133836 0.058177337 0.11875784
0002a0 17 62 d3 bc 6e 85 92 bd cc fc ed bc c6 4f c9 bc
       -0.025803609 -0.07154356 -0.029051207 -0.024574172
0002b0 91 4a c5 3d 68 6c 55 3d 33 4d b5 3c 8a 70 c6 3a
       0.09633363 0.052105337 0.022131538 0.001513974
0002c0 05 a1 b7 bd 35 be 03 3d b4 d6 b1 3d 5a 20 73 bc
       -0.08966259 0.032163817 0.086835295 -0.014839256
0002d0 91 2c 39 3d 45 b0 77 bd a3 35 2e bd 91 a4 88 bc
       0.045208517 -0.060470838 -0.04253162 -0.016680034
0002e0 8f 0a 4d 3d 7b 10 60 bd 6e 58 89 3d bd 35 b5 3d
       0.050058898 -0.054703217 0.0670632 0.088481404
0002f0 55 1c 1e bd 64 e6 ca 3d b2 9e 37 bb 0b ed 90 bd
       -0.03860124 0.09907225 -0.0028018174 -0.07076462
000300 3a d2 d9 bd f6 f5 cd 39 29 f0 5e bc da 37 b4 bd
       -0.10635801 0.00039283902 -0.013607063 -0.08799715
000310 99 59 59 3d 5d 50 ec bc 81 e7 b9 bd 03 f2 bf bd
       0.053063963 -0.028846914 -0.09077359 -0.09372332
000320 a3 e9 ec 3d 89 a2 f1 3d 75 6c b1 bd 94 a6 b5 bd
       0.11568 0.11798579 -0.08663265 -0.08869663
000330 b1 c9 f1 bc d5 c5 39 3d 0d d0 4f 3d c0 2e 6b 3c
       -0.02951512 0.045354683 0.050735522 0.014354408
000340 79 41 8a bd b0 a1 fc 3c 58 e0 c0 3c f6 33 e2 bc
       -0.06750769 0.030838817 0.023544475 -0.027612668
000350 a0 f8 97 3c 95 22 10 3d db 56 de 3c 3f 31 53 3d
       0.01855117 0.03518923 0.027141025 0.051560637
000360 21 01 cc bd 62 db 31 3b 54 1b 79 3c c1 7c 69 3d
       -0.09961153 0.002713882 0.015204269 0.05700374
000370 a1 a5 9c 3d df 8b f2 3d 1d 76 70 3c f8 75 76 bd
       0.07648779 0.118430845 0.014676598 -0.060171098
000380 d4 ef 45 bb a6 75 07 bc 6c a5 8c bd c0 37 51 3d
       -0.0030202763 -0.008267796 -0.06867489 0.051078558
000390 04 26 d2 3d f1 62 8e bd d3 04 43 3d 50 af fc 3a
       0.10261157 -0.06952465 0.047612023 0.0019278321
0003a0 f3 8c df bc 90 45 94 3c 25 e5 50 bb d4 b3 89 3d
       -0.02728889 0.018099576 -0.0031874862 0.067237526
0003b0 00 04 35 3d bb cb 21 bc 4b 72 fa bb 0a a2 29 3d
       0.044193268 -0.009875233 -0.0076430193 0.041414298
0003c0 12 bf b5 3d d6 d4 7b 3d 03 82 68 3d 87 27 bb 3c
       0.088743344 0.061482273 0.056764614 0.022845997
0003d0 e4 84 be bc 29 62 21 3c 00 2a b6 bd 67 56 45 3c
       -0.023256727 0.009850063 -0.088947296 0.012044526
0003e0 4f e8 00 3d ec 78 b5 bd c1 a2 44 3c 65 23 e7 bc
       0.031471547 -0.08860955 0.012001694 -0.02821512
0003f0 ef 64 b9 bd ff 4c 8c bd 6a d7 85 3d 3d c6 8a bc
       -0.09052455 -0.06850623 0.065352276 -0.01694023

encoder.4.bias f4 [128]
000000 3a 33 56 bd b9 b0 56 bd 8e 60 45 3d 4e 5f b9 3d
       -0.052294947 -0.05241463 0.048187785 0.09051381
000010 4d f4 d0 3d 4e 0e 45 bc 4a 04 36 3d da 50 26 bd
       0.10202847 -0.012027336 0.044437684 -0.04060445
000020 67 43 ca 3d be 4e 7b 3b 8b 60 6c 3d ce 48 62 bd
       0.09876137 0.0038346495 0.057709258 -0.055245213
000030 46 6a a3 3d b8 9e 98 3d 6c 25 f2 bc ca e9 aa 3c
       0.079792544 0.07452148 -0.02955886 0.020863432
000040 c4 09 e9 bc 37 22 c9 bd 93 20 85 3d 17 b6 a5 bd
       -0.02844704 -0.09820979 0.06500354 -0.080913715
000050 93 a6 13 bc f1 d8 04 bc 52 83 ba 3d dc 57 23 3d
       -0.009011882 -0.0081083635 0.091070786 0.03987871
000060 8b b2 89 3d 2e 44 63 3d 88 c3 c9 bd be d6 1f bd
       0.067235075 0.055484943 -0.09851748 -0.039023153
000070 d1 a6 a8 bd 57 cc bd bb f8 07 7f 3d 18 0d 42 bc
       -0.08234943 -0.0057921815 0.06226346 -0.011843942
000080 26 47 61 bd 57 ac e2 3b 96 1d fd 3c 68 96 9e 3c
       -0.054999493 0.006917517 0.030897897 0.019358829
000090 f2 01 a2 3d b2 54 8e bd 18 7b 98 3d da 6e b5 3b
       0.07910527 -0.06949748 0.07445353 0.005536896
0000a0 f0 cb 8a 3d e5 d8 04 3d 37 73 d1 bc 7d c8 5a bd
       0.06777179 0.03243341 -0.025567634 -0.053413857
0000b0 7b 92 0b 3d d5 23 5e 3d 06 95 97 3d c3 64 4a 3c
       0.03407524 0.05423339 0.07401471 0.012353125
0000c0 f0 bc f2 bc 67 a5 9a bd 5b fa 19 bd 1e e6 c1 bb
       -0.029631108 -0.07551079 -0.037592273 -0.0059173247
0000d0 85 cb a0 bd b3 b2 27 3d 33 0c 96 bd 82 b1 2e 3d
       -0.07851318 0.040941905 -0.073265456 0.042649753
0000e0 94 05 7b 3d 54 cd ed bc 0a 0c 1b bd 38 c6 4e bc
       0.061284617 -0.029028572 -0.03785328 -0.012620501
0000f0 66 04 1a 3d a4 3b 08 3d b1 a3 e2 3c b9 d8 bc bd
       0.03760185 0.033260003 0.027665945 -0.09221024
000100 c7 da 20 bd 89 66 27 bd fa 86 aa 3c a5 be 87 3c
       -0.039271142 -0.04086927 0.020816315 0.016570399
000110 4c 85 9f bd cb 9e 21 3d 9e 6e 88 bd 36 40 2f 3d
       -0.07789096 0.039458077 -0.066617236 0.042785846
000120 06 4b 15 3d fc 4a 18 3c a1 f0 dc 3c bf f0 62 ba
       0.0364485 0.009295221 0.02697021 -0.000865709
000130 21 5e 37 3c 22 5c e1 bc d5 e5 e2 bd e9 73 85 bd
       0.011191876 -0.027509753 -0.11078993 -0.06516249
000140 60 5c 72 bb 41 04 a6 3c b4 63 89 bc 49 b6 57 bd
       -0.003698133 0.0202657 -0.016771175 -0.052664075
000150 d5 ed 9b bd dc 0e b1 bd 52 d1 9a bd 9d 4f b1 3b
       -0.07613722 -0.08645412 -0.07559456 0.005411102
000160 5d 5b 9e 3d 8b 13 51 3d 1e 42 06 3d 84 2a 32 3d
       0.0773227 0.05104403 0.032777898 0.043497577
000170 f8 ed 78 bc 40 cb 51 bd 4b f4 cc bc 4b 44 c8 3d
       -0.015193455 -0.051219225 -0.025018832 0.09778651
000180 d1 0a 98 3d 60 97 81 3d e8 78 08 bd c9 83 05 bc
       0.07423938 0.063277006 -0.03331843 -0.008149096
000190 c3 f8 a8 bd 2e 53 99 3d bd 19 b4 3c 26 21 79 bd
       -0.082505725 0.074865684 0.02198493 -0.06082263
0001a0 5e d2 b4 3c e0 66 c2 3c 79 74 af 3a 01 63 6f bd
       0.022072967 0.023730695 0.0013386152 -0.058444027
0001b0 1c c3 fd 3a 53 ff 86 3d 25 9a 90 3d b4 45 ec 3b
       0.0019360515 0.06591668 0.07060651 0.0072104577
0001c0 30 c6 0d bd 2b 1a b1 ba 8a 68 35 3d 83 c7 a6 3d
       -0.034612834 -0.0013511827 0.04428915 0.081435226
0001d0 24 19 08 3d 57 a3 8e 3d f2 06 76 bd bb 37 1f 3d
       0.0332271 0.06964748 -0.060065217 0.038871508
0001e0 3b 8d 84 3d 83 02 b0 bd 18 c4 ee bc e1 26 db 3c
       0.0647225 -0.08594229 -0.02914624 0.026751937
0001f0 03 c4 75 bd cc 43 e9 3d 79 36 8c bd 8a d7 9a 3c
       -0.060001384 0.11389884 -0.06846327 0.018901605

decoder.0.weight f4 [128, 128]
000000 bc 07 11 38 5e 7c df 3c f5 85 a0 bd d6 38 91 bd
       3.4577897e-05 0.027280983 -0.0783805 -0.07090919
000010 02 bf 6e bd 8e b9 83 3d ef 45 66 bc 1d cd ec 3c
       -0.058287628 0.06431876 -0.014054759 0.0289064
000020 a0 64 94 bd 7d af b4 3d 96 63 97 bc f9 28 54 bd
       -0.07245755 0.08822534 -0.018480103 -0.051796887
000030 6d 09 1d bd 8a 23 3a 3d 15 92 aa bd f1 37 b2 3c
       -0.038339067 0.04544405 -0.08328644 0.02175519
000040 0f c2 a2 bd 6b 2d 4b bd cc cf 0d 3d 0b 8a 11 3d
       -0.0794717 -0.04960386 0.034622 0.03553204
000050 74 1b d2 bb 02 c1 8d bc 3d a1 0c 3d 13 d2 4e bd
       -0.006411964 -0.017303947 0.034333456 -0.05049331
000060 41 78 6d 3d 50 71 cb 3c 2d 9a dc bc 12 0c 73 bd
       0.05797601 0.024834305 -0.026928985 -0.059337683
000070 a5 49 8a 3d 40 f6 dc 3c b6 49 a1 bc 62 d3 43 bd
       0.06752328 0.02697289 -0.019688468 -0.047809012
000080 6d 75 56 3d 0c 8f a5 bd f7 d8 3c 3d 69 62 46 3d
       0.05235808 -0.08083925 0.04610535 0.048433695
000090 95 0e 1d 3d 9c f7 f7 bc 98 3d ad bb 34 08 9f bd
       0.038343985 -0.030269437 -0.0052868836 -0.077652365
0000a0 d8 65 82 bd 1d 7f 6a 3d 59 02 5a 3d d3 19 55 bc
       -0.063670814 0.05725013 0.053224895 -0.013006645
0000b0 1b 81 07 3c 0d 02 6a bd 5b 87 8e 3b c9 06 d2 bc
       0.008270527 -0.057130862 0.0043496317 -0.025638001
0000c0 eb cd d1 bc a9 b9 3b 3d dc df 80 bd bc 2a 9b bd
       -0.025610885 0.045831356 -0.06292698 -0.0757651
0000d0 67 cb 58 3c 2a fe a5 3d 7c 54 bd bb 52 7b 96 bc
       0.013232089 0.081051186 -0.0057778936 -0.01836935
0000e0 90 c6 30 bd f2 8c 4f bd dd 75 7a bc 49 37 40 bd
       -0.043158114 -0.050671525 -0.01528689 -0.046927724
0000f0 19 cb 52 3d 07 bd 6e 3d 5b b4 42 bd e9 3c 86 3c
       0.05146322 0.05828574 -0.04753528 0.016386466
000100 a2 c8 38 bd 77 ca 84 3d 75 33 50 bb 44 da 06 3d
       -0.045113213 0.064839296 -0.0031768952 0.032922998
000110 ee 02 6b bd 80 8a c5 3c ec 85 95 3d 4d 51 30 3a
       -0.05737584 0.024113894 0.07300934 0.0006725982
000120 c4 9c 63 bd 28 64 8d 3d a2 f5 48 3d dc 6e fa bb
       -0.055569425 0.06903869 0.04906238 -0.00764261
000130 9a f0 7c bd 3a ad 1e 3d e3 e8 f8 b8 93 87 30 bd
       -0.061752893 0.03873942 -0.0001186894 -0.043098044
000140 00 f0 b4 3d 3a fb 9f 3d 84 81 e2 3b 3f ef 04 3c
       0.08834839 0.078115895 0.006912412 0.008113681
000150 3c c6 77 bd 9e 24 9e bd 3d 3d 75 bd 52 e4 e9 3c
       -0.060491785 -0.07721828 -0.059872855 0.028551254
000160 e6 8d b8 3d a9 42 45 bd 65 f2 6f bd 30 33 b7 3d
       0.0901144 -0.048159275 -0.058580775 0.0894531
000170 58 45 f5 bc 9c 5b 58 bd b1 bd 6b bd 7b a8 4c 3c
       -0.029940292 -0.05282174 -0.05755395 0.012491341
000180 e8 92 5e 3d e6 47 dc bc 3d c4 b6 bc 9b c2 3a bd
       0.05433932 -0.026889753 -0.02231037 -0.045595746
000190 55 d5 e8 bc d4 42 8a bd 10 11 6c 3a 36 f2 3c bd
       -0.028422037 -0.06751028 0.0009005228 -0.046129428
0001a0 df c6 99 3d f7 c9 a2 3d 46 a8 28 bd a4 41 26 bd
       0.07508635 0.07948678 -0.041176103 -0.040589944
0001b0 20 5b 92 bc f3 24 89 bd e5 2a 25 3d 7b ec 62 3d
       -0.017865717 -0.06696501 0.04032411 0.055401307
0001c0 4b a5 b6 3c ca 19 34 3b 82 91 26 bd 3a d1 e4 38
       0.022295615 0.0027481192 -0.04066611 0.00010910859
0001d0 45 ec c6 bc cb f6 93 bd 8b 20 4f bd 50 91 1b 3c
       -0.024282584 -0.072248064 -0.050568145 0.009495094
0001e0 98 a0 06 3d 1f 1d 8d bd 2e 61 4a 3d 24 73 91 bd
       0.032867998 -0.0689032 0.049409084 -0.071020395
0001f0 6e 79 17 bc 70 15 53 bc 8a 9c 8c bd cb 0f 60 bd
       -0.00924526 -0.012883529 -0.06865795 -0.05470256
000200 7a 73 0f 3d fe f2 9d bd a5 f7 85 bd 64 b3 78 bd
       0.035022236 -0.07712363 -0.06541375 -0.060717955
000210 42 ab 17 bd 56 dd 28 bb 64 df cb 3c 5a 15 ad bc
       -0.03702856 -0.0025766692 0.024886794 -0.021128345
000220 55 2c e7 bc 42 69 6e bd a8 da bc 3d 27 07 89 bd
       -0.028219381 -0.05820585 0.09221393 -0.06690817
000230 ee d1 a6 bd 6b a3 41 3d 54 72 1b 3d 36 17 99 bd
       -0.0814551 0.04727499 0.03795083 -0.0747513
000240 70 0a 42 3d 78 42 90 3d 23 f9 cc 3c a0 ab b9 bd
       0.047373235 0.07043928 0.025021141 -0.09065938
000250 07 05 e8 bc 94 57 92 3b f3 01 5d bd 9b 03 81 3c
       -0.02832271 0.0044660065 -0.053956937 0.01574879
000260 50 d1 67 3d 66 e1 47 3c f1 4a 88 3d 42 a3 9d bd
       0.0565961 0.012199735 0.06654919 -0.076971546
000270 57 c7 06 3b eb 91 59 bd d5 19 80 3d e7 a0 53 3d
       0.0020565593 -0.053117674 0.06254927 0.05166712
000280 1b 96 19 bd b8 d8 95 bd 05 c5 82 3d 12 2b 5c bd
       -0.037496667 -0.073167264 0.06385235 -0.053752013
000290 1c af 62 3d 4c 1f e4 3b 60 e7 29 bc 71 65 57 3d
       0.05534278 0.0069617387 -0.0103701055 0.052586976
0002a0 b0 40 79 bd 59 08 a2 3c 17 65 83 3d e6 cd 7f 3c
       -0.060852706 0.019779371 0.06415766 0.015613055
0002b0 f2 6c 9c bd 67 42 a8 bd a0 4f d8 bb 45 60 65 bb
       -0.07637967 -0.0821579 -0.006601289 -0.0035000008
0002c0 cc f1 28 bc 2b 15 ac bd 93 0b 82 3c 44 56 da bc
       -0.010311555 -0.08402475 0.01587466 -0.026652463
0002d0 2e 0c 0e bd 0c 3b 9f bc 98 0f a2 bc b3 7e 38 bd
       -0.034679584 -0.019437335 -0.019782826 -0.045042705
0002e0 08 cb 15 bd 0b 48 aa 3d bd 2a 5a 3d 4b 42 a0 bd
       -0.03657058 0.08314522 0.053263415 -0.078251444
0002f0 22 29 b7 bd 91 19 2f bd de 8a 4d ba 5c 2f b3 bd
       -0.08943392 -0.04274899 -0.0007840822 -0.087492675
000300 e4 65 3f bd 98 e6 aa 3c 8a 22 d4 bc 13 65 8f bc
       -0.04672803 0.020861909 -0.025895376 -0.01750425
000310 42 8f 87 bd 97 f6 85 bd be ec 81 3d c7 48 00 3d
       -0.06619121 -0.06541174 0.06343983 0.031319406
000320 7c 82 fd 3c 57 a0 2d 3d 83 ee b4 3c 59 d6 55 3d
       0.030946009 0.04238924 0.022086388 0.05220637
000330 ac 9d db bc 92 e2 32 3d af e1 9c bb 6f b3 11 3d
       -0.026808582 0.043673106 -0.004787646 0.03557151
000340 64 9c 81 bd 1d f5 2c bc 58 6c 9f 3c ee 41 d1 bb
       -0.06328657 -0.010556486 0.019460842 -0.0063860333
000350 47 f2 5b 3d ab 12 7f 3d cd cd 67 3d 3c 1e 90 3d
       0.05369785 0.062273663 0.05659275 0.07037017
000360 a4 df 90 bc 27 71 02 3d 31 34 5a bb 81 1b 16 3d
       -0.017684765 0.03184619 -0.0033295269 0.036647324
000370 f3 46 9d 3d 43 3f 59 3d 83 b9 90 bd c6 62 99 3d
       0.07679548 0.053038847 -0.070666336 0.07489543
000380 4b e3 81 3d f3 d1 87 3d 38 9d b9 3d a9 ca 98 bc
       0.06342181 0.066318415 0.0906319 -0.018651323
000390 8d a3 52 bd 09 86 59 bd 8a 8c 86 3d 97 ca c0 bc
       -0.051425505 -0.05310634 0.065697744 -0.023534102
0003a0 e3 ba 8a bd a3 28 85 3d 42 3f 86 bd 95 ab b5 3d
       -0.06773927 0.065018915 -0.06555034 0.08870617
0003b0 de fc 0f 3d 76 cc f8 bc ad 78 7e 3d 27 54 44 3d
       0.035153262 -0.030370932 0.062126804 0.047931816
0003c0 e5 57 6b bd 63 85 8c bd 4c 06 98 3d 0b 0f a0 3d
       -0.05745687 -0.06861379 0.07423076 0.07815369
0003d0 4c fe 29 bd 0e 4a 96 3d 0d f9 9d 3d 51 eb 24 3b
       -0.041502282 0.073383436 0.07713518 0.0025164674
0003e0 02 ce 27 bc fd ba 9a bd 9a 1f 3c 3d 57 70 a1 bd
       -0.010241987 -0.075551964 0.045928575 -0.07882755
0003f0 20 44 57 bd a0 87 c5 bc 33 bb 67 3d ac de 7a 3d
       -0.052555203 -0.024112523 0.05657501 0.061247513

decoder.0.bias f4 [128]
000000 d3 32 98 bd 4a 73 90 bd 5b e8 92 3b d2 3d 95 bd
       -0.07431569 -0.0705324 0.0044832653 -0.07287182
000010 71 21 38 3c d0 7c c8 bb 24 38 dc 3c a0 c4 60 3d
       0.011238442 -0.0061183944 0.026882239 0.054875016
000020 d7 e8 88 3d fb 73 11 3c e7 79 5d bd 87 ce a0 bd
       0.06685036 0.00887775 -0.054071333 -0.07851892
000030 1c 9f 63 3b df 54 ed 3c e8 d9 b2 3d 9c 7b c9 3c
       0.0034732288 0.028971134 0.087329686 0.024595074
000040 6d c4 97 3d fd 30 7b 3d aa 86 77 bd 80 7a 95 bd
       0.07410512 0.061326016 -0.06043116 -0.07298756
000050 b5 47 9b bb 21 f4 c4 3c 1c d6 a7 3d 47 ea 25 bc
       -0.0047387728 0.024042191 0.08195135 -0.010126657
000060 0a 1d 4a 3c 45 66 12 bd 49 4e df bb 52 c8 2f 3d
       0.012336025 -0.035742063 -0.0068147522 0.04291565
000070 e9 77 b2 bc 00 54 69 3b d3 c9 8e 3d bb b1 c1 3d
       -0.021785693 0.0035603046 0.06972089 0.094577275
000080 f0 fb 44 3d ec 5f c8 bc 15 8c 83 bd 50 a0 2c bd
       0.04809183 -0.024459802 -0.06423203 -0.042145073
000090 14 b2 d7 3c f5 6e a8 3d c6 58 69 bc e5 37 ac 3c
       0.026330031 0.082242884 -0.014242357 0.021022746
0000a0 cf 7b 67 3c 31 13 9b bd 8a f4 3b bd 0c 34 25 3d
       0.014128639 -0.0757202 -0.045887507 0.04033284
0000b0 5a 09 9e 3d 64 24 d0 bc be 79 20 bd fc 34 d2 bc
       0.077166274 -0.025407977 -0.039178602 -0.02566003
0000c0 96 9d 40 bd 75 86 fe 3b e3 4a 4d bd d4 75 36 3d
       -0.047025286 0.0077674934 -0.050120246 0.044545963
0000d0 89 db a7 3d 36 81 8f bd ee 60 6e bd 4e be 44 bd
       0.0819617 -0.07007067 -0.058197908 -0.04803305
0000e0 43 3d c3 3d 20 44 7e 3d d9 03 0e 3b 0f f4 8f 3d
       0.09533169 0.062076688 0.0021669774 0.07028972
0000f0 cf 62 3a bd 38 51 46 bc 48 d3 8d 3d 7a 42 e2 3c
       -0.045504387 -0.012104325 0.06925064 0.02761959
000100 77 01 57 bd 00 1f b9 3c 82 21 a8 bd 35 17 aa 3d
       -0.05249163 0.02259779 -0.08209516 0.08305208
000110 14 4a c4 bc 2d 1e b2 3d b5 f4 c8 3b e8 ac 87 3d
       -0.023961104 0.08697162 0.006132687 0.06624776
000120 f8 e5 22 bc f6 48 1d 3d 38 98 17 bd de f1 98 bd
       -0.009942524 0.03839966 -0.0370104 -0.074680075
000130 05 c0 a0 bd 8e 9c 2c 3d 98 73 5d 3d d7 a5 4e 3c
       -0.07849125 0.04214149 0.054065317 0.0126127815
000140 d8 77 91 3d e4 28 5a bd 87 24 8b bd 2c 86 8e bd
       0.071029365 -0.053261653 -0.067940764 -0.06959185
000150 1e 8a 2c 3d 4e 91 b9 3d 9f 3d 6e 3a b8 71 90 3d
       0.042123906 0.09060918 0.0009088162 0.0705294
000160 31 ba 5d bc ef 6e af 3d d1 9f d7 bc b1 e3 e4 bc
       -0.013533161 0.08566081 -0.026321324 -0.027940603
000170 9f 70 c7 bc c3 45 ec 3c 54 e0 9b bd 03 2e ae 3d
       -0.024345694 0.028841859 -0.076111466 0.0850487
000180 da 0f 83 3c a6 ae 42 b7 05 d4 40 3c 0a 50 a8 bd
       0.01599877 -1.1603965e-05 0.011769299 -0.08218391
000190 18 c3 b5 3c af a8 bc 3d ed 1d 6e 3d 20 57 8d 3d
       0.022187755 0.09211861 0.05813401 0.069013834
0001a0 2b 2e a2 3d b3 bb f6 3c f4 d5 3c 3d 43 9e 1b bd
       0.07918962 0.030118799 0.04610248 -0.037992727
0001b0 b6 8c 90 3c 0b 59 75 bd 95 65 62 3d 5f 93 b9 3d
       0.017645221 -0.05989937 0.055272657 0.09061312
0001c0 14 0b a2 3d 79 2e 82 bd 21 a0 87 bd 35 01 8a 3c
       0.07912269 -0.0635652 -0.06622339 0.016846279
0001d0 29 ed 77 bd 10 17 2d bc 66 83 88 3d ea 5c 7b 3d
       -0.060528908 -0.010564581 0.06665687 0.061367907
0001e0 b2 72 88 bd 9e a7 7a bd 3e 81 9c bd fa e8 af 3c
       -0.066625014 -0.06119501 -0.076418385 0.021473397
0001f0 9d 98 90 bd 34 6b 84 bc d3 20 96 bd 68 b9 84 3d
       -0.07060359 -0.0161644 -0.073304795 0.06480676

decoder.2.weight f4 [7, 128]
000000 ad e1 a2 bd da 97 db 3c 84 6d ab bd 34 a1 13 be
       -0.079532005 0.026805807 -0.08370498 -0.14416963
000010 06 c6 bd 3d 99 3a 1f bc 90 7f 93 3d 0c a2 dd 3d
       0.092662856 -0.009718561 0.07202065 0.108219236
000020 52 b0 2a 3d 32 52 3e 3d 43 87 88 bd db 62 ca bd
       0.04167206 0.046465106 -0.06666424 -0.098821364
000030 2c eb 74 3d cf 09 01 be 8d c8 a4 bc 21 8e a2 3d
       0.05979459 -0.12601398 -0.020115161 0.07937265
000040 df ed d0 3d 93 92 e8 bd 1e 9d 10 3d d2 bf 97 bd
       0.1020162 -0.11356082 0.03530609 -0.07409634
000050 d8 44 bd 3c f9 36 aa 3d c7 f2 58 3d 6b 2e 99 bd
       0.023104116 0.083112665 0.052965906 -0.07479557
000060 8c 06 03 be b8 a8 45 bc 37 34 6a bc 8d 2c a3 3d
       -0.12795466 -0.0120641515 -0.014294676 0.07967482
000070 ea d8 83 3d e7 62 14 bd bb 4b 08 3d a0 33 f4 39
       0.064378574 -0.036227133 0.033275347 0.0004657777
000080 34 a6 72 bd 43 59 0f 3d ed df 4d bd 67 45 ea bd
       -0.059240535 0.034997236 -0.05026238 -0.11439019
000090 f3 99 03 3e 38 86 a4 3d 85 89 b3 bb 94 e5 63 3d
       0.12851696 0.08033413 -0.00547904 0.055638865
0000a0 5e a3 d0 3d 5c 3e 99 3d 68 de cb 3c 9e be cd 3d
       0.1018741 0.07482597 0.024886325 0.10046123
0000b0 66 46 02 be ae 66 01 be 94 72 ff bc 80 e9 b6 bb
       -0.12722167 -0.12636825 -0.031182565 -0.0055820346
0000c0 2b 5d 22 3d 7a e5 ae bd 55 fb f6 bd ef 76 63 3d
       0.039639633 -0.08539863 -0.120596565 0.055533346
0000d0 54 2c af 3d 80 79 0c 3b 03 40 ff 3d 68 c7 64 bd
       0.08553377 0.0021434724 0.12463381 -0.05585423
0000e0 b0 c3 8b 3d 09 9d 36 bd bc 64 ad bd da 3a 82 3d
       0.06824434 -0.044583354 -0.08466479 0.06358881
0000f0 9e c4 86 bc 5a 6c 31 bd be 82 1f be bd 53 d2 3d
       -0.016451176 -0.043316223 -0.15577218 0.10269878
000100 3d 15 00 3d 6c e2 81 bc eb 23 5b bc bb 07 95 bd
       0.031270254 -0.015855037 -0.013375263 -0.07276865
000110 dd c8 99 3d bc 29 c6 bc 84 98 44 3c fa 86 a8 bd
       0.07509015 -0.024189822 0.011999253 -0.0822887
000120 c8 e0 e9 3c de 23 23 be 7c 0f 0b 3d 4b 4d a5 3d
       0.028549567 -0.15931651 0.033950314 0.08071383
000130 af b2 41 bc b3 29 d5 3d 72 79 d8 bc 77 38 20 be
       -0.011822387 0.10408344 -0.026425097 -0.1564654
000140 de ad 24 be 2f 4a 23 3c 00 6d b9 3d ea b8 71 3d
       -0.1608195 0.009966417 0.09053993 0.05901424
000150 5b 5d ac 3d 71 6a 26 3d d9 84 83 3d aa 89 02 bd
       0.08416244 0.040628854 0.06421823 -0.031869568
000160 c1 f1 ac 3d fd 85 b1 bd 23 76 88 3d e0 34 77 3d
       0.084445484 -0.08668134 0.06663158 0.06035316
000170 2d 31 7d bd f8 51 05 be ae cd 04 3e 97 f6 9f 3d
       -0.061814476 -0.1301955 0.12969086 0.07810705
000180 56 cd 6a b9 91 82 96 3d 8a 6b 3c bb a5 4e 5f bd
       -0.00022392473 0.07349122 -0.0028750622 -0.05451836
000190 f5 d2 20 be 51 79 f7 bd 90 ef 32 3d dc 56 0d bc
       -0.15705474 -0.12083686 0.043685496 -0.008626666
0001a0 ff 5e 60 3d c7 2b d3 3c dd 4f 86 3d 35 7d c2 3d
       0.054778095 0.02577771 0.065582015 0.094965376
0001b0 30 45 2c be b7 bb 06 3e c2 73 f9 3d f6 ac 50 3d
       -0.16823268 0.13157545 0.12180282 0.0509462
0001c0 52 82 17 be bd 8e bf 3c 55 00 fc bc f7 d4 ee bd
       -0.14795807 0.023383493 -0.030761877 -0.116617136
0001d0 02 8f df bd cc 31 61 bd 61 ac 07 3e df f0 02 3d
       -0.109159485 -0.05497913 0.13249351 0.031967994
0001e0 21 59 8f 3d 10 65 8e bd 15 bb 5b bc 85 e0 bd bd
       0.06999422 -0.0695287 -0.013411303 -0.09271339
0001f0 99 e1 22 3d 29 b6 1d bd d0 cd 6f 3c 34 ab d8 3d
       0.039765928 -0.0385038 0.014636472 0.105795294
000200 fa 71 90 3d bc ba 5e 3d fd 80 cb 3d 5d d7 9f bd
       0.07052989 0.054377303 0.09936712 -0.07804749
000210 c1 7f 03 be d9 c3 b6 bd 8f d5 ed bd a3 ec ff 3c
       -0.12841703 -0.08924074 -0.11612999 0.031240767
000220 17 55 f6 bd 4b af a5 3c 01 84 e2 bc 63 1f 1c bd
       -0.12027948 0.020225188 -0.027650835 -0.03811587
000230 28 ae 67 3d ec 40 6a bd 0f 3d bc bc ce fa 28 3b
       0.056562573 -0.05719082 -0.022978334 0.0025784257
000240 4c 54 8f 3d e7 ee d0 bd 00 b5 f3 b9 ef 5e 08 bc
       0.069985 -0.10201817 -0.00046483427 -0.008323415
000250 0e a8 b3 3d ff be 7c 3c ca cc 7c bd 96 67 33 3d
       0.08772288 0.015426396 -0.06171874 0.04379996
000260 6f f9 9b bd 0c b1 ba 3c 37 6d bd 3d 80 9e 92 bd
       -0.07615935 0.0227895 0.09249347 -0.07159138
000270 a8 b2 15 bd da 70 20 3d ed 0f 70 3c 8e c4 e5 bd
       -0.036547333 0.039170124 0.0146522345 -0.112191305
000280 a0 e4 09 be 98 05 c0 bd 9e ed 7b 3d cb 8b 15 bd
       -0.1346612 -0.09376067 0.061505906 -0.03651027
000290 e2 0c 57 3d 3f 7f 0c be 00 80 86 3d 8e 90 99 bd
       0.05250252 -0.13720416 0.06567383 -0.07498275
0002a0 16 85 a4 3d 62 24 ed 3c 40 16 2f 3b 5c b5 ef bd
       0.08033197 0.028948013 0.0026716143 -0.117045134
0002b0 df 08 96 bd 71 3a f0 3c c0 ac a7 bc cc dd 8c bd
       -0.07325911 0.029324742 -0.020468116 -0.06878242
0002c0 40 aa 17 be ce 56 bb 3b e9 72 19 bd e3 c3 d9 b9
       -0.14811039 0.005717135 -0.037463102 -0.00041535412
0002d0 f0 d2 c4 3d 25 80 a0 bd bb 8e aa 3d e4 91 3e 3b
       0.09610546 -0.07836942 0.08328005 0.0029078657
0002e0 b2 3f aa 3c 28 51 45 bd a6 f3 1f 3d 91 5e a8 3d
       0.020782325 -0.0481731 0.03905072 0.08221162
0002f0 5e 52 e5 3d e0 e5 4c 3c 06 68 a3 bc f2 90 50 bd
       0.11197351 0.012505978 -0.019947063 -0.05091948
000300 c7 ea 8e bd b6 f9 24 3d c0 04 ec 3b ec b9 a6 bd
       -0.06978374 0.040277205 0.0072027147 -0.081409305
000310 6f 63 90 3d 6b fa 72 3d 54 87 92 ba 87 15 8c bd
       0.070502155 0.05932085 -0.0011179247 -0.068400435
000320 2d 70 35 bd 08 f8 2a 3d ff 88 ef bc d7 ba 80 3d
       -0.044296432 0.041740447 -0.02924013 0.06285637
000330 72 59 ea bc a4 2a 4d 3d 54 cb cf 3c b5 ef ca 3c
       -0.028607104 0.050089493 0.02536551 0.024772504
000340 7c ff 72 bd e5 4d 0a 3c 6e 09 91 3a 20 29 2e 3c
       -0.05932568 0.008441423 0.0011065432 0.010629922
000350 af 65 0c 3d 69 0a a0 3d 2a d5 f4 bc aa c1 0b be
       0.03427666 0.078144856 -0.0298868 -0.13648096
000360 31 1d f5 3c 49 00 61 bd 3a ec 8b 3d 83 d6 d2 bc
       0.029921146 -0.054931913 0.06832166 -0.025737053
000370 de 25 c3 bd 1a ca c1 bd f4 7f 51 3d 87 ad 50 3d
       -0.09528707 -0.09462376 0.051147416 0.05094674
000380 df 4b a0 3d e8 b1 01 be ac a5 19 3d a0 50 0d 3b
       0.07826971 -0.12665522 0.037511513 0.0021562949
000390 73 80 49 bd 86 63 3f 3c 0a 87 b5 3d 6a c3 be 3d
       -0.049194764 0.011681443 0.08863647 0.09314616
0003a0 4f b5 b6 3d 98 14 51 ba be 75 40 3d 80 49 d0 3d
       0.089213006 -0.0007975786 0.046987288 0.10170269
0003b0 01 9f 7b bd aa 4d d5 3d 60 b9 a2 3d 65 3e 62 bd
       -0.061430935 0.10415204 0.07945514 -0.055235285
0003c0 a9 3e b2 bc 75 b1 39 3d ba ad 8c 3d 7a 7f b7 bd
       -0.021758394 0.04533525 0.06869073 -0.08959861
0003d0 a5 c4 ca bb f8 ba 4b bd 52 31 cf bd 7a 97 87 bd
       -0.0061879926 -0.049738854 -0.10116829 -0.06620689
0003e0 3c 79 8f 3d 03 46 ae bd a8 3e 2a 3d 15 a3 e8 3c
       0.070055455 -0.085094474 0.04156366 0.028398076
0003f0 fd 24 59 bd 67 f9 c1 3c e1 b2 22 3d f5 a7 00 3d
       -0.05301379 0.023678495 0.039721373 0.031410176

decoder.2.bias f4 [7]
000000 0b bd 81 bc d1 12 8e bd 7e f0 f7 3c 24 9f c8 bc
       -0.015837213 -0.06937183 0.030266043 -0.024489947
000010 1a e1 9b 3d ef 2d 8e bd d9 97 34 3c
       0.07611294 -0.06942355 0.011022531
