set_transformer/classification_model/deepset_moonboard_rated.pth (torch, 239192 bytes, 10 tensors)

encoder.0.weight f4 [128, 64]
00000000: fffd f1bd de53 f83d b821 913d e411 d8bd
00000010: 9942 aabd 97a2 6d3d fda8 a7bd 4a2e 0b3e
00000020: b8be 9e3d a6c9 2ebd 7d12 163e 236c 78bd
00000030: 4a83 86bd c7a8 acbb 8534 d53d a256 26bc
00000040: 3327 b2bc a623 31bd df69 d8bb de79 4a3c
00000050: f2fb 6fbb 7e03 b53c aeac 8c3d e04d 0cbd
00000060: c567 0d3d 5705 01bd 1216 b2bd 1028 8f3d
00000070: fdee afba 2eb3 34bd 55e3 8fbd fd3c babd
00000080: fe7d b1bc e1bd 8e3c 1400 d3bd 0ed5 163c
00000090: 1ee3 02bd efe6 da3d d6aa 9ebd 4c78 f9bd
000000a0: 92eb 7cbd efb5 aa3d 25a0 923d 093e b23c
000000b0: 3f53 76bd f565 e63d 4c9d f9bc 68a2 aabd
000000c0: 5988 e63d cbc4 8cbd c1b2 d8bd 07b1 89bd
000000d0: 2329 f0bc 9a23 20bc 35d3 7d3d ef18 183d
000000e0: 2fdd 463d e93f babd 74af 55bd 73a8 3bbd
000000f0: 9078 e13d b149 2b3d 1494 9abd 5219 90bc
00000100: 0a94 1abc 2e2c a8bd 9ed8 9ebc 9a6a 0d3d
00000110: 2e94 93bc 60ac 0c3c 05f7 aabd a8ee de3d
00000120: b907 93bd 45a2 a93d 2e55 22be 3350 fcbc
00000130: 21ef 513d 9f8f 95bd 2376 e0bd fd39 8a3d
00000140: 5ca3 dc3d bd17 c2bd 142f df3d 433e d13d
00000150: c699 e43d 4329 173d 03cd cd3d f60e b03d
00000160: d2f3 0ebd 05d9 3f3c e83e f13d 6f85 08bb
00000170: 358e d63d 11ad e93d 43f9 823d 938f b5bd
00000180: 21eb 04be 661c 683d fefb dfbd 6fc5 ba3d
00000190: e6ce ff3d 423a 0fbe 5fab 28bc 3622 c23d
000001a0: 02a1 e13d 61ee 1abe 5b8f f9bd 61aa a13d
000001b0: 9e5a 453d 84e8 fd3c a3f2 72bd b65e 603d
000001c0: badd a73d 8c49 5b3d 70e1 0abe 2a47 f7bd
000001d0: fb74 b2bc be84 f63d a555 e6bd 5bd3 1fbd
000001e0: 213d a8bd e365 86bd 6251 8bbd fe48 19be
000001f0: b52e debd 8584 683c 4457 d2bd b3c8 ac3b
00000200: bf11 52bd 2920 5fbd 8a54 583d fff7 53bd
00000210: f7f7 c93d 81bc f1bd 119f c43c 0cb0 94bd
00000220: e2ba ec3c ad29 b6bc a995 513c 9079 013c
00000230: aae0 02be a808 bf3c 0526 e73d 155e c13d
00000240: b0cb 4e3d e927 383e 84cc 673c 962a 30bd
00000250: 40a1 4abc ea65 de3d 1a4a cfbd 6830 d83d
00000260: dbae 9abd 3c2c 293b 749d 193d ae3b a0bd
00000270: d2d8 5cbd 650d 5f3c 2658 b53d 876d 9cbd
00000280: d49f e73c 68ff da3c bf76 1abd 6bf2 b9bd
00000290: 8287 cabd df3e 12bb 1680 86bc 764c c23d
000002a0: 5b7f 2fbd bdef 003e 3937 8a3c a2e2 f4bd
000002b0: a50d 91bb 3c83 15bd a435 d73d bdcb 1fbd
000002c0: f002 833c bd5a 303d 57de 09be c42e 993d
000002d0: 71ca 8c3d 7f01 663d 31e3 973d fec2 7cbd
000002e0: 6dc3 dabc ca05 413c 8ecc 9cbd 9bcf cd3d
000002f0: d829 0f3e ab02 9f3d a3d0 153d afd3 9dbd
00000300: dada 63bd 7a02 a2bc 4ec0 dabd 1804 763d
00000310: 3534 a33d 6353 aa3d 5229 fb3d b286 c83d
00000320: 79dc 1abd e233 b4bd 9c22 16be 1040 2cbc
00000330: 1b24 283d aa67 483d fac1 053c 9213 5bbd
00000340: ad50 1c3e 6c61 d83d 3e8c 99bd 1204 203e
00000350: b555 bebd 95ff a03d 3b7d b3bd c0e6 80bc
00000360: b12c 263d 323e 15be e29c 44bd 9e75 763c
00000370: 3cf0 c83d 5df2 0bbe 50b7 cb3d c0cc 863d
00000380: c1e1 b23c 23f0 9d3d f951 4b3c 7602 703b
00000390: aa3d 6dbd 3d83 88bc 5b9a 4abd 6def c83d
000003a0: 316b 18bd fda0 a8bd 9d79 26be bd90 bd3d
000003b0: fd0e 37bb b520 87bd 4c6c b9bd aa69 91bd
000003c0: 490a 1b3e 59f3 9bbd 5259 a83d 56c3 16bd
000003d0: 7a86 80bc 5d8d b53d 87c9 bc3d 9519 393d
000003e0: 0e51 e93b 2a85 983d e6af f0bd af69 0e3e
000003f0: 1702 eebd 51fc 8f3d 959a c83d 1678 5d3d
-0.11816024 0.121253714 0.070865095 -0.10550287 -0.08313484 0.058016386 -0.08186529 0.13591877
0.077512205 -0.042672776 0.1465549 -0.060650002 -0.0656801 -0.0052691433 0.10410408 -0.010152491
-0.021747207 -0.043246888 -0.0066044177 0.012358157 -0.0036618677 0.022096392 0.068688735 -0.034253955
0.03452279 -0.031499233 -0.08695616 0.06990063 -0.0013422664 -0.04411619 -0.07025782 -0.09093664
-0.021666523 0.017424526 -0.10302749 0.00920607 -0.031954877 0.10688578 -0.07747428 -0.12181148
-0.061748095 0.08335482 0.071594514 0.021758096 -0.060137983 0.112499155 -0.030470513 -0.08331758
0.11256475 -0.06873473 -0.105809696 -0.067232184 -0.02931649 -0.009774113 0.061969 0.037133154
0.04855078 -0.09094221 -0.05216928 -0.045814943 0.110093236 0.041818324 -0.07547775 -0.017590199
-0.009434709 -0.082115516 -0.0193904 0.03452549 -0.018014994 0.008586019 -0.083478965 0.10885364
-0.07179207 0.082829036 -0.15852806 -0.03079996 0.05125344 -0.07302784 -0.10960033 0.06749342
0.10773346 -0.09477184 0.10897651 0.102169536 0.111621425 0.036904585 0.100488685 0.085966036
-0.034900494 0.011709456 0.117795765 -0.0020831486 0.104763426 0.11409963 0.06395199 -0.08865275
-0.1298032 0.056667708 -0.109367356 0.09119689 0.124906346 -0.13987067 -0.010294764 0.094791815
0.11017038 -0.15129997 -0.12185546 0.07893825 0.048182122 0.030994661 -0.059313428 0.054777823
0.08196588 0.053536937 -0.1356256 -0.1207412 -0.021784296 0.12037037 -0.11246804 -0.039019924
-0.082147844 -0.06562402 -0.06802632 -0.1496925 -0.108487524 0.014191751 -0.10270551 0.0052729486
-0.051286455 -0.05447403 0.052814998 -0.05175018 0.09861749 -0.118035324 0.02400163 -0.07260141
0.028897706 -0.02223667 0.012792029 0.007902518 -0.12781015 0.023319557 0.112865485 0.09441773
0.05048722 0.17983975 0.014147881 -0.043009363 -0.012367547 0.10859282 -0.101215556 0.10556108
-0.07552882 0.002581372 0.037503675 -0.07823883 -0.053917713 0.013614033 0.088547036 -0.07638078
0.028274454 0.026733115 -0.0377109 -0.09079441 -0.09889127 -0.0022315306 -0.016418498 0.0948724
-0.042846065 0.12591453 0.016872035 -0.11957289 -0.0044266754 -0.036502108 0.10508278 -0.03901266
0.015992612 0.043055285 -0.13463722 0.07479623 0.0687455 0.05615377 0.0741638 -0.061709397
-0.026704514 0.011781165 -0.07656203 0.10049363 0.13980806 0.07764181 0.036575925 -0.07706391
-0.055628635 -0.019776572 -0.106812105 0.060062498 0.07968942 0.08316686 0.122637406 0.09791316
-0.037807915 -0.08798958 -0.1466164 -0.010513321 0.041050058 0.048926987 0.008163923 -0.05348546
0.1526515 0.10565457 -0.07497452 0.15626553 -0.09293691 0.078612484 -0.0876412 -0.01573503
0.040569965 -0.14574507 -0.048001178 0.015042691 0.09811446 -0.13666673 0.099470735 0.06582022
0.021836163 0.07711818 0.0124096805 0.003662256 -0.057920136 -0.016664142 -0.04946361 0.09811292
-0.0372116 -0.08233831 -0.1625733 0.09256122 -0.0027932518 -0.06598035 -0.09053859 -0.07100232
0.15140642 -0.07614774 0.082201615 -0.03680738 -0.015689123 0.088648535 0.09218126 0.045190413
0.007120258 0.07447274 -0.117523 0.13907503 -0.11621492 0.070305474 0.09795109 0.0540696

encoder.0.bias f4 [128]
00000000: 8a8d 11bd 4909 92bc 607b 4bbd 2137 4dbb
00000010: b0d3 98bc 8430 403c 9411 563d d241 913d
00000020: e2b2 b03d 972d c2bd 6f87 dbbd 128c dc3d
00000030: d252 a63d 6aa6 cdbd 4fe0 aebd 545d ac3b
00000040: f1d7 0c3e 6d8a 4c3d d2a7 d1bd 34e4 1fbd
00000050: 50ff abba 0695 ca3d 32f5 d2bc 1c0e 753b
00000060: 8e91 f23d 70fe 91bd 16e4 bcbd 0fcb 363d
00000070: b83e e0bd 3934 8d3d e092 c6bc 0f21 debd
00000080: 9661 ac3d 4ba5 9ebd b8f7 dc3d 2d6b 92bb
00000090: a67c 7bbb c127 c9bd ad9e 12bc 04de ecbd
000000a0: 1c0f adbd 7488 94bc 727f dbbd 0a4c 8d3d
000000b0: c594 d3bd a213 843c 2b49 ecbd 0a77 ffbc
000000c0: 8e9b e43d 0684 e4bd f46c f03d f229 de3b
000000d0: 78b7 dcbb d79e ebbd 6397 85bd 230d 91bc
000000e0: b259 a8bd 6901 0f3d 7347 c33d 9d03 c43d
000000f0: 83bd 313d 9e00 063e 67fa 783c d64c 933d
00000100: 1218 92bd 7ccd c6bc eaec 24bd 3bf7 0f3d
00000110: 8949 8bbd 9cf1 dcbd bd92 ffbb ddc1 883d
00000120: 876d 96ba 4cc4 183e 0ee0 aab9 c385 153d
00000130: fee4 4e3d b2f5 09be 1ca4 d63c f7b8 a03d
00000140: 9920 0e3e 185c 9ebd 5ef6 debd 4dc7 c0bc
00000150: 8808 8bbc 6c74 823d 21f8 38bd 0ca2 bc3d
00000160: ffee f03d 65ce f6bd 1f61 993a 11bd 0d3e
00000170: 51e6 07bb 0556 293d de7c c8bc 954b 7dbd
00000180: 0f7a 443d 12ff 2ebc e4e9 0b3e 2b0b b6bd
00000190: 05d3 8e3d 7814 1b3e 7421 65bd 877b eebd
000001a0: 31ea 983d 367b 93bd a2ad 273d e5c6 82bd
000001b0: e219 b63d 5f23 afbb 7c27 d1bd e591 d9bd
000001c0: 3796 a5bc c078 563d 0631 593d 002c af3c
000001d0: 2049 bb3d f131 5bbb 15fb c23d 0fef 20bd
000001e0: 8fda d3b9 be92 fcbb c699 b93c 0137 34bd
000001f0: e8eb 753d 5a06 a6bd bb38 36bd 8fb2 713d
-0.035535373 -0.017826693 -0.049678206 -0.0031313377 -0.018655628 0.011730317 0.052262858 0.07092632
0.08627869 -0.09481352 -0.10719191 0.10768904 0.081212655 -0.100415066 -0.08538877 0.005260149
0.1375425 0.0499367 -0.10237087 -0.03903599 -0.0013122354 0.09891705 -0.025751684 0.0037392443
0.118441686 -0.07128608 -0.092231914 0.044627246 -0.10949463 0.06894726 -0.024239957 -0.10846149
0.084170505 -0.07746371 0.10789436 -0.0044683428 -0.0038373857 -0.098220356 -0.008948964 -0.115657836
-0.084501475 -0.018131472 -0.10717668 0.06899269 -0.1033111 0.016122643 -0.11537393 -0.031184692
0.11162482 -0.11157994 0.11739531 0.0067799026 -0.0067357384 -0.11504906 -0.06523015 -0.01770646
-0.08220233 0.034913454 0.09535112 0.09571002 0.043393623 0.13086173 0.015196419 0.0719239
-0.07133497 -0.024267904 -0.040265 0.035147887 -0.06801135 -0.10788271 -0.007799475 0.066776015
-0.0011476733 0.14918631 -0.0003259186 0.03650452 0.050511353 -0.13472632 0.0262013 0.07847779
0.13879623 -0.07732409 -0.108868346 -0.023532534 -0.016971841 0.06369862 -0.04515851 0.092105955
0.11764335 -0.120510854 0.0011701918 0.13841654 -0.0020736645 0.0413418 -0.024473604 -0.06183966
0.047967967 -0.010680931 0.13663441 -0.08888849 0.069738425 0.15144527 -0.055940107 -0.11644655
0.074665435 -0.07201235 0.040937074 -0.06385592 0.088916555 -0.0053447927 -0.10212609 -0.1062353
-0.02021323 0.05236125 0.053025268 0.021383286 0.09144807 -0.0033446515 0.09520546 -0.039290484
-0.00040407895 -0.0077079227 0.022656333 -0.04399777 0.06003943 -0.0810668 -0.044487696 0.059008177

encoder.2.weight f4 [128, 128]
00000000: f609 f83a 74e8 a63d 4542 bb3d c23c c93d
00000010: 47d9 85bd 0242 abbd 794a 3d3d 52c7 af3d
00000020: 65d1 09bd dbe0 adbc d9c7 0bbc 6343 d7bc
00000030: 32c2 83bd faa9 a4bd 35ad e73c 087e 3a3d
00000040: 6a65 a5bc 3ed8 b23d 3ec6 543d 1f77 6f3d
00000050: f510 d63d 8804 0a3d dbe2 a8bd 7d9c 253c
00000060: cab6 dabb 4132 4dbc 1c4a 553c a419 37bd
00000070: dfaa 9fbd 9cb1 6bbd 1dc2 40bb 0483 e1bd
00000080: b1ff 113d fa0c b53d 2e63 afbd 6310 fa3d
00000090: ad79 ca3d c327 983d 2104 ea3d 210a ac3d
000000a0: bfd9 50bc a1a2 8f3b 71cb 8a3d 742b ba38
000000b0: 004d 53bd 6d61 fbbc e869 1e3c 3625 173d
000000c0: 10ef f23c 8be1 c93c 5629 db3c f8dc 5b3d
000000d0: b20b bb3d 1899 a33c c61b 703d d5f0 9c3d
000000e0: f12e 183d 4f06 51bd 468d 5f3d 90ad cbbb
000000f0: d11d b93a 8be2 283d a140 253d 89bf 87bd
00000100: 67f4 013e 0933 8ebb 9fda 173c ad2d 88bd
00000110: 3a92 9cbd f8f5 563d 1d4c ba3d d771 01bd
00000120: 3962 443d 9524 f0bc 4fa2 6cbd 2935 093c
00000130: eaea 8d3d d928 cd3d a836 043d 6a52 c33d
00000140: f9d1 8bbd d957 38bd b315 1ebc e9a5 9bbd
00000150: aeec a23d 1bbb c03d 1318 133d eaa7 2ebd
00000160: b4dc bebd 5444 383d f8d7 b1bd 1fce 87bd
00000170: 9d90 893d 1192 1cbd 9c07 aa3d 8ca0 04bd
00000180: 7a2c 93bb 2d86 4b3d 0f08 b1bd 492b 703d
00000190: 27f9 ab3d 4924 003c 0e00 3fbd a6eb 97bd
000001a0: d10e 093d a9d4 07bd 8540 b1bc 1484 823d
000001b0: f39c ae3d e092 843d d286 08bd 19a2 8dbd
000001c0: 1d20 2c3d 91b5 f5bc df3e 123d 6454 84bd
000001d0: 9e76 babd b741 ea3d f8c5 343d 89a0 b93d
000001e0: 113d 9e3c b660 4b3d 9f11 95bc d6cf 3dbd
000001f0: ffdc 953d 5167 873c 8de1 b43c ebf3 40bd
00000200: ca90 9b3d 5f64 4dbd 7368 bc3d c125 87bc
00000210: c3a3 a9bd 62f0 cbbc b134 94bd 3907 aebd
00000220: 4716 963a c0e8 a13d 2d8a 8cbc d272 093d
00000230: dba6 74bb cae7 c13d 7a33 55bd 3756 6d3d
00000240: f507 9c3d 945f c63c 5e10 7f3d 684a e23b
00000250: b7e4 c13d 6f7c 89bd 326f a0bd 85b2 883d
00000260: 5dac 903d 181a ea3d 09ac 5ebd ae5a ffbb
00000270: b38a 7d3d e09e a8bc 50de de3b 4eb2 5b3c
00000280: 7d74 74bd 4b85 ea3c 52cc 263d 029d 71bd
00000290: 7599 30bc d8eb 26bd 05c0 e63b 4c92 323d
000002a0: 17ef 37bd 2191 43bd b82e 223d 5409 3c3d
000002b0: 82e7 513d b717 54bd 808b 073d 9a9d 973d
000002c0: 822d 5dbd 3b56 98bd 6d46 2c3c b940 87bc
000002d0: 9032 bbbc ed91 6abd b558 aebc 7d14 07bd
000002e0: f2b2 9c3d c90a dcbc 2a36 01bd a518 1e3d
000002f0: 2525 8cbd 473a d1bb 36c1 68bd 36d0 ad3c
00000300: 0cd9 c9bc 2412 77bd b077 0cbd 1b09 b73c
00000310: b9f6 c6bd a5b8 023c f5c7 d13d 6761 2d3d
00000320: 8d0f d23d 3548 ce3c e497 6c3c 8e3a cd3d
00000330: da93 b5bb e346 a23d 5c66 d4bd 8fc2 173d
00000340: 8984 453d e231 0abd da83 433d 7ffd 42bc
00000350: bc07 863d 259f 6e3b a23a ad3c 2686 ccbd
00000360: 7cd9 89bd ea4b 3f3d f83d 86bc ea50 093d
00000370: a65e 65bd 1717 43bd a942 de3d 04c4 a53c
00000380: fcf9 293d cd4d 973c 8aed 823c 239a 253c
00000390: ddf1 a33b f8dd 2d3d c8be 643d 40bc b0bd
000003a0: 599a 32bd 1a6a ab3d 00ce d33c 5d14 8e3d
000003b0: 0c36 88bd 4e69 983c cf95 543b 2279 603d
000003c0: dca6 873d cdf7 e5bb 9fae 013d 2942 c7bd
000003d0: 0bca 6f3d 7879 b63d 7a0d 3bbd 911d 9f3d
000003e0: 10d7 85bd 48aa 603d 23c7 fbbb cdbd 89bc
000003f0: 6165 b2bd 09c3 b43d bafe 98bd a73e 793b
0.0018923867 0.08149806 0.09143499 0.09826042 -0.06535583 -0.08362199 0.0462136 0.08582939
-0.03364696 -0.021225384 -0.008531534 -0.02627725 -0.06433524 -0.08040233 0.028280834 0.04553035
-0.02018996 0.08732651 0.05194687 0.058463212 0.10452453 0.033695728 -0.08246394 0.0101081105
-0.006674622 -0.0125241885 0.013018157 -0.044702187 -0.07796263 -0.05754243 -0.0029412576 -0.11011317
0.035644237 0.08840366 -0.08563839 0.12210157 0.09886489 0.07429459 0.11426569 0.084003694
-0.012747227 0.0043834005 0.067770846 8.877265e-05 -0.051587105 -0.030686105 0.009668805 0.03690072
0.02965501 0.02464368 0.026753109 0.05367753 0.0913309 0.019970462 0.058620237 0.076631226
0.03715414 -0.051031407 0.05457809 -0.0062157586 0.0014123266 0.041231673 0.040344838 -0.06628329
0.12690888 -0.00433958 0.009268432 -0.06649337 -0.07645078 0.052480668 0.09096549 -0.031602707
0.047945235 -0.029314319 -0.057771977 0.008374491 0.06929572 0.10017557 0.032278687 0.095372036
-0.068271585 -0.045005653 -0.009648728 -0.07600004 0.07955299 0.094106875 0.03591163 -0.042640604
-0.093194395 0.044987038 -0.08683771 -0.06631111 0.06717036 -0.038225237 0.083022326 -0.032379672
-0.004491386 0.049688507 -0.08644115 0.05863503 0.083971314 0.007821151 -0.04663091 -0.07417993
0.033461396 -0.033161793 -0.02163721 0.06372848 0.085260294 0.06473327 -0.0333317 -0.06915683
0.042022813 -0.029993804 0.03570449 -0.06461409 -0.09104656 0.11438315 0.04413411 0.09063823
0.019316228 0.049652778 -0.018196879 -0.046340786 0.07317542 0.016528757 0.022080207 -0.04710762
0.07595976 -0.05014455 0.091996096 -0.016497495 -0.08283188 -0.024894897 -0.072366126 -0.08497471
0.0011450731 0.07905722 -0.017155731 0.033556767 -0.00373309 0.094680384 -0.052051045 0.05794355
0.07618705 0.024215497 0.06227147 0.0069058426 0.09467452 -0.06713187 -0.07833709 0.06674675
0.07064126 0.11430758 -0.054363284 -0.0077927923 0.061899852 -0.02058357 0.006801404 0.01340921
-0.059681404 0.028628012 0.0407222 -0.058987625 -0.0107787745 -0.040752262 0.0070419335 0.04359655
-0.04490575 -0.047745828 0.039595336 0.045907333 0.051246174 -0.05178043 0.033092022 0.07403107
-0.053998478 -0.07438322 0.010514838 -0.016510354 -0.022851259 -0.057268072 -0.021282533 -0.032978524
0.076513186 -0.026860612 -0.031545796 0.03859772 -0.06843022 -0.006385121 -0.056824885 0.021217447
-0.024639629 -0.060320035 -0.03429383 0.022343209 -0.09715027 0.007978593 0.10243217 0.04232922
0.10256872 0.025180915 0.01444051 0.10020934 -0.005541307 0.07923677 -0.10371086 0.03705078
0.0482221 -0.03373898 0.047733165 -0.0119012585 0.06544444 0.0036410776 0.021146122 -0.09986524
-0.06730935 0.046703257 -0.01638697 0.03352443 -0.055998467 -0.047629442 0.10852558 0.02023507
0.04149817 0.018469715 0.015982408 0.01010755 0.0050031976 0.042448014 0.055846006 -0.08629656
-0.04360423 0.08369847 0.025855064 0.06937478 -0.066509336 0.0186049 0.0032437926 0.05480302
0.06623623 -0.0070180655 0.031660672 -0.09729416 0.058542293 0.08909887 -0.04566715 0.07769311
-0.065351605 0.054849893 -0.007683651 -0.016814137 -0.08710743 0.088262625 -0.0747046 0.0038031728

encoder.2.bias f4 [128]
00000000: 9dc1 133d a2b9 8cbc 2af7 1abd c7ef 4dbd
00000010: 8160 053b b71b 9fbd acd6 0e3d bca3 e23d
00000020: 97bc a0bd 1584 f33c 8250 81bd 900e 8fbd
00000030: 04d0 aabd 0b7e 853d 5aee 97bd 4722 3a3d
00000040: 692a 19bd 5fb0 05bd e77f 85bd 4db1 95bd
00000050: 4f2b 6fbd 0b6d d1bc 6ab8 86bd f7e5 68bd
00000060: 3b81 9dbd 2c01 5c3d 2ff3 97bd e13f 1cbd
00000070: 5393 5ebd c76a 693d e278 93bd 568a 023d
00000080: 4b10 8abd f8fa 563d 069d 36bc 0cb6 b33d
00000090: 11ce b63d c42b 69bd 063d 09bc e7d7 1f3d
000000a0: e467 74bd e6c4 803d b244 aa3b 2a0e e93b
000000b0: 709b 8e3d 2014 c63c d965 c43d 6ddd d9bc
000000c0: 9e3b 64bd 7086 29bd 35d1 97bc cc10 823d
000000d0: edd7 39bb b14f d8bc 2836 a3bd 415b 72bb
000000e0: 8b44 38bd cd62 d23c f6a9 bb3d 02d9 b13c
000000f0: 3b24 3ebc ab9f 18bd 228d b2bc 7bd4 c8bc
00000100: 8398 013d 9636 b1ba 4978 243d 5b4e 26bd
00000110: 8cef 653d 5718 b0bd 8e5a 4b3d ce01 e0ba
00000120: 5b0b 5f3d a939 a43d 01be ffbc 1c93 2b3c
00000130: 8baa b73d 5e0a c6bb a32c 66bc 6310 aebc
00000140: d3ac 8fbd 48ef c33c c19d dbbb 701b e73b
00000150: fdb6 0cbd fe79 aebc 9ec3 b13d 08fa d23d
00000160: ef1a 0d3c 6106 8fbd 11ec afbd 470a a1bd
00000170: 0848 97bd 328c 8dbd b4c8 ad3c d41f 8cbd
00000180: a61d 2d3d 1be7 713c 6c84 94bd 5bdd b53d
00000190: a058 473d 6b5c 0b3d 33ef 7d3d 198e 823d
000001a0: 12e7 79bc 7ec8 1ebd 0d59 b0bb ce07 323d
000001b0: 67b5 f6bc 0019 ecbc 79ba 42bd f2b4 8abd
000001c0: 4e33 a13c 95ef 86bd 4711 bb3b d160 b4bb
000001d0: 9e99 9bbd c97d c23a 81ed 753d 45b8 853c
000001e0: 5496 0ebd bce3 b83d 0987 3cbd be40 653d
000001f0: a07d 633d 0f38 22bd ca7f 333d bffd 48bd
0.036073316 -0.01717836 -0.03783337 -0.050277498 0.002035171 -0.07768958 0.034872696 0.11066386
-0.07848471 0.029726068 -0.06314184 -0.069851995 -0.08340457 0.065181814 -0.07418509 0.045442846
-0.03739396 -0.032638904 -0.06518536 -0.07309208 -0.05839091 -0.025564691 -0.06578143 -0.056859937
-0.076906644 0.053712055 -0.074194305 -0.038146857 -0.054339718 0.056986596 -0.07200791 0.03187021
-0.06741389 0.052485436 -0.011145836 0.08774957 0.08926023 -0.056926504 -0.0083763655 0.03902426
-0.05966939 0.062875554 0.0051961774 0.007112284 0.06963241 0.024179518 0.095897384 -0.026594842
-0.055720918 -0.041387975 -0.018532375 0.0635086 -0.0028357462 -0.026405187 -0.07969314 -0.003698066
-0.044987243 0.025681878 0.09163277 0.021709923 -0.011605318 -0.037261646 -0.021795813 -0.024515381
0.031639587 -0.0013520296 0.040153775 -0.04060207 0.056136653 -0.085983925 0.049646907 -0.0017090382
0.05445419 0.0801881 -0.03121853 0.010472085 0.08968075 -0.0060437163 -0.014048728 -0.021248048
-0.070153855 0.02391781 -0.0067021553 0.0070528314 -0.0343542 -0.021298405 0.08679889 0.10301596
0.0086123785 -0.069836386 -0.08589948 -0.078632884 -0.07386786 -0.06911506 0.021213867 -0.06842008
0.042264603 0.0147645725 -0.0725182 0.08880111 0.048668504 0.034023684 0.061995696 0.06374759
-0.015252845 -0.038765423 -0.0053817094 0.043464474 -0.030115796 -0.028820515 -0.047541115 -0.06772794
0.019677784 -0.065886654 0.0057088467 -0.0055047055 -0.075976595 0.0014838512 0.060040955 0.016323218
-0.034811333 0.09027812 -0.046027217 0.055969946 0.055539727 -0.039604243 0.04382304 -0.049070116

encoder.4.weight f4 [128, 128]
00000000: f5f1 a9bd ca64 753d 668a 96bd 923d 45bc
00000010: 6625 03be da4a 9e3b c3f5 7d3c c892 c4bc
00000020: bc3f 0e3d a227 72bb a5ec 843d a5f9 893d
00000030: d35a a83d 50e6 c23c 3c52 843d c13c 00be
00000040: d880 873c b83c 6c3c 12f1 b33d 8ac0 16be
00000050: d1f5 903c 2c64 eabd da2b c6bb 41b2 3ebd
00000060: 4d74 843c a9c1 9ebd 9c2c b9bd 5188 7b3d
00000070: 10c6 9c3c 786d 32bd 4a1f c13d 6069 2abd
00000080: edc7 d63d 9e6f cf3d e728 f1bd ef49 35bc
00000090: b067 ebbd a6e3 183c 916d 1dbc c333 b63c
000000a0: ba74 923d 5481 bebd 964a afbd 4f04 e03d
000000b0: 636a bbbd ec67 aa3c b59f e63c 70ee c53b
000000c0: 886f 293d 990b 1bbd 83cb 023e b510 673d
000000d0: 3053 7d3d 8b92 a43d 822b a7bd 1ec9 f43d
000000e0: dba5 f9bd ad63 3dbd 972b d1bd 8591 7a3d
000000f0: 2a37 e4bc 42b8 c13d 9006 4abd f841 e9bd
00000100: 9341 43bd 27fc e4bd 9aa4 1a3e 5fd1 3b3c
00000110: 2055 463d 7d60 5dbc 3428 68bd f464 b6bd
00000120: c60c 49bd 77f3 423c 23c9 10bd 0960 ebbd
00000130: 5591 1a3c 757b ccbd a409 bf3c 62a3 cfbd
00000140: 3712 293c 24d3 44bd dbae 1d3c 260e 18bd
00000150: 4a03 4dbd 8b96 103d ee20 e5bd 6c8f a5bd
00000160: 6581 8b3d a8b4 3c3d 79fd 193d ad12 35bd
00000170: 9914 c8bc be7f 023d a044 fcbd 124a 9bbd
00000180: 6e6e c5bd adc5 3f3d b9b4 783d c26b b8bd
00000190: 3827 363d a0e9 e0bd 3e18 c3bd 855b 8abd
000001a0: 7e48 323d fa09 97bd c1b8 3dbd 73c1 86bc
000001b0: e31c 76bd 193b 40bd 5098 ca3d 5a09 42bd
000001c0: 07b6 ccbd 3275 7c3d ecc4 cc3c 28fb e63d
000001d0: 4693 5bbc 8243 973d 50ae b8bc ba65 68bd
000001e0: 1c58 9ebd 1504 bbbd b217 e3bc 203a 5abd
000001f0: cbc7 a6bd ac56 823c 5cb1 95bd 30c9 04bd
00000200: 76bf 083d 8fd8 093c fd94 81bc 29e6 68bd
00000210: 273e 80bd 93e6 cb3d 3974 95bb 20c8 d33d
00000220: b2ac 863d a765 01be d0ea 9c3d 96b1 993d
00000230: 7f14 cabd 83ad df3c b9a7 4fbc 9522 c63d
00000240: 905b 44bd d475 863c 0209 83bd f5fe 603d
00000250: df9d 34bc b68f 603d 1198 133e a1d5 8e3d
00000260: 74d8 06bb 24cc 19bb 69ed 2b3d f6be b63d
00000270: da27 f73d 009f ee3c 0533 05bc 9d85 4fbc
00000280: 755e bb3d a5f2 973d a716 8e3d 4886 d63c
00000290: 17e1 77ba 7074 06bd beef 2f3b 831b 173d
000002a0: 087b e93b cbae dc3d 229c a03d f2f3 903b
000002b0: fec1 423d f0bb 193d cd16 cd3d 3ffe abbd
000002c0: 49d0 783d 4b86 db3c da90 58bd 9bdd 35bd
000002d0: 6a88 d4bd 0d3f 083d ba10 e33d 4797 b83b
000002e0: 7c10 bf3d 2722 2dbc 3321 d53c 0968 473e
000002f0: 26a6 a0bc 36cf 57bd feb8 2fbd 4ead b03d
00000300: 76f7 7f3d 5200 4fbd 1dbe 1bbe 7f06 c03d
00000310: 3147 cfbc 6c3d d53c 2655 343d 410f c33d
00000320: 9124 ddbc 8d6d df3d b2d3 7dbd 6b87 043e
00000330: e1f8 85bc 1f1a c83d 0e60 43bd fb07 b53d
00000340: 6243 85bd d97d 8d3c c535 4cbd a4da b33d
00000350: 861f 4fbd 6c49 ba3d aa4c 84bc 20b6 c73c
00000360: 052f cf3d 7233 5d3d 3ab0 c4bc 84f1 07bd
00000370: 8ac1 b83d 8e5d e83c da89 093d ac49 5fbb
00000380: 55db 91bd 8579 d83d 856e ac3d 0f33 a63d
00000390: 1f39 5fbd ea8c 9f3c cd32 ffbb 4ccb 9fbc
000003a0: 7a59 e2bb fec0 a63d 94ce fc3c a329 11bd
000003b0: eae5 e8bc 6334 933d 1583 14bd 1eb4 a43d
000003c0: b611 973d 39de 293d c57b 15bd 1292 613d
000003d0: 6592 f63c 0183 3fbb 710f f73d 46f1 acbd
000003e0: ad3a a83d 6575 f53d 711d 6cbd 6073 0a3d
000003f0: 58fa f13d 76e6 053d 1cd3 ef3d dd1e 153d
-0.08298103 0.059910573 -0.07350616 -0.012038605 -0.12807235 0.0048307003 0.015500489 -0.023995772
0.03472875 -0.0036949893 0.06490449 0.06737069 0.08220448 0.023791462 0.064609975 -0.12523176
0.01654093 0.014418773 0.08786215 -0.14721885 0.01769534 -0.114448875 -0.006047708 -0.046556715
0.016168738 -0.077517815 -0.09041712 0.0614093 0.019137412 -0.04356143 0.09429796 -0.0416044
0.104873516 0.10128711 -0.1177538 -0.01106499 -0.11494386 0.009331619 -0.009608642 0.022241479
0.0715117 -0.09302011 -0.08559148 0.10938322 -0.09151151 0.020801507 0.028152326 0.006040387
0.04136613 -0.037852857 0.12772946 0.056412417 0.061846912 0.08035763 -0.08162595 0.119524226
-0.121898375 -0.046237636 -0.10213392 0.061173934 -0.027858336 0.094589725 -0.049322665 -0.11389536
-0.04766996 -0.11180907 0.15101853 0.011463492 0.048421025 -0.013511774 -0.056678966 -0.08905974
-0.049084447 0.011898867 -0.03534807 -0.114929266 0.009434064 -0.09984485 0.023320027 -0.10138585
0.010319284 -0.048052922 0.009624208 -0.037122868 -0.050051965 0.03529982 -0.111879215 -0.08083996
0.068117894 0.046070725 0.037595246 -0.044207264 -0.024423884 0.031860106 -0.12317777 -0.07582487
-0.096402034 0.046819378 0.060719226 -0.09004928 0.044470996 -0.109820604 -0.09526108 -0.06755737
0.043526165 -0.0737495 -0.046318773 -0.016449666 -0.060086142 -0.04693136 0.098923326 -0.0473722
-0.099956565 0.061635204 0.024996243 0.11278373 -0.013401812 0.07385923 -0.022544056 -0.05673764
-0.07731649 -0.09131638 -0.02772126 -0.05327809 -0.08143576 0.015910469 -0.07309219 -0.03241843
0.033385716 0.008413448 -0.015818113 -0.056860123 -0.062618546 0.09956088 -0.004560974 0.10340905
0.06575908 -0.12636434 0.076619744 0.07504575 -0.098671906 0.027304417 -0.012674266 0.09674565
-0.047938883 0.016413607 -0.063982025 0.054930646 -0.0110239675 0.054824553 0.14413477 0.0697434
-0.0020575793 -0.0023467625 0.04197446 0.08923142 0.12068148 0.029128551 -0.00812984 -0.012666133
0.091488756 0.07419328 0.06937914 0.026187077 -0.0009455843 -0.032825887 0.0026845778 0.03689147
0.007125262 0.107755266 0.0784228 0.004423612 0.047548287 0.037532747 0.100141145 -0.08398103
0.06074551 0.026797434 -0.052872516 -0.044400793 -0.103775814 0.033263255 0.11087175 0.005633268
0.09329316 -0.010567225 0.026016807 0.1947328 -0.019610476 -0.052687846 -0.04290103 0.08626805
0.062491857 -0.050537415 -0.15209241 0.09376239 -0.025302501 0.026030265 0.044026516 0.09524394
-0.026994975 0.10909567 -0.061969467 0.12942283 -0.016354026 0.09770607 -0.047699027 0.08839413
-0.06506993 0.017271923 -0.049855966 0.08781937 -0.050567172 0.09096035 -0.016149838 0.024378836
0.1011639 0.05400414 -0.024009813 -0.03318931 0.0902129 0.028364923 0.03357873 -0.0034071011
-0.071219124 0.10570053 0.084195174 0.081152074 -0.054497834 0.019476373 -0.0077880383 -0.01950612
-0.006907639 0.08142279 0.030860223 -0.0354401 -0.028429944 0.07187726 -0.036257822 0.08042167
0.07376425 0.041471694 -0.03649499 0.055070944 0.030099103 -0.0029222372 0.12063492 -0.08444457
0.082143165 0.11985282 -0.057645265 0.033801436 0.118153274 0.032690488 0.11710188 0.036406387

encoder.4.bias f4 [128]
00000000: 9adb 8ebd a321 923d 21f3 8b3d 05d4 51bc
00000010: 9f67 c53d 9e06 2abd 6dd8 89bc 4527 643d
00000020: 206d 86bd 2ae2 2fbc 2ace 8b3c 17b4 9c3d
00000030: 7dd7 0dbc 45d6 a43d 5188 24bd 949c 59bd
00000040: dcaf d43b 8db3 bcbb 4d56 b3bd bebd 933d
00000050: 8057 31bd 6309 08bd b869 803d 5a36 113d
00000060: 069c 063d 5a22 5c3d 5b23 86bd 116f f5bb
00000070: 5875 37bd 6a4a d4bd 6502 bfbd eab0 6a3d
00000080: 2a64 943d 8037 abbc 43f5 54bd 2d30 3b3d
00000090: 3fd4 4cbd 3feb 69bd 1270 47bd 0db5 a6bd
000000a0: e5b3 9a3d 9e20 57bd b1d3 ad39 e681 14bc
000000b0: 4835 d73d 183b 0b3d add2 873d 14c3 ad3c
000000c0: 17f5 943d 4f0d 2bbd 6e89 a4bd 86a3 fbbc
000000d0: 8d71 aebd d10a 55bc cafc a83b f246 a03d
000000e0: 534f 25bd bceb 4c3d d7d4 7dbd f81d b43d
000000f0: ac9b 53bc d380 1ebd 9665 a83a ced3 613d
00000100: 8f81 96bc 5006 b33d 943f 22bd 6f82 28bc
00000110: 9b48 613d 0afe 55bd a14e 5c3d c23e 5bbd
00000120: 0e90 ea3c df7e bbbd b34d 573d 71bb e13c
00000130: 4169 50bd aeb0 a4bd 4b94 8c3c 504f 9c3d
00000140: 63db 94bd 0b33 babd 74a7 143d e966 393d
00000150: a888 50bd cb5e 8b3d bcb8 b93d 560a eb3c
00000160: 92dc 80bb a79b 8cbd 3f50 983d 100f 26bd
00000170: 8f64 aabd 9418 783d 595c d7bc e341 45bd
00000180: 6199 ae3d 3129 08bb 7f2f b33d 0184 0fbb
00000190: bda9 98bb f2e8 9bbc 72db 373d ee50 9bbd
000001a0: 0cd0 afbc 6f0f de3d 6adc 523d a4c4 823c
000001b0: a793 943d 5b13 b4bd ad3f a4bd db52 ea3c
000001c0: 07b0 f73c eb95 aabd 77e8 79bd 724b acbd
000001d0: 34f9 813d 3321 c73d 3a9f 6d3d 3a52 f6bc
000001e0: af7f ac3c 6dfc 803d 869b 153d d468 90bb
000001f0: 351d 713b 3fb6 96bd 70bb 92bd a8d5 c63d
-0.069754794 0.07135322 0.068334825 -0.012806897 0.09638905 -0.041510217 -0.016826833 0.055701513
-0.06563783 -0.010735074 0.01706608 0.07651537 -0.008657333 0.08048681 -0.040169064 -0.05312784
0.0064906906 -0.005758709 -0.08756695 0.07213925 -0.043296337 -0.033212077 0.06270164 0.035452224
0.03286364 0.053743698 -0.06549712 -0.007490047 -0.044789642 -0.10365756 -0.093266286 0.057297625
0.07245667 -0.020900488 -0.051991712 0.04570024 -0.0500071 -0.057109114 -0.048690863 -0.081400014
0.075538434 -0.05252134 0.00033154854 -0.009064173 0.105082095 0.033991903 0.0663198 0.021211185
0.0727331 -0.04176074 -0.08034025 -0.030717622 -0.08517752 -0.013003067 0.005157088 0.07826032
-0.040358853 0.0500295 -0.061970558 0.087947786 -0.012915533 -0.038697075 0.0012847658 0.055133633
-0.018372325 0.087414384 -0.039611414 -0.010285004 0.055000883 -0.052244224 0.053785924 -0.053526647
0.028633144 -0.09155058 0.052564334 0.0275552 -0.050881628 -0.080415115 0.017160555 0.07632315
-0.07268407 -0.09091767 0.03629251 0.04526416 -0.050911576 0.0680519 0.090684384 0.028691452
-0.003932544 -0.06865626 0.07437181 -0.04054171 -0.08319961 0.060570315 -0.026289152 -0.048158538
0.085253485 -0.0020776505 0.087492935 -0.0021898749 -0.0046589063 -0.019031975 0.044887014 -0.075837955
-0.02146151 0.108427875 0.051479734 0.015962906 0.07254725 -0.08792754 -0.08019958 0.028603962
0.030235304 -0.08329376 -0.06101271 -0.084128276 0.0634636 0.09723129 0.05801318 -0.030068506
0.021056978 0.062981464 0.03652527 -0.0044070277 0.003679109 -0.073589794 -0.07164657 0.097087204

decoder.0.weight f4 [128, 128]
00000000: b6a8 95bd cd7a 7a3c 3ffc e9bd 2f2c 8abc
00000010: 6e56 1cbd 201f cdbc 270f d4bc e936 f93c
00000020: 87a2 93bd 9185 933c 738f 84bd 20b2 a9bd
00000030: 5c50 873d 8c2f 183c d9e0 54bd 0690 a53d
00000040: c151 4cbc d8f0 b7bd 33d0 13bd 68a1 a1bb
00000050: 125d 06bb c19a 06bb 5e01 d1bd 2d7b b63c
00000060: 2e4d d83d 758c 84bd 5965 e13c f8a4 93bd
00000070: 0eda bdbd e090 87bd 80fc e7bd 2c49 24bd
00000080: 3395 253d 899f 8e3d 754f 963c ecab 823c
00000090: f1cf b6bb fee5 0abe 4a27 a63c 6ab9 73bd
000000a0: 04c7 9e3c a593 d43c 4028 e7bd cfc9 b5bc
000000b0: 2066 89bc 523e 893c 6577 acbd d0dd b93b
000000c0: c22f 0dbd 7dcf 4bbd 36f3 123d 1af1 053d
000000d0: 36a1 283d 2fff 96bd abc8 58bd 7151 44bd
000000e0: 65c4 9fbd e6a4 08bd 5d7a 103d 12bb 963d
000000f0: e37d 3a3c 0a67 3dbd 7743 61bd 3aed 833d
00000100: 3eae 30bd 988a cb3d c7ad d93d bcdf 9c3b
00000110: cd5e b0bd 84b4 063d a094 37bd f88b 4c3d
00000120: dbe1 683d 3321 1a3d e1dc 0dbc de62 863d
00000130: ddd1 c7bc f0fd 25b9 6bf6 5fbb 60c2 b83d
00000140: 1278 40bd 8429 63bd 26d1 b43d a3c5 97bc
00000150: 6fc3 52bd 92a9 a1bc a566 7fbb 9693 85bd
00000160: 2bb3 e2bd cf04 debc 96aa 1a3c ffef b33c
00000170: 6362 8dbd 6ec7 8cbd 385f 48bd 2fee 88bd
00000180: 3265 1fbd 112a 90bd 8328 6e3d f7da 07bb
00000190: 4134 e53c 2cc1 eb3d 5dd0 7e3d 6805 633d
000001a0: 97a2 03bd 5fa6 833d a683 963c a69e 173d
000001b0: 2fe4 19bb ecb8 42bd 4706 003d d173 18bd
000001c0: 3cd0 9c3c 99a8 c23c 8874 f73c ea77 b4bd
000001d0: 1573 093c d91e 9d3d cad3 403d c218 d43d
000001e0: 644d babd a858 87bd 5a2d 253c 97f4 183d
000001f0: 2d51 a23d b9b7 edbd a39a c6bd 7ce6 843d
00000200: 51b2 febd 4a12 49b9 7ab5 44bd ba29 283d
00000210: 41cc 533d 6023 06bd 8344 10bd d314 813d
00000220: 7adb c23b 9160 933c 59b1 6d3c 6655 543c
00000230: d0aa 973d fda6 003e a8af 2bbd ec9b 9b3d
00000240: 7836 023a a568 ca3c 210d aabd 9902 da3d
00000250: a9cf 9a3d f837 c73d 1b74 b7bd 8d6a 28bd
00000260: bce8 f2bb 8781 063d 129b 2e3d dba2 373c
00000270: abf4 e4bd e4b3 75bd 3462 a3bd ab8d e13d
00000280: 7af7 f23c 64d0 7f3d 8714 f1bd 4d17 bebc
00000290: f983 283d 2ba3 5a3d d02d 3ebd 1719 debc
000002a0: bfb2 24bc 4f88 6ebd a105 913d ecab c53c
000002b0: ae66 7abc 9eea dc3d f0d9 30bd 550f c63c
000002c0: eea4 413c c779 043c b9c5 39bd a8d3 aebd
000002d0: 5a2c 74bc 9faa b53d 41b2 b63d 15b7 133d
000002e0: 33ac 36bd b4d2 a7bc d18f aa3c b75a 273d
000002f0: 1f07 013e 2d8f a13d b77e 933d 6749 b03d
00000300: f8af c9bd caaa 7f3d f7c8 873d bda9 063e
00000310: 2aba f7bc d8d1 533d 1e4f d6bd c298 bc3d
00000320: f241 9c3d 82ad cbbd a123 1cbd 5af2 72bd
00000330: 818c a33c cc34 3dbd d30e 16bc 81f0 a03c
00000340: e7f2 1cbd c150 75bc 7943 9bbc 0e88 7cbd
00000350: 5210 23ba 8b5e 80bd c31f f03c 9031 8fbd
00000360: 3afb ffbc 3931 b0bd 02f0 54bd acc9 c3bb
00000370: 069b 9e3c ae4e da3c 6f0b 06be 2267 5bbd
00000380: 374c ff3d 517b 61bc 3d6b 0c3d f6b0 673d
00000390: eda5 f7bc 013f 9dbc 7613 723d f15e 413d
000003a0: f8b6 cbbc 88df 90bd ec01 643d 0123 4abc
000003b0: 3cc1 843d a9ff 8cbd e7d0 23bd 553e a3bc
000003c0: ded5 c63d 8566 aabd 3c67 babd 74fe 62bd
000003d0: 4662 fb3d 1d68 183c c7a8 7abb 725c 28bd
000003e0: edcd 5f3d 2f3b bf3c f3fb 883d ed31 323d
000003f0: 2b72 e73b 748c debd d50b 55bd 5888 823d
-0.0730757 0.015288067 -0.11425065 -0.016866772 -0.038168363 -0.025039256 -0.025886131 0.030421691
-0.07208734 0.018008025 -0.06472673 -0.08285928 0.06607124 0.00928868 -0.051972244 0.08084111
-0.0124706635 -0.08981484 -0.036087226 -0.004932571 -0.0020502252 -0.0020539018 -0.10205339 0.022275532
0.10561596 -0.064721026 0.027514147 -0.072092 -0.09270106 -0.066194296 -0.113274574 -0.040108845
0.04042549 0.06964023 0.018348435 0.01595112 -0.0055789878 -0.13564298 0.020282406 -0.059502997
0.019382007 0.025949309 -0.11286974 -0.022190956 -0.01677233 0.01675335 -0.0842121 0.005672194
-0.034469374 -0.049758423 0.035876475 0.032700635 0.041169368 -0.07372891 -0.052925747 -0.04792923
-0.07801131 -0.033360384 0.035272945 0.073598996 0.011382553 -0.046240844 -0.05499598 0.06441732
-0.04313492 0.09938544 0.106288485 0.0047874134 -0.08611832 0.032886997 -0.044819474 0.049938172
0.056856018 0.037629317 -0.008658619 0.06561826 -0.024392063 -0.00015830225 -0.0034173976 0.09021449
-0.046989508 -0.055459514 0.088289544 -0.018526858 -0.05145591 -0.019734178 -0.0038971093 -0.065222904
-0.1106933 -0.027101902 0.009440085 0.021965025 -0.069035314 -0.06873976 -0.048918933 -0.06686055
-0.038914867 -0.070392735 0.058144104 -0.0020729878 0.027979018 0.11511454 0.06221043 0.055425078
-0.03213748 0.06428217 0.018373322 0.037016533 -0.0023481955 -0.047539636 0.031255987 -0.037219826
0.019142263 0.023762034 0.030206934 -0.08811934 0.008389254 0.07671899 0.047076978 0.10356285
-0.09096792 -0.06608707 0.010081613 0.037342634 0.07925639 -0.11607308 -0.09697463 0.06489274
-0.12436355 -0.00019175667 -0.048024632 0.04105542 0.051708464 -0.03274858 -0.035221588 0.063028
0.005946574 0.017990382 0.014507615 0.012959814 0.07405627 0.12563701 -0.041915566 0.07598099
0.0004967223 0.024708102 -0.083032854 0.10645027 0.07559139 0.09727472 -0.08957692 -0.04111724
-0.007412998 0.03283837 0.042628355 0.011208261 -0.11179479 -0.05998601 -0.07977715 0.11013349
0.029659022 0.062454596 -0.117714934 -0.02320447 0.041141484 0.053378265 -0.04643041 -0.027111573
-0.010052382 -0.058235463 0.07081152 0.02412983 -0.01528327 0.10786937 -0.04317659 0.024177233
0.011819107 0.008085675 -0.04535458 -0.08536464 -0.014903152 0.08870434 0.08920718 0.036063273
-0.044597816 -0.020486213 0.02082053 0.040857997 0.12600373 0.07888637 0.07201903 0.086077504
-0.098480165 0.062418737 0.06630128 0.13150688 -0.030240137 0.051713794 -0.10464309 0.09208824
0.076297656 -0.09945203 -0.038119916 -0.059313156 0.019964458 -0.04619293 -0.009158808 0.019645931
-0.038317587 -0.0149728665 -0.018953072 -0.06165319 -0.00062203885 -0.06268033 0.02931202 -0.06991875
-0.031247724 -0.086031385 -0.0519867 -0.005974969 0.01936103 0.026648846 -0.13090299 -0.053565152
0.12465709 -0.013762311 0.034281958 0.056565247 -0.030230487 -0.019195082 0.05910059 0.047209684
-0.02486752 -0.07073885 0.055665895 -0.012337447 0.06482169 -0.06884701 -0.039994147 -0.019927183
0.09708761 -0.08320335 -0.09101722 -0.055418447 0.122746035 0.009302166 -0.0038247572 -0.041103788
0.054639746 0.02334365 0.066886805 0.043504644 0.0070631704 -0.10866633 -0.052013237 0.06373662

decoder.0.bias f4 [128]
00000000: e216 c8bc aa74 da3d 05dc f0bc 0ac9 61bd
00000010: c6ff b43d 14a6 963d 981e 343d 70e0 2dbc
00000020: cf90 293d 170c cf3d cda9 2c3d fae7 0a3b
00000030: 61f0 81bd 5ecb 893d 1645 84bd d920 84bd
00000040: 0493 5d3d 89b7 53ba 3262 7c3c 0c03 423d
00000050: 478b 69bd 3cf4 c2bc 185a c5bc d8ba 00bd
00000060: c742 98bc d003 eabc 3d49 86bb ff68 423d
00000070: f3a1 87bd d542 a63c ceb2 a43d 6fbd fdbc
00000080: 5b27 c33c cd6f 353d fdd8 07bd 593d f33c
00000090: 9e4c aebd 3db0 11bd 8d1e 0b3d 2a2d 633d
000000a0: e4d7 8fbd 68f4 8bbd ec0d 78bc d83e debc
000000b0: 8142 a8bd 8d28 79bd df2f 8c3d 8242 34bd
000000c0: a4e8 86bc 675e 6e3d 41ca bd3d dbec b13b
000000d0: 5e56 46bc 6458 0cbc 3ad6 9c3d e9c9 60bd
000000e0: 50ea af3d 647e 0a3d 3730 0c3b 6864 70bd
000000f0: ec89 8a3d b94b a73b 74c4 a6bd 8c26 8dbc
00000100: 27e5 34bd d1b8 5c3d 6002 27bd 6b30 5ebd
00000110: 8055 823d 4290 a2bd 0d94 75bd 6579 8dbd
00000120: 074b a33b 576b febc 8fae 13bd df8a 02bc
00000130: fb1b aa3b edec f83c ea49 a93c 6fac ffbc
00000140: d84e 1ebd e2e5 993b dc66 e7bc 27ad fc3c
00000150: 8820 79bd ba16 87bd f329 513d ed74 eb3c
00000160: 21cd 5a3d 7171 293d 77aa aabd df6d 2abd
00000170: fba9 a6bd c5b3 0e3c b1d3 8cbd 2290 d4bc
00000180: 8839 823c bf07 503d 20d5 a33c 563f 473c
00000190: 8d8f 3f3c 21a0 173d b4bb 5dbd bcda 9b3d
000001a0: 6e92 f8b8 a2d3 30bc 9229 03bd ab63 ffbb
000001b0: 157c 8fbc 1253 a2bd 648c a73d 04dc 88bc
000001c0: cd5d a7bc 6e58 c43d 6f0b fdbc 82f8 a7bc
000001d0: 11ca 9a3d 6ddf 4f3d 5a2e 163c 84e7 5abd
000001e0: 2f2d c3bc 8d50 b13d 944d ce3c 80ea ffbb
000001f0: 502f 913d 8e1e d33d b039 9c3c 6131 9dbd
-0.024424974 0.10666783 -0.029401788 -0.055123366 0.088378474 0.07355896 0.04397449 -0.010612592
0.041397866 0.10109728 0.042154122 0.0021195398 -0.06344677 0.06728242 -0.064584896 -0.06451578
0.054095283 -0.000807636 0.015404271 0.047366187 -0.05701759 -0.0237981 -0.024090812 -0.031428188
-0.01858653 -0.028566271 -0.004098086 0.047463413 -0.06622686 0.02029554 0.08041917 -0.030974118
0.023822477 0.044296075 -0.03316592 0.029692339 -0.08510707 -0.035568465 0.033964682 0.055462994
-0.070236 -0.06833726 -0.015140038 -0.027129576 -0.082158096 -0.060829688 0.06845068 -0.04400874
-0.016468354 0.058195498 0.092670925 0.0054298467 -0.0121055525 -0.008565996 0.07658048 -0.054880057
0.085896134 0.03381194 0.0021391043 -0.058689505 0.06764588 0.0051054624 -0.08142939 -0.017230295
-0.04416385 0.053887192 -0.04077375 -0.054245394 0.06363964 -0.07937671 -0.059955645 -0.0690792
0.004983309 -0.031057043 -0.036055144 -0.00796768 0.005191324 0.030386413 0.020665128 -0.031210152
-0.03864941 0.0046965936 -0.02824729 0.030844284 -0.06082204 -0.065961316 0.051065397 0.028742278
0.053418282 0.04136795 -0.08333295 -0.041608687 -0.0813789 0.008709853 -0.068763144 -0.025947634
0.015896574 0.050788637 0.019999087 0.012161097 0.01169194 0.037017945 -0.054134086 0.0761008
-0.00011852836 -0.010792645 -0.032022066 -0.007793864 -0.017515222 -0.07926001 0.08181074 -0.016706474
-0.02043047 0.09587179 -0.030889241 -0.02050424 0.07558072 0.050750185 0.0091663245 -0.053443447
-0.023825256 0.08657942 0.025183477 -0.007809937 0.07089102 0.10308562 0.019070476 -0.07675434

decoder.2.weight f4 [7, 128]
00000000: e2c2 cb3c 034e 01be 2a3e fdbd fbd6 edbc
00000010: 0781 10be 53e5 9a3d baa3 93bd 0ae4 73bd
00000020: 8512 9a3c 269a e03d f9cb 173c ffa6 df3d
00000030: 77c3 263e 3cfb ea3d 93b1 41bd 3124 aa3d
00000040: fd84 2dbe 162c 7a3d 4168 52bd 1f65 10be
00000050: 20e9 ec3d 5309 b2bd cc15 09be 880a 693c
00000060: f70a 063c 9e6d 0e3b 9c70 093e f4fb 50bc
00000070: de99 b33d c49c 15be 8b48 e73d 71a0 073e
00000080: 1cb6 e63c f57f 2bbd 239c 9d3d a1fe fc3c
00000090: 9b91 45bd fba6 4fbd 8b04 463c 4dc3 08be
000000a0: 7345 69bd 401c 093d c361 d83d 3da1 a9bd
000000b0: 411e 50bc 7a6b 4dbd 3c06 20bd 2523 883d
000000c0: 59f0 34bd 6008 33be b8a7 37be 07b8 943c
000000d0: 9b31 693d 90fb cebc 87a2 b6bd 8239 b5bb
000000e0: 2794 44be 3937 86bd e637 8d3d 3ee6 683d
000000f0: 1ea5 b8bc 9054 9d3d 6c7d fabb c314 13bd
00000100: db8a 4cbd bcfe 12be df05 863c 92d2 4b3d
00000110: 4fbd 7b3d 91cd 9e3d 3351 913d 2d5f 143d
00000120: 5047 1bbe fa88 63bc 2ed1 0ebc 9641 da3d
00000130: d00e 07be 590f 803b 4674 bbbc f80a 0bbd
00000140: 88a8 933d 7641 653d a89e 553d de28 9c3d
00000150: 4416 a53c 70c4 b33b 5e28 21be 51fd 133d
00000160: 9ffb 573d 8dfe 503d 107f 48bd 4b80 70bd
00000170: f398 593d 65fd 2a3c 323b bbbc ba22 41bd
00000180: 2169 3e3d 9ed3 8abd 289f a1bc 6071 9bbd
00000190: b410 b43d b815 48be 3a80 8abd 82c1 113d
000001a0: b1b5 333d 6250 023e 5468 3ebd 11a3 fd3d
000001b0: 3696 3fbd 99f2 8e3d 0f6f bd3d 2a47 253d
000001c0: 6345 5937 3979 00be a7f6 45bd 99e7 123e
000001d0: 5b98 043d da05 163d dc33 4abc f99f 503d
000001e0: bd12 5abd 4060 023e 3fb9 a83d 92a3 713d
000001f0: eeb9 c6bd 4fef d7bd baae 6c3d 9c74 343d
00000200: 600c 7fbd 0fc3 e23a c0dc dc3c 7696 c53d
00000210: 7330 143d e10a c03d 16a7 13be 062a 333b
00000220: d32f 7a3c 0446 33bd b668 2f3b c379 adbd
00000230: 86cd 21bd 5788 3b3d 9b34 983d a382 0cbc
00000240: 409b a1bd 5562 42bd 60b4 da3c c6a2 d8bc
00000250: 0103 273d 99c2 1f3c 6917 71bc e80a c23d
00000260: e7a9 7bbc f2f9 a13d 8d87 f3bc 7860 893d
00000270: 3d3d e93d aeec ddbd 7f14 c03d db00 e13d
00000280: 4e6e 25bd ad9b 2e3c 463d 73bc f1e1 873a
00000290: 5970 9a3d 778f 39bc 6e0a 88bc fcbe a6bd
000002a0: bdeb 02bd aa04 50bd 8646 18be 2319 ebbb
000002b0: 364c 7f3d f44c b8bd 1921 a73c 19ad 183d
000002c0: a0ee b5bc 7905 90bd 4523 86bd 991a 9ebd
000002d0: 5af2 6ebd e45c 08be 5736 f5bd 5303 133c
000002e0: 02fc ebbc 7357 043d f6b9 02be 9e5e 92bd
000002f0: 3ce0 96bd 016f 893d 5e6b 5abd 9174 04bd
00000300: 95ea 643d fa90 a4bd 58fb b73d fa27 5b3d
00000310: bc6c 02be 52bf 043d e162 163d df2c ab3c
00000320: e6ad e0bd 6909 f03c bd49 debb 6601 5cbd
00000330: 5c36 a4bd 5a19 6abc c20c 80bd 0aa1 9c3d
00000340: 97d9 a83d f1a7 153d 66c6 533d ca63 a33d
00000350: 10cb 6cbc 1f2a 823d 1fbe bebc 2bf1 933c
00000360: 6fe5 57bd d7d4 a6bc 1dc6 b9bc e8c5 3c3d
00000370: c29b 9b3b 8094 12bd c36e 8dbd 69ab 02bd
00000380: abe3 253d 6596 a23c 3037 edbc b01f de3c
00000390: 93c9 0bbe 6d3a e6bc d29c 86bd 7a79 cd3d
000003a0: 1317 08bd 6334 90bd c4c1 83ba b6cc 703d
000003b0: 9d21 a03d 80fb b9ba 37ae a53d 1e6b 313d
000003c0: 2619 8b3d 0841 fabd 4649 8e3d bae2 5d3b
000003d0: 7fe1 03bc 9d95 12bd 3849 0b3d ea8e 5b3d
000003e0: c008 a5bd 0589 d8bb 2dc9 9f3d 336e 9c3d
000003f0: f9c2 1bbe bab2 92bd 883a d7ba 8304 973d
0.0248732 -0.12627415 -0.123653725 -0.029033175 -0.1411172 0.075632714 -0.07208963 -0.059543647
0.018807659 0.109669015 0.009264939 0.10920524 0.16285501 0.114737004 -0.04728849 0.08307684
-0.16945262 0.0610772 -0.051368956 -0.14101075 0.115679026 -0.08693185 -0.13387221 0.014223702
0.008181325 0.0021732817 0.13421863 -0.012755383 0.08769582 -0.14610583 0.11293133 0.13244797
0.028163008 -0.041870076 0.07695796 0.030883135 -0.048234563 -0.050696354 0.012086044 -0.13355751
-0.056950998 0.033474207 0.105655216 -0.08282707 -0.012702526 -0.050151326 -0.039068446 0.06647328
-0.044174526 -0.17483664 -0.17935073 0.018154157 0.056932073 -0.025266439 -0.089177184 -0.005530537
-0.1919714 -0.06553502 0.068954274 0.0568602 -0.022539672 0.07682145 -0.007644346 -0.03590847
-0.04993711 -0.14354986 0.016360221 0.049761362 0.061459836 0.077540524 0.07095566 0.03622358
-0.15163922 -0.013887638 -0.0087168645 0.10657041 -0.13189244 0.0039080796 -0.022882592 -0.033946007
0.07209879 0.05597063 0.05215326 0.07624982 0.020152219 0.0054860637 -0.15738055 0.036130253
0.0527302 0.05102401 -0.0489493 -0.0587161 0.05312438 0.0104363905 -0.022855375 -0.04715226
0.046486977 -0.06778644 -0.019729212 -0.07589984 0.08792248 -0.19539535 -0.067627385 0.035584934
0.043874446 0.12725976 -0.046486214 0.12384618 -0.04677411 0.069798656 0.09249698 0.04035107
1.2950363e-05 -0.12546243 -0.04833093 0.1434616 0.03237186 0.036626674 -0.012341466 0.05093381
-0.053240526 0.12732029 0.08238458 0.058993883 -0.09703432 -0.10543691 0.05778382 0.04405652
-0.06226766 0.0017300564 0.02696073 0.09647839 0.036179017 0.09377075 -0.14419207 0.002733828
0.015270191 -0.043767944 0.0026765293 -0.0847049 -0.039502643 0.04578432 0.07431909 -0.008576068
-0.0789094 -0.047457058 0.026697338 -0.026444804 0.04077435 0.009750986 -0.014715054 0.094747365
-0.015360332 0.079090014 -0.029727722 0.06707853 0.113886334 -0.10836159 0.09378909 0.10986491
-0.040388398 0.010657233 -0.014846152 0.0010367018 0.0754096 -0.011325709 -0.016606536 -0.08141896
-0.0319631 -0.050785698 -0.14870653 -0.0071746274 0.06232854 -0.08999053 0.020401524 0.037274454
-0.022208512 -0.07032294 -0.06549696 -0.07719917 -0.058336593 -0.13316685 -0.11973255 0.0089729605
-0.02880669 0.03230996 -0.12766251 -0.07146953 -0.07366988 0.067106254 -0.05332505 -0.03233773
0.055887777 -0.080354646 0.08983487 0.05350492 -0.12736791 0.03240902 0.036715392 0.02089542
-0.109706685 0.029301362 -0.0067836926 -0.05371227 -0.08018181 -0.014288271 -0.06252433 0.07647903
0.08244627 0.036537115 0.05170288 0.07978018 -0.014452711 0.0635569 -0.023284016 0.018059334
-0.05270904 -0.020365162 -0.022677476 0.046087176 0.0047487924 -0.035786152 -0.06905892 -0.03190175
0.040500324 0.019847104 -0.02895698 0.02711472 -0.13651113 -0.028104031 -0.0657288 0.100329354
-0.03322513 -0.07041242 -0.0010052253 0.058788978 0.07818911 -0.0014189333 0.080898695 0.043315046
0.06791906 -0.12219435 0.069475695 0.0033857063 -0.008049368 -0.035787214 0.034005374 0.05360309
-0.080583096 -0.006608131 0.07802043 0.07638206 -0.15211095 -0.07162996 -0.0016420642 0.073739074

decoder.2.bias f4 [7]
00000000: b1fb a9bd d939 683d 12c6 20bd 12e9 48bd
00000010: 996c 2dbd a649 e13c 925d aa39
-0.082999595 0.056695793 -0.039251395 -0.0490504 -0.042339895 0.027500939 0.00032494642
