set_transformer/classification_model/deepset_multihot_xy.pth (torch, 296681 bytes, 11 tensors)

embedding.weight f4 [198, 64]
00000000: 4fdf 16bf 5733 49bf c57a 0b3d c696 853f
00000010: a013 f83f 2bc6 573f 6e26 6ebd 7337 92be
00000020: 9c21 373f 9181 a8bf bf49 1ebd a128 64bf
00000030: 2736 143f e8f5 16bf 4e0e f63e 0de2 8c3e
00000040: e36c 783d 8301 5e3f 8531 67bf 9deb fa3f
00000050: 140d 33be e5ff 5cbf a809 053e 3063 d5bd
00000060: 1436 a43f 3024 a53f 4163 663f 8403 f93d
00000070: fd14 bf3f dcda a93f e11f a73d 418f 2c3f
00000080: 15ef e03f e40e febd b963 01bf f5a0 a8be
00000090: 7bd6 da3f 5a30 d13e 9307 5cbe 10e8 5dbf
000000a0: 2c92 b5be 3f74 0f3f 03f5 1fc0 e722 b93e
000000b0: 7126 3a3e 6a86 f03f 5d44 91bf 40ca 08bf
000000c0: 9744 5f3f d9f1 eabf 82b8 e3bc 1144 a0bf
000000d0: efeb 363d 6544 8bbf cb95 113f 6de1 6d3f
000000e0: 5e6d be3f 12ec 86bf b017 7f3f b4fa 9e3f
000000f0: 8232 d1bf 1111 47bf d73d 2e3f 8aa5 933e
00000100: 1970 e6be a5c9 8dbf 1b67 0d3f 53fb 04c0
00000110: d4ca 87bd a3b0 1bbf ce21 88bc 0b34 cdbf
00000120: df47 93be ad34 c9bf 85f6 433e 5c37 923f
00000130: bbca f5bf 6094 0f3f 8c9f 6fbf 9c5e 4a3f
00000140: b130 e7bf 9c4a c7be e6bb 923f 3c54 34be
00000150: f1ff d6bf 3f26 53bf 5085 1040 c391 7f3f
00000160: bc90 40bf 0b4c 0040 1be9 e33d 6635 253f
00000170: 30a9 523f 0979 d3bd a2c3 0bbe 2390 23c0
00000180: e485 223f e2c3 44be 572a 66bf 9bcf 30bf
00000190: 9ab8 933f 4ed5 8bbd 71ed 873f bce2 6b3f
000001a0: c2d6 2d3e f72a a93f 7a15 f0be 0608 93bf
000001b0: 8012 14be e8f7 0f3f d78c 87bf cf51 3d3f
000001c0: 5ba7 153f 8eb1 7dbf 401b 6abf 6c08 043c
000001d0: bc7c 373f 9164 bc3e 11fc 263f 5293 a13e
000001e0: a7db b73e a436 4cbd 8f77 48bf b0b2 21bf
000001f0: e4c5 e9bf e65b 5e3f 6b05 06bf a24e b5be
00000200: 7d79 d1bf 3abc a93f 9c82 363f 1ec9 0bbf
00000210: 9368 cdbe 9d79 d5bf 5716 3e3f bd3b d73e
00000220: b472 4abd b711 473f 0e28 1fbf 7faa e0bd
00000230: 3880 ec3f cd59 a43f 318a 47bf 357e 953e
00000240: 4d73 fe3e 9c1c ec3f 8924 0fbf 68a7 653f
00000250: 2ddf 203f ec76 28c0 4b3a 3cbf 93ab 4f3e
00000260: 2b43 d93e 8c56 0b3e 46cc 5e3f 8504 cd3f
00000270: 10ed b93e ed00 ae3f 6663 a5be 5fbc 4abf
00000280: c72d dbbf a74f 60bf 8db9 0cbe 3bbb bcbf
00000290: b2c3 b93f 6e8d ec3f f1ec 8b3f 9133 8a3f
000002a0: d173 16c0 d58e bbbe e5f8 ce3f 622f 8dbf
000002b0: 5838 823f b141 6540 7ead 1dbf 6c6f 723f
000002c0: c822 2fbf 94c4 133e dc90 203f f646 fe3d
000002d0: a93b cdbd b5b3 1ebd bce0 c53e 7b2e d3bf
000002e0: 03ad 76be b2b5 28bf fb9b 4abf f5be 903d
000002f0: f209 0b3f bae4 fe3e 422d a93f c84f 44bf
00000300: 893f 873f 549f 003f 82be 863f bdfb dbbe
00000310: fa48 a73d f88f 2040 8bc7 263f 052b c93f
00000320: d34e 803e fb20 05c0 47c4 a4bf 4791 e1bf
00000330: 9f04 c23f bfa9 cbbe 480c aa3e 840a 13bf
00000340: 5bed 88be 2dde 5bbf 91f6 ecbe 8531 833f
00000350: 36e4 98bf 569f f43e d8b9 4fbe a60d df3f
00000360: 23e5 98be af5e 8fbf 3ef9 953f b37a 973e
00000370: 4125 663f 64e1 68bd 8c47 123f a3fd 563e
00000380: 5285 09c0 cea7 eb3f ea6a 17bf c2df 7bbf
00000390: db34 633e ee51 8a3f 336a e43e c79d e93d
000003a0: 6960 c5bd 6c31 81bf 2768 f4be 8936 cebc
000003b0: 4fc0 d1be f55f ddbd 5689 81bf a0a4 8fbf
000003c0: bf6e 8c3f b950 2cbf da1f 44be 4555 77bf
000003d0: bd5e a53e 6709 943b cc76 f23e f034 09bf
000003e0: e38a efbe 5564 a2bf b339 093f 94f0 c0bf
000003f0: 6367 38bf b799 22bf d49c edbe 4863 563f
-0.5893449 -0.78593963 0.03405263 1.0436637 1.9380989 0.84286755 -0.05814212 -0.2855793
0.7153566 -1.316454 -0.03864455 -0.89124495 0.5789513 -0.58968973 0.4805779 0.27516213
0.060650717 0.86721057 -0.90309936 1.9603153 -0.17485458 -0.86327964 0.12991965 -0.10419309
1.2829003 1.2901669 0.899952 0.12158874 1.492828 1.3269916 0.08160377 0.6740609
1.7572962 -0.12405184 -0.5054279 -0.329353 1.7096704 0.40857202 -0.21487264 -0.86682224
-0.35463083 0.5603675 -2.4993293 0.3615944 0.18178727 1.879102 -1.1348988 -0.5343361
0.87214035 -1.8355056 -0.027797941 -1.2520772 0.044658598 -1.0880247 0.5686919 0.929221
1.4877126 -1.0540793 0.9964552 1.2420259 -1.6343539 -0.77760416 0.6806311 0.28837234
-0.450074 -1.1077162 0.5523545 -2.0778396 -0.06630483 -0.608164 -0.016617682 -1.6031507
-0.2876577 -1.57192 0.19137008 1.1423144 -1.9202493 0.5608578 -0.93602824 0.7905061
-1.8061734 -0.3892411 1.1463592 -0.17610258 -1.6796857 -0.82480234 2.2581367 0.9983179
-0.7522085 2.0046413 0.11128446 0.64534605 0.8228941 -0.1032582 -0.13648847 -2.5556724
0.6348555 -0.19215348 -0.89908355 -0.6906678 1.1540711 -0.06827794 1.0619336 0.92142844
0.16976455 1.3216237 -0.46891385 -1.1486824 -0.14460182 0.5623765 -1.0589856 0.73952955
0.5845849 -0.9909905 -0.9144783 0.008058649 0.71674705 0.36795476 0.6522837 0.3155771
0.3590977 -0.049856797 -0.7830743 -0.6316328 -1.8263516 0.86858976 -0.5235202 -0.35411555
-1.63652 1.3260567 0.71293044 -0.54603755 -0.40118846 -1.6677738 0.7425284 0.42037764
-0.049425796 0.77761406 -0.62170494 -0.109700195 1.8476629 1.2839905 -0.7794524 0.2919785
0.49697343 1.8446231 -0.55915123 0.89708567 0.6284054 -2.6322584 -0.7352645 0.20280294
0.42434058 0.13607234 0.87030447 1.6017004 0.36313677 1.3594033 -0.32302397 -0.7919368
-1.7123345 -0.8762154 -0.13742657 -1.4744638 1.4512846 1.8480661 1.0931684 1.0796987
-2.3508189 -0.3663241 1.6169707 -1.1030085 1.0173445 3.5821345 -0.61592853 0.94701266
-0.68412447 0.14430457 0.6272104 0.124158785 -0.10021145 -0.0387456 0.3864802 -1.649856
-0.24089436 -0.65902245 -0.7914426 0.07067672 0.5431205 0.4978388 1.3216937 -0.76684237
1.0566264 0.50243115 1.0526888 -0.429655 0.08168216 2.5087872 0.6514823 1.5716254
0.25060138 -2.080138 -1.2872399 -1.762246 1.515766 -0.39777943 0.33212495 -0.5743792
-0.26743588 -0.8588589 -0.46281865 1.0249487 -1.1944644 0.47777814 -0.20285738 1.742604
-0.29862317 -1.120077 1.1716688 0.295858 0.89900595 -0.056855574 0.5714042 0.20995192
-2.1487622 1.8410585 -0.5914751 -0.983883 0.22188132 1.0806253 0.44612274 0.11407047
-0.096375294 -1.0093207 -0.47735712 -0.025172489 -0.40967032 -0.10809318 -1.0120037 -1.1222115
1.0971297 -0.67310673 -0.19152775 -0.96614486 0.32298842 0.0045177224 0.4735626 -0.535964
-0.4678565 -1.2686869 0.5360367 -1.5073419 -0.72032756 -0.635158 -0.46408713 0.8374524

encoder.0.weight f4 [128, 77]
00000000: c6bb 483c 4448 423c 371d 0f3d a439 b7bd
00000010: 8daa ba3d ca23 5bbd e0ed 913b a985 133d
00000020: d0a1 c13d c7e5 a3bd e636 cfbd 94f0 093c
00000030: 813f edbc 6d64 ad3d 682f b3bd e58e 20bd
00000040: 5153 0b3c 747d 8e3d 0246 a43c 50ff 8e3d
00000050: fcaf fdbc a8c1 cf3d 3a29 84bd 54dc acbd
00000060: 56b6 3dbd 7fb0 90bd 6f09 5d3d c67d 46bb
00000070: 1693 8fbd 3e92 70bd d1ed a4bd 88e2 4fbd
00000080: 7929 953d 41d1 01be 637d 0bbd 01e1 5e3d
00000090: 1a93 b63d 8de3 413d 1c57 ca3d 3703 503c
000000a0: 2db1 293b e796 e03c 7992 513d 980a 2fbd
000000b0: 1652 87bc 12a3 2f3d ee21 d53d b99d 6fbd
000000c0: ce7a ec3d 3207 253d 57e3 9b3d 68ba babd
000000d0: 1b8c dd3b 136b 0dbd 0388 8d3b b01e 603d
000000e0: 6e9a 66bd b487 a4bd f146 a5bd c787 5ebd
000000f0: a57d bebd e9aa 50bd f5c0 8b3d 2c9e bc3d
00000100: fbd3 d33d c50c d53c 312e 923c 8fb6 b53c
00000110: d935 503c 9fee a03c d5d3 7ebd 8ff2 953d
00000120: 2692 7cbc c06f a13d b7b5 013e 845f 4f3d
00000130: 5d61 583c a6ab 133c e721 753a 1b71 32bb
00000140: 9e7b febb 0605 82bc da89 d3bd 8eec c83d
00000150: d9ff 323d 0d50 023e 0723 d0bc 6e06 05bc
00000160: 8355 033d 9fe6 d4bd 698e 123b 36c6 ccbd
00000170: de19 123e fbe5 12be 80b9 8bbc 290a edbd
00000180: d429 3fbd 716d 2abd 73bc cbbc 3b09 a83c
00000190: 7e69 1abd f2dc db3d 3936 58bd 5371 cebd
000001a0: 81ae 223e 863e 4ebd 6f09 563d 2612 0ebe
000001b0: 4b1e 21bd f34a 0c3c 4710 fbbc da9d 4f3d
000001c0: 522b bcbc 983e b0bc edd2 21bd 4678 9cbd
000001d0: 6ad1 ca3c 4d7e babd 4826 92bd cfee 0b3e
000001e0: b853 693d 2574 883d 3ee6 2c3d abcc 5c3c
000001f0: 6f15 c1bd 9583 b9bd 10ea 403d ed92 3dbd
00000200: 3323 ac3d 20a5 a4bd cab9 863b 1871 9b3d
00000210: 0974 ec3a 6a65 50bd 0e0d 983d 1260 74bd
00000220: ab82 123e 2a6a 203d d791 90bd d792 ca3d
00000230: af93 a83d 2640 bbbd dde6 b4bd 901a 07be
00000240: 10c7 d6bb 2a43 283e 3d2f 0fbe 6501 fd3d
00000250: 5f62 dd3d 740d d03c 0510 05bd 5346 cebd
00000260: c4ef a9bc c893 15bd 3229 f83c bac3 ea3d
00000270: 1c7c b7bb 34b8 c13c 9e88 09be 1db0 953d
00000280: d022 073e 5dbb 9e3d 4140 90bd 8436 17ba
00000290: 1784 0dbd a03c e1bb e88d 5dbc b7de 84bd
000002a0: eafc 813c 2c09 f03d b659 333b 246e 0e3d
000002b0: 5f3c 1c3e 8a9b 1c3c 52f2 693d b1c3 e13c
000002c0: f0b6 d43d 1d03 8d3d c4f1 8dbd c35c cb3d
000002d0: babc 643a 3c14 a9bd 99f6 6fbd 0c19 a53c
000002e0: 3680 19bd dd33 b43d 9714 f33d 3100 05be
000002f0: c286 55bd 1008 90bd 8d9e 6ebd 1175 c7bd
00000300: 29ef 9abc 4474 bebc 10cc 873d e883 f43b
00000310: 0e65 323d d050 57bd ad19 43bd be27 073c
00000320: 63d3 05bc 15f6 2b3d edab 0f3e 4873 843d
00000330: 5e33 01be 2a16 44bd 7f26 ecbd 4ae9 613c
00000340: 3235 68bc 6876 1abe fcb2 e7bd 0b32 a13c
00000350: 3e75 953d 030b f2bc 568a 17be 57b5 233d
00000360: b655 503c 1399 d9bc 9957 593c 67c7 35bc
00000370: 79bf 2e3e 2a14 e93c 6395 d5bd f103 7cbd
00000380: 545d 273c 91b9 c23d 646e d9bc 0c8d 223e
00000390: 044d 213d 06f4 b5bc a8fa a73d 14b2 de3c
000003a0: f764 d03d 6011 96bd 52c6 f6bd 7c65 ecbd
000003b0: 8e9f c4bd 53aa 4e3d 0004 a43d 1453 16be
000003c0: 3ac9 29bd 3d48 833d 5f76 5cbc e1af 30bd
000003d0: ed1c a6bd 981a 903d 575b cebc 8a6f d8bc
000003e0: 4b22 ae3d 8fc2 b13c be69 ef3d b988 953d
000003f0: 5dfe bb3c 9a14 06be 3ef0 5f3c 23e1 28bd
0.0122518 0.01185805 0.03493997 -0.08946541 0.09114561 -0.053500928 0.0044534057 0.03601614
0.094546914 -0.08002811 -0.10117893 0.008419175 -0.028960945 0.0846642 -0.087492764 -0.039198775
0.008503751 0.06957522 0.020052914 0.06982291 -0.030967705 0.10144359 -0.06453176 -0.08440462
-0.046316467 -0.07064914 0.053964075 -0.003028737 -0.07010476 -0.058733217 -0.080531724 -0.050753146
0.07283301 -0.1267748 -0.034055125 0.0544138 0.08914776 0.04733615 0.09879896 0.012696079
0.0025892959 0.027415706 0.051165078 -0.042734712 -0.016518634 0.042880125 0.10406862 -0.058500025
0.11546861 0.040290065 0.07611721 -0.091175854 0.0067610866 -0.034525942 0.0043191924 0.054716766
-0.05629962 -0.08033696 -0.080701716 -0.054328706 -0.093013085 -0.050944243 0.06823913 0.092098564
0.103431664 0.026007066 0.017844291 0.022181777 0.012708151 0.019645033 -0.062213738 0.07321655
-0.015415704 0.07882643 0.12666975 0.0506282 0.013206807 0.009013092 0.000935106 -0.002722806
-0.007766201 -0.015871536 -0.103290275 0.09810744 0.043701027 0.1272585 -0.025407327 -0.008119209
0.032063972 -0.1039555 0.0022362715 -0.09998743 0.1426768 -0.14345543 -0.017056227 -0.115742035
-0.04667075 -0.041608278 -0.024870133 0.020512214 -0.03769826 0.10735501 -0.052786086 -0.10080209
0.1588688 -0.050352596 0.05225509 -0.1387411 -0.03933553 0.008562791 -0.03064741 0.05068765
-0.022969875 -0.021514222 -0.039507795 -0.07640128 0.02475806 -0.09106121 -0.07136208 0.13665317
0.056964606 0.06662778 0.042211764 0.013476531 -0.09427916 -0.090583004 0.04709822 -0.046282697
0.08405151 -0.080393076 0.0041115033 0.0758993 0.0018039952 -0.050877966 0.07424365 -0.059661932
0.14307658 0.039163746 -0.07059067 0.09891289 0.082312934 -0.09143095 -0.08833096 -0.13193727
-0.006554492 0.16431871 -0.13982864 0.123537816 0.108097784 0.02539704 -0.03248598 -0.10072007
-0.020744212 -0.03651789 0.030293081 0.11463113 -0.005599512 0.023647405 -0.13431022 0.073089816
0.13196874 0.077505805 -0.070435055 -0.00057683163 -0.0345498 -0.006873682 -0.013522603 -0.06487792
0.01586767 0.117204994 0.0027366704 0.034773007 0.15257405 0.009558568 0.05711586 0.027559133
0.10386455 0.068853594 -0.06930879 0.09929802 0.0008725632 -0.082558125 -0.058584783 0.020153545
-0.037475787 0.08798955 0.118691616 -0.12988354 -0.05213047 -0.07032788 -0.058256675 -0.097391255
-0.018912869 -0.0232488 0.06630719 0.0074620135 0.043553405 -0.052567303 -0.04763191 0.008249221
-0.008168074 0.04198273 0.14030428 0.06467301 -0.12617251 -0.0478727 -0.1153078 0.013788531
-0.014172839 -0.15084231 -0.113134354 0.019677183 0.07297753 -0.029546266 -0.14798865 0.03996786
0.012715748 -0.02656225 0.013265514 -0.0110949045 0.17065229 0.028451998 -0.10428884 -0.061527196
0.010215122 0.0950805 -0.026541896 0.15874118 0.03938009 -0.022211086 0.08202106 0.027184524
0.101755075 -0.07327533 -0.12049545 -0.11542794 -0.09600745 0.050455403 0.080085754 -0.1468013
-0.04145167 0.06410263 -0.013455956 -0.04313648 -0.08110986 0.07036322 -0.025190039 -0.026420373
0.085026346 0.021699218 0.116900906 0.073014684 0.022948438 -0.13093796 0.013668118 -0.041230332

encoder.0.bias f4 [128]
00000000: 5ea5 193d 7d8b ec3d 8f40 293d c289 853c
00000010: 29f8 93bd 4545 61bc afc2 c53d e40e 00bd
00000020: 47f3 73bd 8405 153c 06fb a0bc 3114 933d
00000030: e94c a4bb f7f3 70bb abc4 c8bd e89a 5f39
00000040: 374e e23d df9e ccbd 2e5e 7ebd a46e 283d
00000050: c1ac 8f3d 072e 393d fca6 f93c 9db1 ad3d
00000060: 0e5f e43d 0347 23bd c1df 2bbd b04b ef3a
00000070: 2480 b43c 21a4 68bd a518 e63d 82d1 8f3c
00000080: ceb8 e13d c731 b6bd 4706 d3bd 4aaf b33d
00000090: 76f6 b73d e5c4 233d 6215 e83d cec2 18bc
000000a0: 093c ef3c e18c b83d 2bbd 983c a898 c3bd
000000b0: 922e 053d 4184 7c3c c834 3abb 0479 63bc
000000c0: 98d6 643b 1378 673d 83a9 193c e8f0 af3c
000000d0: de8f e93d b14f 6c3d e601 e3bd c497 b4bd
000000e0: bf35 6ebd 33da d5bd 2c80 cbbd 236f fd3d
000000f0: 80d9 943d f561 2c3d ae62 2dbd 35b4 72bc
00000100: 4fc2 1fbc 7016 313d 5492 4f3d 5b53 d1bd
00000110: 18ea 4c3c 5788 d8bc 02e4 bf3d 5fc7 323d
00000120: 6a2d 23bc 9f7f 903d 18db 853c 35b5 a83c
00000130: cfde 6bbd 3eb2 61bd 7caf 3f3d 2ea0 893c
00000140: 8d12 003d fc60 cfbd 980f e43b db68 9dbd
00000150: 7e5f a4bc 2f6b 08bd 5b54 85bd d2ac b13c
00000160: ab6d af3d 08d4 bc3d 685f 013d 37d1 bb3d
00000170: 6218 aabd d558 1f3d 4ad5 0fbd 0371 173d
00000180: a6a0 8fbd 9c14 bb3c 27d7 cbbc 1271 c2bb
00000190: fa53 b0bd 7d0a ab3d 5e92 eebc ae4a 62bd
000001a0: 9a3e 35ba 399b 8e3d 5683 8e3d fb63 293d
000001b0: 3939 0bbd 9d0c d8bd c45d 51bd 376a 8b3c
000001c0: 1213 f03d 676e e83c 3f35 76bb a159 10bd
000001d0: 90d8 093e a203 89bd 4b6c 253d 1db6 45bd
000001e0: 3ffd 16bd d4c8 63bd 6df6 d53d f12d 163d
000001f0: 4649 03bd ace8 963c 27a6 cb3d 0074 993d
0.037511222 0.11550043 0.041321333 0.01630104 -0.07225067 -0.013749425 0.096562736 -0.0312642
-0.05955818 0.009095553 -0.019650947 0.071815856 -0.005014051 -0.0036766508 -0.098031364 0.00021324644
0.110500745 -0.0999124 -0.062101535 0.04112114 0.07015372 0.04520991 0.030475132 0.08481143
0.11150943 -0.039862644 -0.041961435 0.001825681 0.022033758 -0.05679715 0.11235169 0.017555956
0.11021577 -0.08896213 -0.10303932 0.08773668 0.089825556 0.039982695 0.113322034 -0.009323789
0.029203432 0.090112455 0.01864489 -0.09550601 0.032515116 0.015412391 -0.0028412808 -0.013883833
0.0034917947 0.056510996 0.009378794 0.021477178 0.114043936 0.057693187 -0.110843465 -0.088180095
-0.058156725 -0.10442009 -0.09936556 0.12374713 0.07268047 0.042085607 -0.042330436 -0.0148134725
-0.009750917 0.04323429 0.05067666 -0.10220977 0.012506984 -0.0264322 0.09369661 0.043647166
-0.009959558 0.07055592 0.016339824 0.020594219 -0.057585534 -0.055101626 0.046798214 0.016800012
0.03126769 -0.1012592 0.0069598667 -0.07686015 -0.020065065 -0.033305343 -0.0651023 0.021688852
0.085658394 0.09220129 0.031585127 0.09170764 -0.08305432 0.038903076 -0.035115518 0.03697301
-0.07013063 0.022836976 -0.024882866 -0.005933889 -0.08609767 0.0835161 -0.029122528 -0.055247
-0.00069139304 0.069632 0.06958644 0.041355114 -0.03399012 -0.10549281 -0.051114812 0.01701842
0.117223874 0.028372956 -0.0037568358 -0.035241727 0.13461518 -0.06690146 0.04038648 -0.04826938
-0.036862608 -0.055611446 0.104473926 0.036664907 -0.0320523 0.018421493 0.099438004 0.07492828

encoder.2.weight f4 [128, 128]
00000000: c645 49bd 878f ef3d 73aa c7bd 3146 74ba
00000010: 7283 983c 1f11 403c 6473 d43c e0a9 af3d
00000020: 65e3 ac3c c1ba ddbb 8c16 293d bfdc a2bd
00000030: 988d 45bd 4030 4c3d 068d 903c c729 22bd
00000040: 43a2 353d b1fd 4fbd aa6d 8d3d e700 a83d
00000050: 36e6 1f3d 34dc 02bd c601 bb3d 9327 42bd
00000060: af1b 953d 08be 313d e065 c6bd aa34 333c
00000070: f483 843c d9fa eb3d 7036 27bd c278 b43d
00000080: f77c ee3c 814b 78bc 1814 2bbc 06cf 2fbd
00000090: b4c2 91bc 1563 6b3d 0088 bd3a e1d7 9fbd
000000a0: bf6b 083d e0b7 993d 2d85 b2bd 5d87 053d
000000b0: e198 e03b eca8 873d 7ed5 8d3d cd89 9ebc
000000c0: 86a1 763c 2a1e 83bc 44e6 783d 34a6 0ebd
000000d0: 6ebb 313d 9834 193d 0e6e 123c 700c 06bd
000000e0: 0a4d 893c 2ed4 753c ee5f 183d d629 99bd
000000f0: 6f49 7cbd 22a6 6fbd 198c cdbc b576 93bd
00000100: 8c0b abbd 2e19 0abd 030b 41bd 5ae6 f03d
00000110: 3247 533d 4f32 ec3c 1b2a 793c b2bd f9bb
00000120: aa20 52bc 87b2 d03d f30f c5bb 5893 d63d
00000130: e13e 4f3d 6143 a43d 4d26 993d 5e15 57bd
00000140: 852f 833d 09c3 c83d a884 78bd 2247 a5bc
00000150: bc08 e43c 5eb2 3bbd 2491 533c e560 c13d
00000160: 0f9e a1bd f3b4 e4bc 3359 a3bd b4ef 443c
00000170: 8980 663d 7ff0 56bd e376 a03d bc77 673b
00000180: 2ac3 df3c 32f2 d4bc af37 413d e5b5 d13d
00000190: df2e c83d 2d03 27bd 5e40 11bd 0221 f0bd
000001a0: 0752 ce3d 9467 503c 69ef d3bc 6f0c afbd
000001b0: b7ec e1ba 3210 6bbd 9135 b1bd 065b 503d
000001c0: c6f5 203c 286d 44bb bdb0 283d 4ac5 91bd
000001d0: 6106 91bd 7923 93bd d291 cdba af6b 653d
000001e0: 8b0e dbbd 370e de3c 5182 ed3d ca25 643c
000001f0: 6702 fc3c d595 e6bb 87ce 023d 93c2 edbc
00000200: 32bb 8f3b f601 22bd a071 073d 864d 973c
00000210: f5a4 f73d 8887 413d da91 643d 7df0 af3b
00000220: 93e7 71bd 450b cf3c d5d4 bb3d cc7d 8cbd
00000230: 8c26 613d fd74 1c3b 61a7 53bd 7701 8ebd
00000240: 1fc1 de3a 8c03 e2bc 113e 10bb ea70 eebb
00000250: 5e2e 24bc ae81 02bd dc3c 80bd 3f99 42bd
00000260: 8da1 50bc 93c9 653d cfc1 c0bc e1c1 303d
00000270: bf09 593d 9791 8d3d 97e7 94bc 16bc 73bd
00000280: adf3 01bd 1c0b 00be 4190 4a3d 4e62 4fbd
00000290: 24e8 2e3d 7044 3fbd a51a 57bd 59be 42bd
000002a0: eb0a cb3d 02e9 b1bd 5d70 303d 68be f4bc
000002b0: e966 03bd a690 083d 7126 b53d dd94 44bd
000002c0: 91ce 9bbd c03f c73c 3434 ce3d 3811 333d
000002d0: e850 a0bb 00c5 3cbd bdde 4fbd 7daa d2bc
000002e0: 8732 5abd cece 2fbd 22ce e53d c17b b73c
000002f0: b0dd 5e39 180e 3f3d 8a33 913d 400f 9fbd
00000300: ef06 903d 53ca cebc 7ad9 b3bd 084a 833d
00000310: 9879 673d 8aa6 683d 936f 7f3d ac2e b63d
00000320: e1d7 893d 0bfd ca3c 7ce9 893c 5614 56bd
00000330: a84b 453d c15c 68bd 8dc4 a73d ba6a 113d
00000340: ce98 77bc f40c 873d 7123 ba3d 1037 943b
00000350: e712 5d3d f4cd 133c 25f0 babd 330b cbbd
00000360: 50aa 98bd b6b1 86bc 1ffb 1a3d cc7d a4bd
00000370: 32ea b03d e62d f43c 53c1 31bc 46b4 9bbd
00000380: 7f77 893d 4217 093e e5fa d2bc 380d 8bbd
00000390: 61ba 393d 58a0 b83d f255 833d b4d5 bf3d
000003a0: e8ff 55bd 762f b6bd c8fc 74bd 895d b9bd
000003b0: 4fcb 7cbc b022 713d c387 97bd 1252 4cbd
000003c0: 387d 2dbd 2deb ffbc 549e 9ebd 0db4 ccbb
000003d0: 13d0 9b3d aaa1 9abd fe94 8bbc b1c9 56bc
000003e0: 9f0b fabc f298 9fba 7556 e13c 5c91 abbc
000003f0: d118 c3bc 59ba d6bd 7c81 613b de20 1a3c
-0.049138807 0.116972975 -0.097493075 -0.00093183207 0.018617366 0.011722832 0.025933929 0.08577323
0.021104524 -0.0067666476 0.041281268 -0.0795226 -0.048230737 0.049850702 0.01764537 -0.039590623
0.044344198 -0.05077905 0.069056824 0.08203297 0.039037906 -0.031948283 0.09131198 -0.047401022
0.07280671 0.04339412 -0.096874 0.010937849 0.016176201 0.11522455 -0.0408234 0.08812095
0.029112322 -0.01515472 -0.010441802 -0.042922042 -0.017793037 0.05746754 0.0014460087 -0.078048475
0.03330588 0.075057745 -0.087168075 0.032599796 0.006854162 0.06624016 0.06925486 -0.019352818
0.015053159 -0.016005594 0.060766473 -0.034826472 0.043391638 0.037403673 0.008937372 -0.032726705
0.016760368 0.015004201 0.03720086 -0.07478683 -0.06159347 -0.058508046 -0.025091218 -0.07200376
-0.08351812 -0.03371542 -0.047129642 0.11762686 0.05158157 0.028832583 0.015207793 -0.0076214904
-0.0128251705 0.101903014 -0.006013864 0.10477322 0.050597075 0.08020664 0.074780084 -0.05251061
0.06405548 0.09802825 -0.060673386 -0.02017552 0.027836196 -0.0458244 0.012913022 0.09442309
-0.078914754 -0.027918315 -0.07975998 0.01202004 0.056274924 -0.05247545 0.07835176 0.003531917
0.027314741 -0.025994394 0.047172245 0.10239772 0.09774565 -0.040774513 -0.035461776 -0.11725046
0.10074239 0.012720007 -0.025870996 -0.085472934 -0.0017236684 -0.057388492 -0.08652795 0.050868057
0.009824222 -0.0029972289 0.041184176 -0.07117708 -0.07081295 -0.071845 -0.0015683717 0.0560109
-0.10696133 0.027106388 0.115971215 0.013925025 0.030762864 -0.0070369043 0.03193524 -0.029023444
0.004386329 -0.03955265 0.033067346 0.018469583 0.1209201 0.047248393 0.055803157 0.0053692446
-0.059058737 0.025273928 0.09171454 -0.06859931 0.0549684 0.0023873441 -0.051673297 -0.06933873
0.001699481 -0.027589582 -0.002200965 -0.007276644 -0.01002082 -0.031861953 -0.06261608 -0.047509428
-0.012733829 0.05610044 -0.023529915 0.043153647 0.05298781 0.06912535 -0.018176837 -0.059505545
-0.031726528 -0.12504238 0.049453977 -0.05063086 0.042701855 -0.046696126 -0.052515645 -0.04754481
0.09914192 -0.08687021 0.043075908 -0.029875949 -0.032080565 0.033341072 0.08845223 -0.04799353
-0.07607759 0.02432239 0.10068551 0.043717593 -0.0048924573 -0.04608631 -0.05074953 -0.02571606
-0.053270843 -0.042921834 0.11220957 0.022397878 0.00021254155 0.0466443 0.070899084 -0.077665806
0.070325725 -0.02524296 -0.08781715 0.06410605 0.056512445 0.05679945 0.062362265 0.08895621
0.06730629 0.024778863 0.016834967 -0.052265488 0.048167855 -0.056729082 0.08191786 0.035502173
-0.015112115 0.065942675 0.09088791 0.0045231655 0.053973105 0.009021271 -0.09127835 -0.099142455
-0.074543595 -0.016442161 0.037837144 -0.08031806 0.08638419 0.029807042 -0.010849315 -0.07602744
0.06712245 0.13387778 -0.025754401 -0.06789631 0.04534376 0.09014958 0.06412877 0.093669325
-0.052246004 -0.08895771 -0.059811383 -0.090510435 -0.015429332 0.05887097 -0.07398941 -0.049882956
-0.042355746 -0.03124007 -0.077450424 -0.0062470497 0.076080464 -0.07550366 -0.017038818 -0.01310961
-0.03052312 -0.0012176319 0.027507046 -0.020943336 -0.023815544 -0.10484762 0.0034409454 0.00940725

encoder.2.bias f4 [128]
00000000: bf71 733d 189b 353d 82fa 8fbc e74f 00bc
00000010: 5c39 5c3d 3950 413d 3f1f 4abd 72ac 6d3d
00000020: e8d4 983d cde9 24bd c8d9 343d aa71 eebc
00000030: 189d 9b3d 80dd 3b3d 9648 993d 56f5 8c3d
00000040: 4c4a 22bd a22c bebc 6b02 c33d 6cb5 c63c
00000050: 1d7b 283d cbad 36bd ee58 c03d 91df 01bd
00000060: cbc6 543d 7ce6 af3d 54fb 8a3d f141 773d
00000070: 52a5 5ebd c0ea 94bd 63e0 7ebc e459 24bd
00000080: 076c 243d c45e 4dbb 09df e13c 8d32 32bd
00000090: 25a6 c93b cdd1 923d d337 82bb 19dd 0dbd
000000a0: ed70 f8bb 6f03 393d 09e8 78bd 72d6 80bd
000000b0: 64a3 b13b 66a8 ab3c 8c0d fa3b a2b7 8cbc
000000c0: 385d 763d fcb1 50bd 4234 753d fd8f 7fbd
000000d0: 250e a2bc 3f78 15bb 71f1 5e3c 4b9b c0bc
000000e0: 5eb0 c63c f712 4abd 6537 983d bd70 08bd
000000f0: bd32 40bd 5147 1b3d e96f 823d fe59 b4bc
00000100: 0a72 103d 366f c03d 6ec5 53bd ca60 2b3d
00000110: 3a38 a13d b8d6 babd 027d 01bd 9ef2 3d3d
00000120: 1fc9 4a3c 4ed7 843d 628d 383d b5c2 33bd
00000130: a4c9 9c3d 5869 5dbd b6aa 5e3d 1421 5ebd
00000140: 4712 19bc 9806 c83d 4c7d c1ba acbf 13bc
00000150: 9a7a c5bc c1e1 02bc e66d 0e3d e2eb 94bb
00000160: 9876 88bd ca9d 16bd f39c a53b d3cb 71bc
00000170: 1565 bc3d 5b40 5abd dd39 533c 7b60 54bc
00000180: f0c0 293d d6a9 a6bc a3c4 0f3d e6a2 643d
00000190: 48aa 5a3d e250 51bd 326e a7bc ae62 05bd
000001a0: 81ff 9f3d 1dce 2dbd c81f 90bd fb9c eabc
000001b0: 6c45 a4bc e0cc 263c ef6c 9b3c eb72 683c
000001c0: f87b ea3c ed35 b6bc f796 183c 0d13 a03c
000001d0: 49d0 873d e463 a63c 8c73 903c bf53 27bd
000001e0: 9f69 e23c 3d08 d33c cd6d 3fbd 1990 633d
000001f0: b314 e5bc e3f6 883d 1398 7dbd e19b 6a3d
0.05943465 0.044337362 -0.017575506 -0.00783155 0.05376564 0.047195647 -0.049346205 0.058025785
0.07462484 -0.040262032 0.044153005 -0.029106934 0.07598323 0.045865536 0.07484548 0.068827316
-0.039621636 -0.023214642 0.095219456 0.02425643 0.041133035 -0.044599336 0.09391962 -0.03170735
0.051947396 0.08588883 0.06786218 0.06036562 -0.05435688 -0.072713375 -0.015556428 -0.04012479
0.040142085 -0.0031337002 0.027572172 -0.04350524 0.006153839 0.071689226 -0.00397394 -0.034634683
-0.007581821 0.04516929 -0.06076816 -0.06290902 0.005421089 0.020954322 0.0076310094 -0.017177407
0.060147494 -0.05095099 0.05986429 -0.062393177 -0.019782135 -0.0022807268 0.013607369 -0.02351155
0.02425402 -0.049334493 0.07432441 -0.03331064 -0.046923388 0.03790981 0.063690014 -0.022015568
0.035265006 0.09396212 -0.051701955 0.041840352 0.078720525 -0.091229856 -0.031613357 0.046373956
0.012377053 0.064863786 0.04505671 -0.04388686 0.076556474 -0.05405554 0.05436202 -0.054230765
-0.009342737 0.09766883 -0.0014762073 -0.009017866 -0.024106313 -0.007988394 0.034772776 -0.004544721
-0.06663245 -0.036771573 0.00505411 -0.014758068 0.09198967 -0.05328403 0.012892214 -0.012962456
0.041443765 -0.020344656 0.035099637 0.055819415 0.05338505 -0.051102526 -0.020438287 -0.03256481
0.078124054 -0.042432893 -0.07037312 -0.028639307 -0.020052634 0.010180682 0.018972842 0.014187555
0.028623566 -0.02224251 0.009313337 0.019540334 0.06631524 0.020311303 0.017633222 -0.04085135
0.027638255 0.025760764 -0.046735574 0.055557344 -0.027963972 0.06687715 -0.061912607 0.057277564

encoder.4.weight f4 [128, 128]
00000000: 5449 1e3d d9c8 f43d 86fd 783d 0d5d 8fbd
00000010: 20dc 19bd 29d0 9dbd 5e26 b7bd 56fc 843d
00000020: bf40 d0bc 5089 0bbd 4635 9fbd a64a 923c
00000030: adbd 8fbd d013 893d 5c4c 7f3d 3f60 b23d
00000040: df46 b03c ead8 983d d42a 92bd 46f2 c3bd
00000050: 14de cb3c a078 17bd 2f54 793c bfdb 233d
00000060: a769 9ebd 1779 d83c f29c 87bc 871f bebd
00000070: 673d 8e3d b97e 033e 5c47 92ba 77d5 bdba
00000080: 20cf 1fbd adfd 533a 6a4c 9cbc 9b4e 01bc
00000090: c876 a6bd 8186 d6bd 6533 2bbd 891a 5bbd
000000a0: 8390 d2bd c85f a1bd 5a05 a9bc f9b6 09bc
000000b0: 0f41 2a3c 3670 633d 886d 353d d9b0 f4bc
000000c0: b480 95bd ea1a 653d 8dd7 cbbb e1d2 84bd
000000d0: 762a 313d 1d49 83bd 49f1 a9bd 40f4 08bd
000000e0: d164 90bd 74db 373d 175f 49bd 8ff3 0bbc
000000f0: ff57 793d 9688 06bd dcfd 363d a921 acbd
00000100: 4239 b9bb 0976 80bd e1af 8a3d a086 b73d
00000110: 70aa 23bd 41f1 14bb 3ef8 e33c 196b 833d
00000120: b914 053d c400 6abd c847 d3bd f25d 20bd
00000130: 9658 a1bd 161e 98bd 0648 49bc 231f aebd
00000140: d422 41bc fdec 3cbd d2ac 84bc 838b 8c3b
00000150: 4407 0a3c ca11 d3bd 79c0 30bd 5373 a8bc
00000160: ae4b c1bd da1a cbbd 2ac2 c2bd 28ab b8bd
00000170: ba35 c93a da4f afbd 1635 9dbd 28d9 243d
00000180: 21a9 c03c fc58 8b3d bc73 c93d 516b bcbc
00000190: 1f86 073d 0561 d83c 0d8b 8b3c eca1 8fbc
000001a0: c285 3c3d bbc0 58bc ce80 133d 8d57 3b3d
000001b0: 36d3 46bd be51 9b3d a9b2 8e3d 74cb d5bd
000001c0: 9726 67bd 3249 5dbc 6cd3 a03d e7b0 80bd
000001d0: 88ce 81bd bf14 0c3d 325a 10bc b21d 2a3d
000001e0: cbb5 a4bd 5596 95bc be71 38bc 1da5 fbbc
000001f0: 66cc b9bd 7679 93bd 43d4 593d 2494 cbbd
00000200: e1ee febc 61a1 0b3d 3f86 3fbd 0aa5 8cbc
00000210: c5f7 973c f49b 013d 4f2f 52bd a76d 28bd
00000220: caa7 b3bb de71 9fbd b4f8 e8bc c432 9a3d
00000230: 2aeb 2cbd b5e5 663d e900 0fbc f5f5 ce3d
00000240: e967 593d db14 b03d 5c2a d23d 7bfd 2b3d
00000250: 86d6 7d3d aea0 c83d b7ba 4ebd 86f1 aebd
00000260: 0628 6fbd 39f0 a13d df3d 97bc 45be b6bd
00000270: beec eebc b00b d63c 62d4 24bd 41aa 593d
00000280: 3d6e 963d c5c1 b43d 7cc7 f8bd fe34 053d
00000290: 60fc d7bd 502b dabd a328 903a e996 2d3c
000002a0: 06de 02be 2da0 02bd 3212 043d c61c 7e3c
000002b0: 24e0 c63d 8059 643d c05f fbbd dc29 81bd
000002c0: a90f b63d a3e6 5cbd ddee 70bd 10f9 28bd
000002d0: 15c6 823d fe12 d7bc ab8f ddbc 563f 0cbd
000002e0: 9f75 883b 78ad 073d dddf 2dbd dc5a 3ebb
000002f0: 6068 31bd 41a0 533d 891e 103d fbd6 9b3d
00000300: 3c68 233c a846 ba3c ff41 eb3c 52c6 ee3d
00000310: b1b2 96bd 950c 93bd 07f7 6d3d 3c3f b3bd
00000320: 150e a03c 6a9e b8bd c29a 813b 6c6e e1bd
00000330: c79a 093d 9fae 46bc 708e c9bc 8758 afbd
00000340: 003b f93c 3235 db3d be71 b7bc abd1 f0ba
00000350: 8f5e a8bc 0d86 65bd 8429 acbd 2e97 80bd
00000360: 476f 8d3d 3fa8 c03c 3caf 9abd f9cf cd3c
00000370: cfbf 29bc 4c13 6cbd c7fa c2bd 7ef2 873d
00000380: a689 90bd 518c a1bb 3fee 933d 26e1 29bd
00000390: 82fa 5f3d e555 143a a7df e93c 35fc f1bc
000003a0: e662 593b f320 d73d 9c5d 983d 0620 bc3d
000003b0: a06c 183d 6341 c5bb 039b 5dbd 87fd df3c
000003c0: ee4c c53c d8ca 0bbd c7f3 8c3d 7dab f5bc
000003d0: 76fb 93bb c757 973d 03db a83d e118 87bd
000003e0: e54f 263c 588a 893d 57d0 063d 862f ae3d
000003f0: bdb4 e93c a4f6 273d 40a2 b8bd 7740 3cbd
0.03864415 0.11952371 0.060788654 -0.0700017 -0.037563443 -0.07705719 -0.08942865 0.06493442
-0.025421498 -0.0340665 -0.07773833 0.01785786 -0.070186 0.06693232 0.06232868 0.08709764
0.021518169 0.07463248 -0.07137075 -0.09567694 0.024886169 -0.03698027 0.015217825 0.040004488
-0.07734995 0.026424928 -0.01655433 -0.09283357 0.06945305 0.1284131 -0.0011160183 -0.0014483173
-0.03901589 0.0008086812 -0.019079406 -0.007892276 -0.081281245 -0.10474873 -0.04179706 -0.053492103
-0.1028147 -0.07879597 -0.020632435 -0.0084054405 0.010391488 0.055526935 0.04429391 -0.029869484
-0.07299939 0.05593387 -0.006220764 -0.064855345 0.043253385 -0.064104296 -0.082979746 -0.03343606
-0.07050479 0.04488702 -0.04916295 -0.008541956 0.060874935 -0.032845102 0.044675693 -0.08404858
-0.0056525776 -0.062725134 0.067718275 0.089612246 -0.039957464 -0.0022726806 0.027828332 0.06416912
0.032490466 -0.057129636 -0.103164256 -0.039152093 -0.078782246 -0.074276134 -0.012285238 -0.085020326
-0.011788089 -0.046124447 -0.016195688 0.004289092 0.008424584 -0.10306127 -0.043152306 -0.020562803
-0.09438263 -0.09917231 -0.0950969 -0.090170205 0.0015351095 -0.08560152 -0.07676141 0.04024616
0.023518147 0.06804082 0.09836528 -0.023000391 0.033086892 0.02641345 0.017034078 -0.017533265
0.046026 -0.013229544 0.03601151 0.04573779 -0.04854127 0.075839505 0.069676705 -0.10439196
-0.056433287 -0.013506221 0.078528255 -0.062837414 -0.06338221 0.034199473 -0.008810567 0.041532226
-0.08042487 -0.01826016 -0.011257587 -0.03071838 -0.09072189 -0.07200901 0.053180944 -0.09940365
-0.031119766 0.03408945 -0.046758886 -0.01716854 0.018550763 0.03164287 -0.05131465 -0.041120198
-0.0054826485 -0.0778539 -0.028438903 0.07529214 -0.042216457 0.05637141 -0.008728244 0.10105506
0.053077612 0.08597728 0.10261986 0.041989785 0.061972164 0.09796272 -0.050471034 -0.08542161
-0.05838778 0.07907147 -0.01846212 -0.0892301 -0.029165622 0.02612862 -0.040241607 0.053140882
0.07345245 0.08826021 -0.121474236 0.03252124 -0.105461836 -0.106527925 0.0010998439 0.010595062
-0.12780008 -0.031891037 0.032243915 0.01550979 0.0971072 0.055749416 -0.12274122 -0.06306812
0.08889706 -0.05393089 -0.058821548 -0.04125315 0.063854374 -0.026254173 -0.027046045 -0.03424009
0.004164412 0.033124417 -0.04244982 -0.0029045856 -0.04331243 0.051666502 0.03518537 0.07609364
0.009973582 0.02273877 0.028717993 0.1165892 -0.073583014 -0.07180134 0.05809691 -0.087522954
0.019537965 -0.0901459 0.003955216 -0.110073894 0.033594873 -0.012126594 -0.024604052 -0.08561807
0.030423641 0.107035056 -0.022393104 -0.0018373033 -0.020552902 -0.056036044 -0.08406356 -0.06278835
0.0690599 0.023517726 -0.075529546 0.025123583 -0.010360672 -0.05763559 -0.09520488 0.066380486
-0.07057504 -0.004930057 0.07223176 -0.041474484 0.054682262 0.0005658551 0.028549029 -0.029539207
0.003317052 0.105043314 0.074397296 0.091857955 0.037212968 -0.0060197576 -0.05410291 0.027342571
0.024084534 -0.034128994 0.06882434 -0.029988999 -0.0045160605 0.07389789 0.08244898 -0.06596542
0.010150884 0.0671584 0.032913532 0.08505158 0.028528566 0.0410067 -0.09015322 -0.045959916

encoder.4.bias f4 [128]
00000000: ae3a 123c 3fc1 8f3c 8eb7 933d 2306 b6bd
00000010: 5eb0 823d 4fc4 953b 1cc2 dcbb 3520 8bbd
00000020: 85dd 9dbc 2ed6 493d 002b b0bb 925e b03d
00000030: d571 9fbd ce94 253d 6515 51bd 91a4 60bd
00000040: 83a2 973d e225 9c3d 7109 773c 4c02 9abd
00000050: 5af2 81bd 5862 b73d ecdf 99bc 36b3 96bd
00000060: ed61 d8bb dff6 9a3d e1ad c23d 5032 8b3d
00000070: f798 be3c 40f1 a9bd 57d0 90bd 93ee 8c3c
00000080: f96a 073c 12ba bb3d 3eb2 4ebd 8cb3 67bd
00000090: 8b79 af3d 4f88 413d d9d6 0fbc 2b42 61bc
000000a0: 5835 b63d 6d13 8dbc 589f 723d fc58 b23d
000000b0: 0023 b63d 17d9 bbbd cde0 8cbd 0f46 efbc
000000c0: dcb9 84bd c18d e0bc 6084 aabd d7c7 4c3c
000000d0: 8a8a 65bd 7719 c7bc e644 253d c6a3 823d
000000e0: 8668 5a3d 4bb8 e23c f477 5f3c 6add 9d3c
000000f0: 0f10 51bd 2962 2abd 0f45 863d 5fdf d43c
00000100: a5ac 333d 6b2b c5bc 3d95 b9bd f4f0 fb3c
00000110: b8d1 40bd 9962 703d 090f 45bc f787 e8bb
00000120: 6f0d ed3c 7cfe 9b3d be57 6cbd cacb 8d3d
00000130: 628a 6d3d f1d1 03bd a5c0 463d 3f8f 08bc
00000140: 8df0 6c3c 415b 153d 4b1d 893d 532c 84bd
00000150: 3742 173c a0b9 acbd 8ef0 023d ccc8 2abd
00000160: 8cf9 85bd dce0 3ebd 5c01 c0bc 41a1 883c
00000170: e4c1 a5bd e567 813d 9ec6 6f3d 9c48 24bd
00000180: d1f2 283d 82d6 183d e44c 133c 6526 173d
00000190: 5816 19bd 33e4 65bd 917f 8fbd d2a7 b7ba
000001a0: 03c9 f8bc 2bf7 393d bb8f 993d b860 47bd
000001b0: ce9c 383d 7343 193d 4711 6abd 4cf7 443c
000001c0: 29b2 883d a12b b1bd a14d bd3d 77da 1ebd
000001d0: d5df 803d b334 8abd 1999 55bd 03eb 423c
000001e0: 6bb9 0e3d f69c 8fbd c4c7 423d 9e04 783d
000001f0: aa2b b6bc 4007 27bc a0ea 823d 84fb 873d
0.008925123 0.017548202 0.07212745 -0.08887889 0.063812956 0.004570521 -0.006737007 -0.067932524
-0.019270668 0.049276523 -0.0053762197 0.08611788 -0.077853836 0.040425114 -0.051045794 -0.054844443
0.074040435 0.07624413 0.015077935 -0.07519969 -0.06345053 0.089543045 -0.018783532 -0.073584005
-0.0066034705 0.07566618 0.09505821 0.06796706 0.023266299 -0.08297968 -0.07070988 0.017203605
0.00826525 0.091663495 -0.050462954 -0.056567714 0.08568104 0.047249135 -0.008779251 -0.013748686
0.08896893 -0.017221177 0.059233993 0.08708379 0.088933945 -0.09172266 -0.06878815 -0.029208211
-0.06480762 -0.027411344 -0.0832603 0.012498817 -0.056040324 -0.024304135 0.04034891 0.063788936
0.053322338 0.027675768 0.013639439 0.019270618 -0.051040705 -0.04159752 0.06556141 0.025985418
0.04386582 -0.024068555 -0.09061668 0.030754544 -0.047075003 0.05868778 -0.01202751 -0.0070962864
0.02893707 0.076168984 -0.057700865 0.06923635 0.0579933 -0.032182638 0.048523564 -0.008334934
0.014461649 0.03646398 0.0669504 -0.06453767 0.009232095 -0.08433843 0.031967692 -0.0416954
-0.06541738 -0.04660116 -0.023438148 0.016678454 -0.08093622 0.063186444 0.058539025 -0.04010831
0.041247193 0.037313946 0.0089905 0.03690185 -0.037374824 -0.05612583 -0.07006753 -0.0014011806
-0.030369287 0.045401733 0.074981175 -0.048676223 0.045071416 0.03741784 -0.057145383 0.012021851
0.06674606 -0.086509 0.09243322 -0.038782563 0.062926926 -0.06748333 -0.05214796 0.0118968515
0.034844797 -0.0701236 0.047553793 0.06055128 -0.022237618 -0.0101946 0.063924074 0.0663977

decoder.0.weight f4 [128, 128]
00000000: b373 8b3d 2617 31bd 8761 24bd a30e 9c3d
00000010: c9a3 8e3d 0540 09bc fe1f e8bc 1fa0 7bbc
00000020: a6cf ccbd d906 883d f4e8 a9bd a9db bf3c
00000030: cd7c 8bbc a3aa a93d 6434 34ba 9833 113c
00000040: 78de fdbc 0a73 0e3d 7f6c 893c f47c f93c
00000050: 5c95 a0bc 9d00 fcbc 1f51 9abd 8480 283d
00000060: e968 4cbd 377c b8bd 43b2 783d c7b1 9d3d
00000070: b2ad 1d3d 90c9 61bb 0915 92bd f6ee da3b
00000080: b026 e63a 7a18 1b3d a0a8 f1bc 4961 5cbd
00000090: 48f0 46bc 13d5 213d 59ef a73b 5a03 e73c
000000a0: 1bb4 81bd d9a8 963d 7ed6 c13d 74a5 c43c
000000b0: 2b84 abbd 20ad 8e3d 1419 423d 381d 86bd
000000c0: 6471 333c 58aa af3c 58f0 b9bd 21ba 3fbb
000000d0: 919d 16bd 53ca 283d 9c1b c6bd 9e60 afbd
000000e0: 370f a93d da37 7f3d 8623 0f3d e67e 713d
000000f0: 80a9 50bd ad7b 693d 6b6f e83d cb2c 993d
00000100: e7be 12bd b187 1c3d 3b68 aabd ff41 843c
00000110: 917b 823d 8a26 473d 85ba 8b3d 3e13 9f3c
00000120: 7f38 ce3c 5313 773b fd26 8abd b463 a03b
00000130: ff3d 14bd 4b0f da3c b510 2dbd cc6e 7fbc
00000140: 9238 29bd 263f 853d 06fc c3bd 0748 a1ba
00000150: 2b75 c93c a066 a3bc bb35 8b3c d90f 153d
00000160: dd48 81bd 39b3 b43d f8a3 80bd 212b 783d
00000170: ecd5 7bbd 1ed4 6bbd 8ee6 3a3d a7a3 6f3d
00000180: e97b c83c 49d4 a5bb 8b6e 493d 8b86 0cbc
00000190: 2495 d1bc dad9 6cbd 0e0a 35bc 9d6b 5dbc
000001a0: ed6e 983c 6aa7 a5bd 62d9 a1bd 8c3d b3bc
000001b0: 49c2 95bc cd6f df3b d9a8 273d be43 c5bd
000001c0: 910e 95bc 13da 55bc d69f 6e3c 3978 3b3c
000001d0: 02fc cdbc cfeb bdbc ac4c 0dbd 458f 8d3c
000001e0: 758c 593c d60c 6a3d 9932 d0bc 1a5e 65bd
000001f0: 91d7 c23d c01a 933d ab03 3e3d ac0a 473d
00000200: 508f 00bd b69e 4c3d 3c7a b1bc d00b 7ebd
00000210: 498f 40bd 52b1 1b3d 3e57 65bd 47a4 b13d
00000220: 0a46 a4bd b6cc 773d ac23 843c 4ec6 6c3d
00000230: 834f aa3d 80e1 4ebc c99a 68bd 5e7d 513d
00000240: 07cf 8abd 8e43 3f3d b3e9 80bd fed0 e4bc
00000250: 499a a03d 5070 b9bb 40ca f8bb 0756 67bd
00000260: e081 bbbc ccc8 a0bc 347f 0fbd 0071 3bbb
00000270: 70ca a3bd 7a95 683d bc5e c13c f447 93bc
00000280: e0f3 8ebc d3cc 8b3d abc8 893d 60ab 003b
00000290: b0af 8c3c 0a07 11bd 5474 85bd f6ae 143d
000002a0: 90b3 7ebc 2819 b03c 6636 4a3d 548f b73c
000002b0: d096 93bc 01df 0dbd 6838 7fbc efb5 1abd
000002c0: 2099 e4bb a67d 343d e2f5 553d db31 833d
000002d0: 2cd3 a73c 4bd0 49bd 30d9 abbd 1b78 07bd
000002e0: 9e20 91bd c1d0 9f3d e79e 8c3d 25df a6bd
000002f0: ea18 093d f4f4 6ebd 4891 a03c 8886 73bd
00000300: 54cd c13c e5be 87bd 9086 c8bb 3ace 503d
00000310: 004c b93c ae48 743d 742d 90bc 8fbb 813d
00000320: c8d9 63bc 8a21 783d cc2b 073d 204d 99bc
00000330: b817 4a3c 004e 22bb b263 5ebd 016e 973d
00000340: 78ed d93c 0679 f8bc 104a e9bc 988f 6cbc
00000350: c02a aabd f5c1 973d 8edf 543d cae6 433d
00000360: fcc9 0c3d 16b6 38bd fadf 443d b49b abbc
00000370: 04c7 80bc 3681 6d3d 3eb2 283d dc46 fa3c
00000380: 9b27 97bd 789c fdbc c009 6e3b 5bef 833d
00000390: 9caf f63c 0cd2 e0bc 1ad0 5f3d caf6 7a3d
000003a0: 2ae8 683d ab19 a23d 008a 2bbb 60c4 6f3b
000003b0: 2062 20bc 14ab 98bc 2640 7d3d f8d3 93bd
000003c0: 72fb 9dbd 1888 363c b139 2bbd 7ec1 fabc
000003d0: eb48 0bbd 2066 2b3c b68b 7d3d 1f8f a93d
000003e0: c821 b7bc 9bc5 ad3d f9f5 9b3d be4f 27bd
000003f0: 9091 09bd a017 873b 9d15 863d b031 f63b
0.06809177 -0.043234967 -0.04013207 0.07619979 0.06964833 -0.00837708 -0.028335568 -0.015358
-0.10000543 0.06641931 -0.082963854 0.023420172 -0.017027283 0.082844995 -0.0006874262 0.008862399
-0.03098987 0.03477768 0.016775368 0.03045509 -0.01960247 -0.030762011 -0.07535004 0.041138187
-0.049904738 -0.09008067 0.06071688 0.07699924 0.038495727 -0.0034452416 -0.071329184 0.0066813184
0.0017559137 0.03786514 -0.029499352 -0.053803716 -0.012142248 0.039509844 0.005124968 0.02819984
-0.063331805 0.07356424 0.09464739 0.024004675 -0.083748184 0.06966615 0.047387198 -0.06548542
0.010952327 0.02144353 -0.09079045 -0.0029255229 -0.03677136 0.041208576 -0.09673235 -0.0856335
0.08254855 0.062309124 0.034945987 0.05895891 -0.050942898 0.057002712 0.11349376 0.07479247
-0.03582659 0.038215343 -0.08320662 0.01614475 0.06371225 0.048620738 0.06822685 0.019418355
0.025173424 0.0037700727 -0.06745718 0.004894698 -0.036191937 0.02661862 -0.04225226 -0.015590381
-0.041313715 0.06506185 -0.09569554 -0.0012304791 0.024592003 -0.019946396 0.016993394 0.036392067
-0.06312726 0.088232465 -0.062812746 0.060588006 -0.06148331 -0.057575338 0.04563003 0.05850568
0.024473147 -0.0050607068 0.049177688 -0.008576999 -0.025583811 -0.057824947 -0.0110497605 -0.013514427
0.018607581 -0.08088572 -0.079027906 -0.021879934 -0.018281119 0.0068187476 0.04093251 -0.096320614
-0.018195422 -0.013052481 0.014564475 0.0114422375 -0.02514458 -0.023183731 -0.034496948 0.01728023
0.0132781165 0.057141148 -0.025414752 -0.055997945 0.09513772 0.071828365 0.046390217 0.048594162
-0.031386673 0.049956046 -0.021664731 -0.062022984 -0.047011647 0.038010903 -0.055991404 0.086739115
-0.080211714 0.060497962 0.01613029 0.057806306 0.08315947 -0.012627006 -0.05678824 0.05114495
-0.067777686 0.046695285 -0.062945746 -0.027931686 0.078419276 -0.0056591406 -0.0075924695 -0.056478526
-0.022889078 -0.019626997 -0.03503342 -0.0028601289 -0.07997596 0.056783177 0.023604743 -0.017978646
-0.017450273 0.068261765 0.067277275 0.0019633397 0.017173618 -0.035407104 -0.065163285 0.03629967
-0.015545741 0.02149637 0.049368285 0.022407211 -0.018016249 -0.0346365 -0.015577413 -0.03777116
-0.0069762617 0.04406514 0.052236445 0.064059936 0.020486437 -0.04927091 -0.083910346 -0.033073526
-0.07086299 0.078034885 0.06866246 -0.0814803 0.033471026 -0.058339074 0.019600525 -0.05945447
0.023657478 -0.06628207 -0.0061195567 0.050977923 0.022619247 0.059639625 -0.017599799 0.06334602
-0.013906904 0.06057886 0.033000752 -0.018713534 0.012334757 -0.002476573 -0.054294296 0.073940285
0.026602492 -0.030331146 -0.028477699 -0.014438532 -0.08308935 0.07410041 0.05197101 0.04782752
0.034372315 -0.045095526 0.048065163 -0.020948268 -0.015719898 0.057984553 0.04118561 0.030551367
-0.07380601 -0.0309584 0.003632173 0.06442138 0.030113034 -0.027443908 0.05464182 0.061270513
0.056862034 0.07915052 -0.0026174784 0.0036585554 -0.00978902 -0.018636264 0.061828755 -0.07218164
-0.07713975 0.011140846 -0.041803066 -0.030609842 -0.034005087 0.01046136 0.061900817 0.08279251
-0.022354975 0.08484956 0.07615275 -0.040847532 -0.033586085 0.0041226894 0.06547091 0.0075132474

decoder.0.bias f4 [128]
00000000: 26c2 963d 2ad2 673d 4842 5f3d 56da 9c3d
00000010: 69d2 a0bd c926 453d d478 a53d 3450 813c
00000020: c99f 58bd 29e8 443d c3d4 923d 364a 21bc
00000030: b305 8cbd 0056 46bb 1edd 5c3d 262d 89bd
00000040: 898e a1bd 2936 b53d 6992 60bd 1f20 62bd
00000050: 6d89 28bc c888 1abc 9c8a 8dbc f5bc 92bd
00000060: 58aa 233d 285a a1bd 8993 9cbd c153 abbd
00000070: 293d c93d 4073 793d 56f7 cdbc 85d3 9fbd
00000080: 8baa 203d 336b ecbc 0c60 8abd d375 283d
00000090: a5f3 d7bc 67cc 89bd a401 5dbd 8ed8 013d
000000a0: 1257 cc3d 94ee 55bc 33cf 2ebd e263 da3a
000000b0: 5f7c 213d 3b2e 9a3d 9844 49bd 3413 3b3c
000000c0: eb14 853c 1933 a53d c51e 853d 5c69 9f3d
000000d0: 9e6d 8b3d 3718 733d adae 0db7 1970 46bc
000000e0: fae3 053d 4021 69bc b0c0 c1bc 8079 00bd
000000f0: e86d b83d a637 3d3d b8dc be3d 50eb 8cbd
00000100: d807 adbc 29b5 8c3d 6939 dabc ab5a b4bb
00000110: 04ef 2b3d 7c7a 5abd cd6d c0bd 82c8 603d
00000120: dcec bfbc d2b8 8b3d ef5b 00bc b391 833d
00000130: 8a54 8dbd 832d 54bd ce9f 9e3c 0e1e 11bd
00000140: b4a9 8a3c 04e0 e2bb dd64 9d3d cfe0 ebbc
00000150: 382f 1f3d 062b 5dbd af36 823d 0db7 4b3c
00000160: 54fe 61bd 1c39 5c3d 2265 253d aa3d 81bd
00000170: 0f3d 393d ba42 e7bc 1d30 87bd 1872 02bc
00000180: 8f4b 33bd 669e 043d 5b22 06bd 5aac 8cbd
00000190: 9ca0 f3bc 324c 34bd 66a3 b13d 8ced 153d
000001a0: 339c 4c3d 0e9e a0bd 64e7 39bc 779b ba3d
000001b0: da0a 9a3d 572b da3c 807c 2e3b 3942 503d
000001c0: d9a3 81bd 394e 37bd 8eaf 963c 0d13 ac3d
000001d0: 9e5c e4bc 8949 39bb 4211 833d 2b53 98bd
000001e0: 305f 21bd 91b8 283d 265c 3abd 6634 a0b9
000001f0: a670 463b ef04 323d 724a 523c 5c3f 5fbc
0.073612496 0.056596912 0.05450657 0.07658832 -0.078526326 0.04813269 0.08079687 0.015785314
-0.052886758 0.048072968 0.07169487 -0.009844353 -0.068370245 -0.0030263662 0.05392181 -0.066980645
-0.078885145 0.08848221 -0.054827128 -0.055206414 -0.010286671 -0.009432025 -0.017278008 -0.07164947
0.039957374 -0.07878524 -0.076453276 -0.08365584 0.098261185 0.060900927 -0.025142353 -0.07804016
0.039225142 -0.02885971 -0.06756601 0.04112799 -0.026361296 -0.0672844 -0.053956643 0.031700663
0.09977545 -0.01305737 -0.04267807 0.0016661847 0.03942525 0.07528349 -0.04913768 0.011418153
0.016245326 0.08066387 0.065000094 0.077837676 0.06808017 0.059349265 -8.444925e-06 -0.012111687
0.03268812 -0.014229119 -0.02365145 -0.03136587 0.09005338 0.04619565 0.093194425 -0.0688082
-0.021121904 0.06870491 -0.026638703 -0.0055039725 0.04197599 -0.053339466 -0.09395943 0.05487872
-0.023428373 0.06822361 -0.007834419 0.06424274 -0.0690089 -0.051801216 0.01936331 -0.035429053
0.016926624 -0.0069236774 0.07685254 -0.02879372 0.03886339 -0.05399611 0.06358086 0.012433779
-0.055174187 0.0537654 0.04037965 -0.063105896 0.045224246 -0.02823006 -0.06600974 -0.007961772
-0.04377323 0.032377623 -0.032747608 -0.06868811 -0.02973967 -0.044017978 0.08673744 0.036603495
0.04995365 -0.078426465 -0.011346672 0.09111684 0.07521601 0.026631994 0.00266245 0.050844405
-0.063300796 -0.044752333 0.018394258 0.08402071 -0.027876195 -0.002827259 0.06399776 -0.07437738
-0.03939742 0.04119164 -0.045498036 -0.00030556618 0.0030279546 0.043461736 0.012835132 -0.013625946
