set_transformer/classification_model/deepset.pth (torch, 289333 bytes, 11 tensors)

embedding.weight f4 [198, 64]
0	0xbca8de8e	-0.020613935
1	0xbf00a7b6	-0.50255907
2	0x3d0e74b1	0.034779254
3	0x3f7fe9ff	0.99966425
4	0xbfb8b56a	-1.4430363
5	0x3e5b150c	0.21394747
6	0x3f307ef6	0.68943727
7	0x3db5c3b5	0.08875219
8	0xbf06b5af	-0.5262098
9	0xbff928a9	-1.9465533
10	0x3f24b967	0.643454
11	0xbedb8745	-0.4287664
12	0xbf72178a	-0.9456717
13	0xbf9c7f64	-1.2226377
14	0xbf9434f4	-1.157866
15	0xbf4a6450	-0.79059315
16	0x3e24a103	0.16077046
17	0x3e48f4d1	0.1962464
18	0xbeee12b1	-0.46498635
19	0x402eb987	2.7300737
20	0xbe92286d	-0.28546467
21	0xbecdb578	-0.40177512
22	0xbf10c3c4	-0.56548715
23	0xbe723fed	-0.23657198
24	0xbf57cd0e	-0.84297264
25	0x3db45add	0.08806393
26	0xbf45f325	-0.77324134
27	0xbfa532b1	-1.2906095
28	0x3e8a9c85	0.2707254
29	0xbf99eb16	-1.2024868
30	0xbf6c0a17	-0.92202896
31	0xbff0c8b8	-1.8811255
32	0xbf6b0730	-0.9180784
33	0xc00d916d	-2.212001
34	0x3f919336	1.137305
35	0xbe73d4f0	-0.23811698
36	0x3e719ef1	0.23595788
37	0x3ef39f4e	0.47582477
38	0xbe26ebf1	-0.16300942
39	0x3f9d3237	1.2280949
40	0xbef24761	-0.47320083
41	0x3e969e2e	0.29417557
42	0xbfe0782a	-1.7536671
43	0x3fb65c20	1.4246864
44	0xbfec8f18	-1.8481169
45	0x3f81d264	1.0142331
46	0xbf00a8dc	-0.5025766
47	0xbf7b9e82	-0.9828874
48	0xbede8524	-0.43460953
49	0xbe945a29	-0.28975037
50	0x3ec996bc	0.39372814
51	0x3f64ca85	0.8937152
52	0xbe7bde2c	-0.2459647
53	0xbfa31398	-1.2740355
54	0xbf4d5bd3	-0.8021824
55	0xbe7e02f8	-0.2480582
56	0x3fcb85c8	1.5900202
57	0x3f0eee54	0.5583241
58	0xbec34f04	-0.38146222
59	0xbf9fdcac	-1.2489219
60	0x3f2e4fb1	0.6809035
61	0xbf00d0b5	-0.5031846
62	0xbd3431d2	-0.043992825
63	0x3fa21d48	1.2665186
64	0xbdcb746e	-0.099343166
65	0xbe8cb43f	-0.27481267
66	0x3fb176cd	1.386438
67	0xbfc6ac37	-1.5521306
68	0x3f9720aa	1.1806843
69	0xbfe1ce83	-1.7641147
70	0x3eeab381	0.45840076
71	0x3f37440f	0.71588224
72	0xbed4960e	-0.41520733
73	0xbe84c61a	-0.2593239
74	0x400f72c0	2.2413788
75	0x3fd18347	1.6368188
76	0xbeefe83b	-0.46856865
77	0xc01a9a09	-2.4156516
78	0x3ddc9322	0.10770251
79	0xbf87b849	-1.0603114
80	0x3fa2547a	1.268203
81	0x3eab56ec	0.33464754
82	0xbf77b55b	-0.967611
83	0x3f9c17bc	1.2194743
84	0x3ebb2160	0.365489
85	0xbd888e5a	-0.066677764
86	0xbefb4d77	-0.49082538
87	0x3c250c0a	0.010073671
88	0x3f3f23f6	0.7466425
89	0x3e221253	0.15827303
90	0xc00d4cdd	-2.2078164
91	0xbf5005a2	-0.81258595
92	0xbeb3cddd	-0.35118
93	0x3f4b87a0	0.7950382
94	0xbf0f12c2	-0.55888
95	0xbfe76404	-1.8077397
96	0x3d8daa29	0.06917221
97	0xbce7f405	-0.0283146
98	0xbf7d8835	-0.9903596
99	0xbf0f1b1d	-0.55900747
100	0xbe02977e	-0.12753102
101	0x3f1e4ea0	0.6183872
102	0x3ebda0ab	0.37036642
103	0xbf870253	-1.0547584
104	0xbfc5b27b	-1.5445093
105	0x3dc86195	0.09784237
106	0xbffb56e5	-1.9635893
107	0x3f9d8561	1.2306329
108	0xbfd4ba0f	-1.661928
109	0x3ff5f200	1.9214478
110	0x3eeeee25	0.46666065
111	0x3f73f972	0.953025
112	0x3eb3c5bd	0.351118
113	0x3fe8a9b0	1.8176785
114	0xbedb27ee	-0.428039
115	0xbfa54527	-1.2911729
116	0x3f097da6	0.5370735
117	0xbf35f217	-0.71072525
118	0x3fc92a34	1.5716004
119	0x3fdb9db9	1.7157508
120	0xc004ee3a	-2.0770402
121	0x3fb0cd27	1.3812608
122	0x3fa231c9	1.2671443
123	0xbfcd55d0	-1.6041813
124	0x3e83eadc	0.2576512
125	0x3f6604a1	0.89850813
126	0x3e9dc7d3	0.30816516
127	0xbe3a5605	-0.18196876
128	0x3e73f667	0.23824464
129	0x3e060b1d	0.13090177
130	0x3f33ba88	0.702065
131	0xbfa8fee0	-1.3202782
132	0xbeffebda	-0.49984628
133	0x3ffb7ed9	1.9648086
134	0x3f26f8f9	0.6522365
135	0x3c09f790	0.00842084
136	0xbff2a992	-1.8957999
137	0xbfb7ed5b	-1.436931
138	0x401e0748	2.4691944
139	0x3f5ad15c	0.8547571
140	0xbe89b5d8	-0.26896548
141	0x3e07fa70	0.13279128
142	0xbf741405	-0.9534305
143	0xbd8db1a5	-0.06918649
144	0xbd0aa23b	-0.03384612
145	0x3ef4194b	0.47675547
146	0xbf2d4e25	-0.67697364
147	0x3f6fbd90	0.93648624
148	0x3dd413af	0.10355317
149	0xbe73efb4	-0.23821908
150	0x3ed777f9	0.4208372
151	0x4003a870	2.0571556
152	0xbf260199	-0.6484619
153	0x3f983075	1.1889788
154	0x3ed3c3f5	0.4136044
155	0x3f4337fb	0.76257294
156	0x3f9442a8	1.1582842
157	0xbe4d310d	-0.20038243
158	0xbfaf27cf	-1.3684024
159	0x3ec541e7	0.38526842
160	0x3f6c17e4	0.92223954
161	0x3f748237	0.9551119
162	0x3f22ec2d	0.63641626
163	0xbe87b070	-0.265018
164	0x3f925043	1.1430744
165	0xbf9a7e1c	-1.2069736
166	0xbf11db26	-0.5697502
167	0x3d90766b	0.070538364
168	0xbec8d88c	-0.39227712
169	0xbfb77f05	-1.4335638
170	0x40027f91	2.039036
171	0x3edf58b9	0.43622378
172	0x3d6257f5	0.055259664
173	0x3fa61112	1.297396
174	0x3dfd9522	0.123819605
175	0x3ea75f71	0.32690004
176	0x3fa8ec72	1.3197157
177	0xbfc5a88a	-1.5442059
178	0x3ec342d5	0.38136926
179	0xbf253d19	-0.6454635
180	0x3fac2faa	1.3452046
181	0x3e9e8669	0.30961922
182	0x3d5b8e3f	0.053602453
183	0x3f5e432f	0.86821264
184	0x3e7df0a5	0.2479883
185	0xbe777c4b	-0.24168508
186	0xbf0da75a	-0.55333483
187	0x3f580f67	0.843985
188	0x3ec20b43	0.37899217
189	0x3f95b0df	1.1694602
190	0xbf431beb	-0.76214474
191	0x3e0a553d	0.13509078
192	0xbeae4884	-0.340397
193	0xbf29c9a0	-0.6632328
194	0x3ed686c3	0.4189969
195	0x3f14355a	0.5789391
196	0xbc99a06f	-0.018753259
197	0x3e364584	0.17799956
198	0x3f30866c	0.6895511
199	0x3fcf7ca5	1.6209913
200	0x3ec803f7	0.39065525
201	0x3e3a3ba4	0.18186814
202	0xbf224575	-0.63387233
203	0x3fb0c0c7	1.3808831
204	0x40114403	2.269776
205	0x3d927a37	0.07152217
206	0xbe63f9a6	-0.22263202
207	0x3f405321	0.75126845
208	0x3bd8cb84	0.006616058
209	0xbfa4e51f	-1.2882422
210	0xbeba9f07	-0.36449453
211	0x3fa75229	1.3071948
212	0x3f176f65	0.5915435
213	0xbfdc56d0	-1.7213993
214	0x3f85be2c	1.0448661
215	0x3f3b304a	0.7312056
216	0x3f5a7dd7	0.85348266
217	0xbee48fff	-0.4464111
218	0xbde8de18	-0.11370486
219	0xbff79a9a	-1.9344056
220	0x3f9b9023	1.2153362
221	0x3f7bb850	0.98328114
222	0xbfa60611	-1.2970601
223	0xbe90b840	-0.28265572
224	0xbf9780ae	-1.1836145
225	0xbf00ff75	-0.50389796
226	0xc01beffe	-2.436523
227	0xbff839d8	-1.9392653
228	0xbdad9b45	-0.08476881
229	0x3f68d7f3	0.9095451
230	0xbf9aeb89	-1.210313
231	0xbeba92d2	-0.3644014
232	0xbebedff9	-0.37280253
233	0x3e09f944	0.13473994
234	0xbf556cfe	-0.83369434
235	0xbfde71ae	-1.7378442
236	0x3f3687d8	0.7130103
237	0xbec87c46	-0.39157313
238	0x3f0c3339	0.5476566
239	0x3fae51b6	1.3618686
240	0xc0006bdb	-2.006583
241	0xbf02499d	-0.50893575
242	0x3ff06027	1.8779343
243	0x3ef42604	0.47685254
244	0x3e64b65f	0.22335194
245	0x3db6c1cf	0.08923685
246	0x3f3dd317	0.7415022
247	0xbe23a65e	-0.15981433
248	0x3e53aaa7	0.20670567
249	0xbe767bc5	-0.24070652
250	0xbfbc9c72	-1.4735243
251	0x3f6f5aa4	0.9349768
252	0x3f6b2927	0.9185967
253	0x3f92fd7d	1.1483608
254	0x3ec86083	0.39136133
255	0x3ff5617a	1.9170372

encoder.0.weight f4 [128, 64]
0	0xbcc32b44	-0.023824342
1	0xbdade6c5	-0.084912814
2	0x3cf7236a	0.030168254
3	0xbd452094	-0.048126772
4	0xbcd4fcaa	-0.025999386
5	0xbc252624	-0.010079894
6	0xbd8881b0	-0.06665361
7	0xbd3d23d8	-0.04617676
8	0x3da9b8bf	0.08287191
9	0x3d6b0c98	0.057385057
10	0xbd6228ef	-0.05521482
11	0x3e2586cb	0.161647
12	0xbdf50959	-0.119646735
13	0x3d04e315	0.032443125
14	0xbb19116e	-0.0023356336
15	0x3db5fc6a	0.08886035
16	0x3d66f6a7	0.05638757
17	0x3d2fd6c5	0.04292943
18	0x3cccbe2b	0.024993023
19	0xbdb92276	-0.09039776
20	0x3dbc760f	0.092022054
21	0xbd82191c	-0.063524455
22	0xbdd2ac94	-0.10286823
23	0x3df5d6b5	0.12003843
24	0xbcf9b522	-0.030481879
25	0x3cd1b1a4	0.025597401
26	0xbc7cb6d8	-0.015424453
27	0xbd2de08c	-0.042450473
28	0x3d04d78c	0.032432124
29	0xbe0d8634	-0.13820726
30	0x3d94f013	0.07272353
31	0xbd9e643d	-0.07733963
32	0xbde38008	-0.111084044
33	0xbe1997db	-0.14999335
34	0xbbf60181	-0.0075075035
35	0x3dc2bfb8	0.09509224
36	0xbe0947c0	-0.13406277
37	0xbe0ff996	-0.14060053
38	0x3d58caea	0.05292789
39	0xbd33fa9d	-0.043940175
40	0xbd97af3b	-0.074064694
41	0xbe1d6e34	-0.1537407
42	0xbd8a17ab	-0.067427956
43	0x3e010c74	0.12602407
44	0x3c76ba94	0.015059132
45	0x3c0b45fd	0.008500573
46	0x3d8b5acc	0.068044275
47	0x3c7c1687	0.01538623
48	0x3e216f99	0.15765227
49	0x3d4361d2	0.04770071
50	0xbc2a5aad	-0.010397595
51	0xbc55fb4f	-0.013060405
52	0x3dbdc235	0.09265558
53	0xbc23e52f	-0.010003372
54	0x3e1f84f9	0.15578069
55	0xbddc2e56	-0.107510254
56	0x3d037313	0.032092165
57	0xbdd8c3d1	-0.10584224
58	0x3c692b79	0.014231556
59	0x3c2fd057	0.010730824
60	0xbd85dad4	-0.06535879
61	0xbdede514	-0.11615959
62	0x3ddb8db7	0.10720389
63	0xbda7da38	-0.08195919
64	0x3e1afb41	0.15134908
65	0xbe17c841	-0.14822485
66	0xbca67b6b	-0.020322522
67	0x3d63305c	0.05546604
68	0x3dd00a66	0.10158233
69	0xbdd60f23	-0.10452106
70	0x3df35969	0.11882288
71	0x3de2794c	0.11058292
72	0xbcb08f45	-0.021552691
73	0xbc7bc9a3	-0.015367898
74	0x3e002ce9	0.12517132
75	0x3d133a26	0.035944127
76	0x3db4b0e4	0.08822802
77	0x3d422568	0.047398955
78	0x3e0d1397	0.13777004
79	0x3cd10b86	0.02551819
80	0x3dd45268	0.1036728
81	0xbdc9cd47	-0.09853607
82	0x3c13f70b	0.009031068
83	0xbe21f047	-0.15814315
84	0xbcc86fed	-0.024467433
85	0xbd04338e	-0.03227573
86	0xbd6c9b88	-0.057765514
87	0x3db4e266	0.088322446
88	0x3dfba35b	0.12287017
89	0xbd37fc0e	-0.044918112
90	0x3df66fb6	0.12033026
91	0xbd146b2d	-0.036235023
92	0xbdda1dbf	-0.10650205
93	0xbd8b6664	-0.06806639
94	0xbcc5e96c	-0.024159156
95	0xbd887e04	-0.066646606
96	0xbcca7fdc	-0.024719171
97	0x3e259173	0.16168766
98	0xbd8d0a92	-0.06886782
99	0x3e2e38f3	0.17013912
100	0x3dc8fea4	0.09814194
101	0xbd1bc82a	-0.03803269
102	0x3d3853f6	0.045001946
103	0x3d9e25ee	0.07722078
104	0x3de72a97	0.1128742
105	0x3df164a6	0.11786775
106	0xbd9e62c6	-0.07733683
107	0x3de31566	0.11088066
108	0x3d92e644	0.07172826
109	0x3da02393	0.07819285
110	0xbda6933e	-0.08133553
111	0x3e038536	0.12843785
112	0xbd93eaf2	-0.07222547
113	0x3d96c46c	0.07361683
114	0x3d2131d3	0.039354157
115	0x3e231807	0.15927134
116	0xbd9424b4	-0.07233563
117	0x3e0ee47e	0.1395435
118	0x3d432b4a	0.047648706
119	0x3d82cf28	0.06387168
120	0x3ceb3b48	0.028714791
121	0x3df0520d	0.117344
122	0x3d891325	0.06693105
123	0x3ddded47	0.10836273
124	0xbe045ee6	-0.12926826
125	0x3e166d42	0.14690116
126	0x3d4bca05	0.049753208
127	0x3d3f81a5	0.046754498
128	0x3d71301c	0.05888377
129	0x3e0d38bd	0.13791175
130	0xbd99f03d	-0.07516525
131	0x3dabf60c	0.08396539
132	0x3d360e52	0.04444725
133	0xbdb4559c	-0.08805391
134	0xbd1dafcf	-0.038497742
135	0xbdd908df	-0.10597395
136	0xbd63425b	-0.055483203
137	0x3d5118f1	0.051049177
138	0x3daf722e	0.085667
139	0x3cd8c84c	0.026462696
140	0xbd9ad56f	-0.075602405
141	0xbdcc1264	-0.09964445
142	0xbdf0b5fe	-0.11753462
143	0x3d7195a7	0.05898061
144	0x3dafcf7c	0.085844964
145	0xbc9cea20	-0.019154608
146	0x3dd1c9b8	0.10243553
147	0x3d8827d7	0.06648224
148	0xbb9f1856	-0.004855196
149	0x3e4e5342	0.20148948
150	0xbdfa05e8	-0.12208158
151	0x3c30449b	0.010758544
152	0x3dc2efd0	0.09518397
153	0x3d260ca9	0.040539417
154	0xbbd08c90	-0.0063644126
155	0x3d8aa5c1	0.06769896
156	0x3b9834a7	0.0046449485
157	0xbdd578db	-0.10423442
158	0xbcda511d	-0.026650006
159	0x3dff92dd	0.12479184
160	0xbd4cb0d8	-0.04997334
161	0xbdcd2096	-0.10015981
162	0x3c9ec7a9	0.019382315
163	0xbd8b75d6	-0.06809585
164	0x3d734d3c	0.05939983
165	0x3d58077d	0.052741516
166	0xbd746296	-0.05966433
167	0xbd85826a	-0.06519015
168	0xbdab5b8f	-0.08367073
169	0xbd44408d	-0.047913123
170	0xbcf8c654	-0.030368008
171	0xbb0ac8fe	-0.002117693
172	0x3d3fc014	0.04681404
173	0x3c288efc	0.010287996
174	0xbdc700af	-0.09716927
175	0x3ddb06d6	0.10694663
176	0x3df940e1	0.12170578
177	0x3dbccf2f	0.09219205
178	0xbddb27d2	-0.107009545
179	0xbda792f7	-0.08182328
180	0x3dff0796	0.12452619
181	0x3e137797	0.14401089
182	0x3db69e39	0.08916897
183	0xbd2192e7	-0.039446738
184	0x3d9904d9	0.07471628
185	0xbbd6a29f	-0.0065501477
186	0xbc4f18f1	-0.012640224
187	0xbd2ad964	-0.041711226
188	0x3d555705	0.05208494
189	0x3d771ce0	0.06033027
190	0x3dd88dd9	0.1057393
191	0xbc8356e3	-0.016032642
192	0xbcd27ec1	-0.025695207
193	0x3dc5a8a5	0.09651307
194	0x3db4ba63	0.08824613
195	0xbd482744	-0.04886557
196	0xbcb5c229	-0.02218731
197	0xbdd0c5c2	-0.10193969
198	0xbbcbd9ec	-0.0062210467
199	0x3da6d0ad	0.081452705
200	0xbd3c09bb	-0.045907717
201	0x3dad7ff5	0.084716715
202	0xbda45294	-0.08023563
203	0xbe03b0dd	-0.12860437
204	0xbdb76aee	-0.08955942
205	0xbd31d4d9	-0.043415878
206	0xbc914956	-0.017735165
207	0xbdc05580	-0.09391308
208	0x3da39afa	0.07988544
209	0x3ca22e77	0.019797547
210	0xbd7d6a22	-0.061868794
211	0x3dc3a529	0.09552986
212	0x3dd6f096	0.10495107
213	0x3d85c622	0.065319315
214	0xbd482966	-0.048867606
215	0xbbd7d1cf	-0.0065862904
216	0xbd17f4d4	-0.03709872
217	0xbd8a3215	-0.06747834
218	0xbd3007f7	-0.042976346
219	0x3dce5775	0.10075275
220	0xbd4501ed	-0.04809754
221	0xbd86b950	-0.06578314
222	0x3c2e929b	0.010655071
223	0xbc734a4c	-0.014849257
224	0x3d1fabdb	0.038982254
225	0xbd37cc54	-0.044872597
226	0x3df443b5	0.119269766
227	0xbda15ae3	-0.078786634
228	0xbd81ead4	-0.06343618
229	0x3de9c994	0.11415401
230	0xbe0717f6	-0.13192734
231	0xbd5d857e	-0.054082386
232	0xbdb0596a	-0.086108044
233	0x3decfcac	0.11571631
234	0xbae94ada	-0.0017798797
235	0xbddc4abc	-0.10756442
236	0x3e12bdfa	0.14330283
237	0x3dcf9eb2	0.101376906
238	0xbb942b3a	-0.0045217546
239	0x3dd912dc	0.105993
240	0xbd8fc9c4	-0.070209056
241	0x3dc37186	0.09543137
242	0xbcbf1e73	-0.023329949
243	0xbde17ca6	-0.11010103
244	0x3c86e687	0.016467346
245	0x3e05b47f	0.13057135
246	0x3e02d926	0.12778148
247	0x3d9b2120	0.075746775
248	0xbdab9784	-0.08378509
249	0x3c9b06e8	0.018924192
250	0x3ddc646e	0.10761343
251	0xbdca8cbf	-0.098901264
252	0xbe12933f	-0.14313982
253	0x3dc64637	0.09681361
254	0x3d23e05c	0.040008888
255	0x3df287e7	0.118423276

encoder.0.bias f4 [128]
0	0xbd025ffc	-0.03182982
1	0x3d074d3e	0.03303265
2	0x3d577eba	0.05261109
3	0xbcf8cb22	-0.030370299
4	0x3dc920c3	0.09820702
5	0x3d1eeb54	0.038798645
6	0x3cf86381	0.030320885
7	0x3df0589f	0.11735653
8	0xbcc07467	-0.023493005
9	0x3d7a9bf1	0.061183874
10	0xbd8d3778	-0.068953454
11	0x3e070d07	0.13188563
12	0x3b1b1a45	0.002366678
13	0x3dea4f1e	0.11440872
14	0xbd0c0df4	-0.034192994
15	0x3db6ad26	0.08919744
16	0xbb3cf22d	-0.0028830871
17	0xbdae09d6	-0.0849797
18	0x3dcde651	0.10053695
19	0xbb3e6b46	-0.002905564
20	0x3cd89d19	0.026442097
21	0xbda45c9c	-0.08025476
22	0x3c558584	0.013032321
23	0xbd331fd9	-0.043731544
24	0xbdcfdb3c	-0.101492375
25	0xbd92fd4b	-0.07177218
26	0x3d21e7b0	0.039527595
27	0x3db6471a	0.0890028
28	0xbcfd2302	-0.030900482
29	0xbd1fec65	-0.039043803
30	0xbd1470b1	-0.036240283
31	0x3db279e4	0.08714655
32	0x3dfb250a	0.12262924
33	0xbd202f70	-0.03910774
34	0xbd8e1b20	-0.069387674
35	0xbd113eea	-0.03546039
36	0x3e0ab92d	0.13547201
37	0xbd1d572e	-0.03841322
38	0x3dd198a9	0.10234196
39	0xbc6fce2e	-0.014636559
40	0xbaccfb09	-0.0015638779
41	0x3d227831	0.039665405
42	0x3dc221e4	0.094791204
43	0x3cd1c60e	0.025607135
44	0xbd86b742	-0.065779224
45	0x3d01ea84	0.031717792
46	0x3dcfbae5	0.10143069
47	0xbdae9882	-0.08525182
48	0xbd68773b	-0.056754332
49	0xbdab8fba	-0.08377023
50	0xbce9f441	-0.028558852
51	0x3cd0be00	0.025481224
52	0xbdc3ca8d	-0.09560118
53	0xbdc074bb	-0.093972646
54	0xbc8774f1	-0.016535254
55	0x3debde53	0.11517014
56	0x3c7c1756	0.015386423
57	0xbde4af01	-0.11166192
58	0xbd3e1cc2	-0.046414144
59	0xbd21ca7a	-0.039499737
60	0x3c3c54eb	0.011494855
61	0x3c700493	0.014649528
62	0xbde4db5a	-0.111746505
63	0xbc4bd558	-0.012441002
64	0x3c9b5c66	0.018964957
65	0xbdb9122d	-0.0903667
66	0x3dde79d1	0.108630784
67	0x3d976061	0.0739143
68	0x3d5f86b2	0.054571815
69	0x3e09776a	0.13424459
70	0xbdf2e087	-0.118592314
71	0x3df1c9d2	0.11806072
72	0xbb20a8bf	-0.0024514643
73	0x3d8d3703	0.06895258
74	0xbda2b7f2	-0.07945241
75	0x3e0598ab	0.1304652
76	0x3c83a28d	0.016068721
77	0xbdbf424a	-0.093388155
78	0xbdd4632e	-0.103704795
79	0x3dc18f03	0.094511054
80	0xbd454330	-0.048159778
81	0xbd3dce3e	-0.046339266
82	0x3de11e01	0.10992051
83	0x3d157990	0.036492884
84	0x3bd84a85	0.0066006803
85	0xbc3583bd	-0.011078772
86	0xbd54a6e6	-0.05191698
87	0x3cb5d538	0.022196397
88	0xbdc5c17f	-0.09656047
89	0xbb9613d8	-0.0045800023
90	0x3dc563ec	0.09638199
91	0x3d623ae0	0.05523193
92	0x3e058cc9	0.13041987
93	0x3d8778da	0.066148475
94	0x3ce3fa02	0.027829174
95	0xbd988595	-0.07447354
96	0x3dab3874	0.08360377
97	0x3c698401	0.014252664
98	0xbd028afe	-0.031870835
99	0xbdcdf548	-0.10056549
100	0x3d5ec1cb	0.054384034
101	0x3da5d6c2	0.080976024
102	0xbaaef350	-0.0013347659
103	0x3d71aa0f	0.05900007
104	0xbde4d340	-0.11173105
105	0xbc9d1d3e	-0.019178983
106	0xbc924c2a	-0.017858583
107	0x3d533efe	0.051573746
108	0x3d4c6eee	0.04991048
109	0xbdc33204	-0.09531024
110	0x3dd7553a	0.105143026
111	0x3b3056fc	0.0026907315
112	0xbaae2c30	-0.0013288315
113	0xbd9342ce	-0.07190476
114	0x3d8b94ca	0.06815489
115	0xbd49a495	-0.049229223
116	0x3d7f8850	0.062385857
117	0x3d771bc8	0.06032923
118	0xbc8c48c4	-0.017124541
119	0xbbe4c916	-0.006981979
120	0x3b52fa69	0.0032192713
121	0x3d8ac9e9	0.067767926
122	0xbd9bea88	-0.07613093
123	0x3dbf6ec6	0.093473
124	0x3deee851	0.116654046
125	0x3a0ab0d6	0.0005290633
126	0x3dc9c02d	0.09851108
127	0xbd1ad3a8	-0.037799507

encoder.2.weight f4 [128, 128]
0	0xbcb94491	-0.022615703
1	0xbd5fccc9	-0.054638658
2	0x3dbeabbe	0.09310101
3	0x3dbf2dfb	0.09334942
4	0x3cb5e972	0.022206042
5	0xbccd1480	-0.02503419
6	0xbcb8e599	-0.022570418
7	0xbda24a06	-0.07924275
8	0x3db65c08	0.08904272
9	0x3d7fb4c9	0.06242827
10	0x3cda3a7f	0.026639221
11	0xbb0d3818	-0.0021548327
12	0x3d1db745	0.038504858
13	0x3da21a66	0.07915191
14	0xbc13b9f0	-0.009016499
15	0xbc83deae	-0.016097393
16	0xbc508a4b	-0.012728284
17	0x3c9d5d5d	0.019209558
18	0xbb5ae027	-0.0033397765
19	0x3d8bdafc	0.06828877
20	0x3dc9215a	0.098208144
21	0xbd5cfa23	-0.053949486
22	0xbd44b998	-0.04802856
23	0xbce6e354	-0.02818457
24	0xbc0af999	-0.00848236
25	0x3d951457	0.0727927
26	0x3d2c98a0	0.042137742
27	0xbda8ac63	-0.08236005
28	0xbd205628	-0.039144665
29	0x3d40a3f8	0.047031373
30	0xbd453a71	-0.048151437
31	0x3d4c1983	0.049829017
32	0x3dab92e8	0.083776295
33	0x3cb9563e	0.022624131
34	0x3cc3391c	0.023830943
35	0x3d91dc31	0.07122076
36	0x3c1c8334	0.009552766
37	0x3c0c5f07	0.008567578
38	0x3cd47627	0.025935246
39	0x3d2ed2f3	0.042681646
40	0x3cd03d3b	0.025419822
41	0xbc2cbc97	-0.01054301
42	0x3d9b1038	0.07571453
43	0x3cd0cd0a	0.025488395
44	0x3d18bcd9	0.037289474
45	0xb99142cc	-0.00027706323
46	0x3d555f07	0.05209258
47	0x3d1f440f	0.038883265
48	0x3d1d3553	0.038380932
49	0x3c29d81b	0.010366465
50	0x39b3a944	0.00034267653
51	0x3da00ee7	0.078153424
52	0x3d7ab5f5	0.061208684
53	0xbd78dd94	-0.06075819
54	0xbd826929	-0.06367714
55	0x3da6e1b8	0.08148521
56	0x3d04c853	0.032417607
57	0x3d86c748	0.06580979
58	0xbd6f5be6	-0.05843725
59	0x3cb531e0	0.022118509
60	0x3db9a3fd	0.090644814
61	0x3d0d72e0	0.03453338
62	0x3d5d441b	0.05402003
63	0xbc84df9d	-0.016219908
64	0x3d5f806c	0.054565832
65	0xbd9eb4bd	-0.07749317
66	0x3dae48af	0.08509957
67	0x3db900f3	0.09033384
68	0xbc2af10c	-0.010433447
69	0xbc43ad2a	-0.011943141
70	0x3cfe8f75	0.031074265
71	0x3d44fe89	0.048094306
72	0x3c337f37	0.010955623
73	0x3ae7b176	0.0017676789
74	0x3d54dd48	0.051968843
75	0x3cb04c23	0.02152068
76	0xbd10751f	-0.035267945
77	0xbd074a1d	-0.033029664
78	0x3b12e4d5	0.0022414227
79	0x3d722a8d	0.05912261
80	0xbd76c1c5	-0.060243387
81	0x3d1fa7a6	0.03897824
82	0x3bb73a41	0.005591661
83	0xbd21c941	-0.03949857
84	0xbd1c3aa8	-0.038141876
85	0x3cb8acc7	0.022543324
86	0x3cf24dda	0.029578138
87	0x3ce29c4f	0.027662424
88	0xbc2ec5e6	-0.0106673
89	0xbd8dcea7	-0.069241814
90	0x3c6b416a	0.014358858
91	0xb9f27d05	-0.00046250984
92	0xbd51b634	-0.051199153
93	0xbb89560d	-0.0041911663
94	0x3e02d118	0.12775075
95	0xbda67b96	-0.08129041
96	0xbcbcdbba	-0.023053993
97	0xbd4b9d49	-0.049710546
98	0xbd86c187	-0.06579881
99	0xbcfa98c4	-0.030590422
100	0x3cfefcbc	0.031126373
101	0xbcaf7864	-0.021419711
102	0x3d8a9acc	0.067678064
103	0xbd2ff57f	-0.042958733
104	0xbcd5ad54	-0.026083626
105	0x3c241864	0.010015581
106	0xbd959bb7	-0.07305091
107	0xbd1ce367	-0.038302805
108	0xbd5f8fc7	-0.054580476
109	0xbd5d8992	-0.054086275
110	0x3d72cb5f	0.05927598
111	0xbc897fc3	-0.016784554
112	0x3db6e0f9	0.08929629
113	0xbaf32de2	-0.0018553103
114	0x3d26ce2b	0.04072396
115	0x3c0040ff	0.007827996
116	0x3c8e1571	0.017344208
117	0x3d814959	0.06312818
118	0xbcbb572a	-0.022868712
119	0xbc519760	-0.012792438
120	0x3cf176b4	0.029475547
121	0x36556908	3.180061e-06
122	0xbd35a239	-0.04434416
123	0x3d079b2d	0.03310697
124	0xbbb99a5f	-0.0056641544
125	0xbd4abf21	-0.04949868
126	0x3d9d4a7b	0.07680222
127	0x3e08b57a	0.13350478
128	0x3be7a26b	0.0070689223
129	0xbd3df42f	-0.04637545
130	0xbd81aba5	-0.06331567
131	0xbaa5c6a1	-0.0012647697
132	0xbda6c1da	-0.08142443
133	0xbdadf121	-0.08493257
134	0x3d20ea38	0.03928587
135	0xbd2a259c	-0.041539773
136	0xbcecaa3c	-0.028889768
137	0x3dbdd1ee	0.092685565
138	0xbd4674a3	-0.048451077
139	0x3b0238e0	0.0019870326
140	0x3d5e6d27	0.054303315
141	0x3c179253	0.009251195
142	0x3d6a683f	0.057228323
143	0x3d69d511	0.05708796
144	0xbca34d00	-0.019934177
145	0xbce420db	-0.027847698
146	0xbca5085f	-0.020145593
147	0xbd27b742	-0.040946253
148	0x3d90f1a5	0.0707734
149	0x3dc4a32f	0.09601437
150	0xbd0c37ad	-0.034232784
151	0x3dbb894b	0.09157046
152	0xbc0426a6	-0.008065855
153	0x3d20dd77	0.039273705
154	0x3ca7a85d	0.020466024
155	0xbd9ed22d	-0.077549316
156	0xbdba3a4b	-0.0909315
157	0x3cab3bfe	0.02090263
158	0xbd749c55	-0.059719402
159	0x3d7133e7	0.05888739
160	0xb90d6260	-0.00013483455
161	0xbc12f097	-0.008968494
162	0x3d3133ad	0.043262172
163	0xbdb34ea0	-0.08755231
164	0x3cb36cc6	0.021902453
165	0x3d08c293	0.033388685
166	0xbdf7d8a9	-0.121018715
167	0x3d693309	0.056933437
168	0xbccf0d38	-0.025274858
169	0x3d1a78ba	0.03771279
170	0x3dc5daad	0.0966085
171	0x3da2b90a	0.0794545
172	0x3d790952	0.060799904
173	0xbd080b2c	-0.03321378
174	0x3d21641d	0.039402116
175	0xbc1f8044	-0.009735171
176	0xbbfee27a	-0.007778463
177	0x3cd9d3c8	0.026590243
178	0x3d3959c0	0.045251608
179	0xbd483538	-0.04887888
180	0x3c5476c7	0.012967772
181	0x3d471a15	0.04860886
182	0xbdc7df40	-0.097593784
183	0xbdacf255	-0.08444659
184	0xbc3eb97c	-0.011640903
185	0x3d6d5f09	0.05795196
186	0x3cec0dcc	0.028815173
187	0xbbeee239	-0.0072901514
188	0x3bb2dfcd	0.005458808
189	0x3c56f5ca	0.013120124
190	0x3d92b529	0.0716346
191	0x3a2df837	0.0006636413
192	0xbd8bd78b	-0.06828221
193	0xbd3c7069	-0.04600564
194	0x3d9e4534	0.07728043
195	0xbd9b9979	-0.07597632
196	0x3d862817	0.06550615
197	0xbc15e8d7	-0.009149752
198	0x3d9b0d73	0.075709246
199	0xbdc5128c	-0.09622678
200	0xbd89e7f3	-0.06733694
201	0x3d454b23	0.04816736
202	0xbd537a02	-0.051630028
203	0xbb840a10	-0.00402952
204	0xbcb2ff42	-0.021850232
205	0x3cf5f018	0.030021712
206	0xbda01e8e	-0.07818328
207	0x3c21cac7	0.009875006
208	0x3db03f18	0.08605784
209	0x3dc2951a	0.09501095
210	0x3dd56402	0.104194656
211	0xbdaead6c	-0.08529171
212	0x3c89d8ed	0.016827071
213	0xbd523092	-0.05131585
214	0xbd5dc4d1	-0.054142777
215	0xbd4a14e5	-0.049336333
216	0x3d7e934c	0.062152192
217	0xbd62193b	-0.055199843
218	0x3d966b29	0.07344658
219	0xbdc7853e	-0.09742211
220	0xbd8d986e	-0.06913839
221	0xbcfe0565	-0.031008432
222	0x3cb15670	0.021647662
223	0x3d4728d2	0.048622914
224	0x3d6c9179	0.05775592
225	0xbd215a51	-0.039392773
226	0xbc934648	-0.017977849
227	0x3dd21bea	0.102592304
228	0xbd92010d	-0.07129107
229	0xbd08afc7	-0.03337076
230	0xbc270fa8	-0.010196604
231	0x3d1ac872	0.037788816
232	0x3d0681c5	0.0328386
233	0x3d27a7dc	0.040931568
234	0xbd8f7614	-0.070049435
235	0xbc2cf064	-0.0105553605
236	0x3d91a081	0.07110692
237	0xbdb1f415	-0.08689133
238	0x3bff298f	0.0077869366
239	0x3d0727d8	0.032996982
240	0x3d0226f9	0.03177545
241	0x3ca2ce67	0.019873811
242	0xbd8e805c	-0.06958076
243	0x3d0cc914	0.03437145
244	0x3d0b17e3	0.033958327
245	0xbd98efc9	-0.074676104
246	0x3c8dcc02	0.017309193
247	0xbcbd15d0	-0.02308169
248	0x3cbaeff7	0.022819502
249	0xbd197ac9	-0.037470613
250	0x3b9c3eae	0.004768214
251	0x3cd414ad	0.025888765
252	0xbc86142d	-0.016367042
253	0xbcf6b6f4	-0.030116536
254	0xbc83f4b8	-0.016107902
255	0x3d9567b5	0.07295171

encoder.2.bias f4 [128]
0	0xbb421ff0	-0.0029621087
1	0x3d54641d	0.051853288
2	0x3da8f48d	0.08249769
3	0xbd75180a	-0.05983738
4	0xbd41a8c2	-0.04728008
5	0xbd791c4a	-0.060817994
6	0x3c77be4c	0.015121054
7	0xbcc9733f	-0.024591086
8	0x3d20126c	0.03908007
9	0x3dc8af53	0.097990654
10	0xbd207f6e	-0.039184026
11	0xbb923d64	-0.0044628847
12	0x3d76f01d	0.060287584
13	0x3c9274ef	0.017878024
14	0x3d475c38	0.04867193
15	0x3d73339b	0.059375387
16	0xbc2b8aa3	-0.010470065
17	0x3d4ba03c	0.04971336
18	0xbd8f4e25	-0.06997327
19	0xbd1bcd00	-0.0380373
20	0xbd95954b	-0.07303866
21	0x3d91c59d	0.0711777
22	0x3cc12d64	0.023581214
23	0x3d9c7dfe	0.076412186
24	0x3d10d9f0	0.03536409
25	0x3d56b84b	0.05242185
26	0xbc1342a5	-0.008988057
27	0xbda2f33c	-0.079565495
28	0x3d9f963b	0.07792326
29	0xbdb539b8	-0.088488996
30	0x3c2a10f5	0.010380019
31	0x3d272855	0.040809948
32	0xbd1057f9	-0.035240147
33	0x3d9c2d5d	0.0762584
34	0x3d646169	0.05575696
35	0x3c2a8a43	0.010408941
36	0xbc94c5c2	-0.018160705
37	0x3c60ec93	0.013728279
38	0x3db81a34	0.08989373
39	0x3d070569	0.032964144
40	0x3c7a0b28	0.015261449
41	0xbd003cd2	-0.031308003
42	0x3d94bf33	0.07263031
43	0x3d68378e	0.056693606
44	0x3d3149f1	0.043283407
45	0x3da948ba	0.082658246
46	0x3d8f61ea	0.070010975
47	0xbd1e49b4	-0.038644508
48	0xbd5fa66a	-0.054602064
49	0xbd0245bc	-0.031804785
50	0xbcac1877	-0.02100776
51	0x3d67fe01	0.05663872
52	0xbc3e70ee	-0.011623604
53	0xbd8d6edd	-0.06905911
54	0xbc98b423	-0.018640583
55	0xbc10d13e	-0.00883895
56	0x3d4acd7f	0.049512383
57	0x3d62ccf3	0.055371236
58	0xbd9db898	-0.07701224
59	0x3dc30a77	0.095234804
60	0x3d4fb0c2	0.05070568
61	0x3d243813	0.04009254
62	0xbb2a2469	-0.0025961644
63	0xbd020cf3	-0.03175063
64	0x3cca10f4	0.024666287
65	0xb996692e	-0.00028688594
66	0x3db48df2	0.088161364
67	0x3db73e15	0.08947388
68	0xbb4ed5fb	-0.0031560648
69	0xbc148672	-0.009065257
70	0x3db467fe	0.088088974
71	0xbda56be8	-0.08077222
72	0x3d48715e	0.04893624
73	0x3db31c81	0.08745671
74	0xbd5d2c1b	-0.05399714
75	0xbd17093b	-0.036874037
76	0xbd196e49	-0.03745869
77	0x3c788b11	0.015169875
78	0x3d3849d8	0.044992298
79	0x3d165417	0.036701288
80	0xbd7903a6	-0.060794495
81	0x3d4ac222	0.049501546
82	0xbd0a9c78	-0.033840626
83	0xbd7f5125	-0.062333245
84	0x3c92d79f	0.017925082
85	0x3c735a0a	0.01485301
86	0x3d69a2e5	0.057040114
87	0xbc1fe9ae	-0.009760303
88	0x3d321e30	0.04348582
89	0xbce448ee	-0.027866807
90	0x3d0da6b4	0.03458281
91	0xbd91359a	-0.07090302
92	0x3db22e6c	0.087002605
93	0x3d3c53af	0.045978244
94	0xbc43dbe0	-0.011954278
95	0xbc9fd031	-0.019508453
96	0x3cf460c0	0.02983129
97	0x3d09bbb7	0.033626284
98	0x3b848424	0.0040440727
99	0xbb81c94a	-0.003960763
100	0xbcf4bc2c	-0.029874884
101	0x3d03269d	0.032019246
102	0x3d043b04	0.032282844
103	0x3c2bf8a6	0.010496294
104	0x3dc00f02	0.093778625
105	0xbd961d39	-0.073297925
106	0xbc77b218	-0.015118144
107	0xbd95eaaf	-0.07320153
108	0x3d936769	0.07197458
109	0xbc548cf2	-0.012973057
110	0x3c8ddb22	0.017316405
111	0x3d8a1534	0.067423254
112	0xbc69dfdb	-0.014274563
113	0xbd7c8653	-0.06165154
114	0xbd845121	-0.064607866
115	0xbd6d8b04	-0.057993904
116	0x3bccfe89	0.006255929
117	0x3d01f953	0.031731915
118	0x3c2971ae	0.010342045
119	0x3bdb96d4	0.0067013297
120	0xbd1f3431	-0.038868133
121	0xbd4ddd8c	-0.05026011
122	0xbd81533c	-0.06314704
123	0xbcf2d532	-0.029642675
124	0x3c9f88e8	0.019474462
125	0x3d928403	0.071540855
126	0x3d43e742	0.047827967
127	0xbc7177f7	-0.0147380745

encoder.4.weight f4 [128, 128]
0	0xbcf8d387	-0.030374302
1	0x3d34044c	0.04394941
2	0xbd0c7a0b	-0.034296077
3	0xbb966e01	-0.00459075
4	0xbd1f6080	-0.03891039
5	0x3cf40a60	0.029790103
6	0x3db99603	0.090618156
7	0x3d32c7ab	0.04364745
8	0x3cd2df42	0.025741223
9	0xbd98635d	-0.07440827
10	0x3df2c425	0.11853818
11	0xbc88e697	-0.016711516
12	0x3ddda17f	0.108218186
13	0x3d2c97f6	0.04213711
14	0x3d5b09bc	0.05347608
15	0xbb091264	-0.0020915503
16	0xbcb0ba59	-0.021573232
17	0xbc9e3881	-0.019314053
18	0xbd3f079b	-0.046638113
19	0xbd4f0a7c	-0.050547108
20	0x3d9db661	0.07700802
21	0x3d175e08	0.03695491
22	0x3bb83934	0.0056220535
23	0x3c915cc5	0.017744431
24	0x3dd6b013	0.10482802
25	0xbd8e65ca	-0.069530085
26	0x3d5c5315	0.05379017
27	0x3d6f9310	0.05848986
28	0x3d3a726d	0.04551928
29	0xbb22a47a	-0.0024817274
30	0x3d464dd7	0.048414078
31	0xbd7e4e47	-0.06208637
32	0x3c0af1ba	0.008480484
33	0x3cc40fe1	0.023933353
34	0x3da4287e	0.08015536
35	0x3da57e87	0.08080774
36	0xbc8408ed	-0.016117537
37	0xbd822f39	-0.06356663
38	0x3d4555bf	0.048177477
39	0x3db5f1ef	0.08884036
40	0x3d6ac435	0.057316024
41	0xbcec986d	-0.028881276
42	0x3d42fbfa	0.047603585
43	0x3de1f7ed	0.11033616
44	0x3cb17922	0.021664206
45	0xbcb92f29	-0.022605496
46	0x3d526968	0.051370054
47	0x3dd88fa1	0.1057427
48	0x3dc02688	0.09382349
49	0xbda37e1e	-0.07983039
50	0x3d2f9d9e	0.042874925
51	0x3d9a9443	0.0754781
52	0xbd112c4b	-0.03544263
53	0xbc316dfa	-0.010829443
54	0x3c0f4905	0.008745437
55	0x3d9a8466	0.07544784
56	0x3d400047	0.046875264
57	0x3d8fb847	0.0701757
58	0xbd8bc2d1	-0.06824268
59	0x3ca81581	0.020518066
60	0x3da1753b	0.07883688
61	0x3d971f61	0.07379032
62	0x3d88b745	0.06675581
63	0xbcbb9f0a	-0.022902984
64	0xbd108879	-0.0352864
65	0xbda0100f	-0.07815563
66	0xbc850c84	-0.01624132
67	0x3d1fb1dc	0.03898798
68	0xbdba6560	-0.09101367
69	0x3cafd1dd	0.021462375
70	0xbcc5999c	-0.024121098
71	0x3c44a2aa	0.012001673
72	0xbd9c66cd	-0.07636795
73	0x3d5901fa	0.0529804
74	0x3a791c46	0.0009502809
75	0x3ccbadbf	0.024863122
76	0xbd401e05	-0.04690363
77	0x3db04944	0.08607724
78	0x3dbb5315	0.09146706
79	0x3d336e08	0.043806106
80	0xbc90b013	-0.017662084
81	0xbd61bb22	-0.055110104
82	0xbcdfcbf8	-0.02731894
83	0x3d845052	0.064606324
84	0xbcb5bf5d	-0.022185976
85	0xbd19e7a9	-0.037574444
86	0x3d346a22	0.04404653
87	0x3d2fc704	0.042914405
88	0x3d7c1a81	0.061548714
89	0x3d14393f	0.036187407
90	0x3d408d78	0.047009915
91	0xbd3f5c39	-0.04671881
92	0xbd03957e	-0.03212499
93	0x3d63bf9a	0.055602647
94	0xbdb3b159	-0.08774061
95	0x3b1f1b10	0.0024277605
96	0xbcaa7447	-0.020807398
97	0x3d41435e	0.047183387
98	0x3d8a70ca	0.06759794
99	0xbd45d4e6	-0.04829874
100	0x3da454d8	0.08023995
101	0x3dbfba1a	0.09361668
102	0x3cd30313	0.025758302
103	0xbd9c221a	-0.07623692
104	0xbcbbfc65	-0.0229475
105	0xbcf87df1	-0.030333491
106	0x3dc6750b	0.09690293
107	0x3c129682	0.008947017
108	0x3da983db	0.082771026
109	0xbd645bd7	-0.055751648
110	0x3c9849d9	0.0185899
111	0x3d602369	0.05472127
112	0x3dfc5dfa	0.12322612
113	0x3c3630f7	0.011120073
114	0x3daa5ab7	0.08318084
115	0xbb4d0f8f	-0.0031289791
116	0x3da90218	0.082523525
117	0x3db237b5	0.087020315
118	0x3d91cdc1	0.071193226
119	0x3c8d5b1a	0.017255355
120	0x3c4b74f3	0.01241802
121	0xbbf30b96	-0.0074171526
122	0x3d4b89b3	0.049691867
123	0xbdb646f4	-0.08900252
124	0x3c88904a	0.016670365
125	0x3cf3ba69	0.029751973
126	0x3dc11b14	0.09428993
127	0xbc083568	-0.008313514
128	0x3db6a8f9	0.08918948
129	0x3d8e22ed	0.06940255
130	0xbd8218a0	-0.06352353
131	0x3dcdb43b	0.10044142
132	0xbdb09e0f	-0.08623897
133	0xbd94aa6a	-0.072590664
134	0xbd988c5d	-0.07448647
135	0xbd93e3bf	-0.072211735
136	0xbdd476ed	-0.10374246
137	0x3dac7b61	0.0842197
138	0xbd7dfb9c	-0.06200753
139	0x3d3a5a3d	0.045496214
140	0x3d8e546e	0.069496974
141	0x3c11da3c	0.008902129
142	0xbd77bf82	-0.06048537
143	0x3c7c12fd	0.0153853865
144	0xbd22a451	-0.039707486
145	0xbcd7d777	-0.026347859
146	0x3d7ac053	0.06121857
147	0x3dfecd03	0.12441447
148	0xbe0101f6	-0.12598404
149	0x3d6508a9	0.055916462
150	0xbd4c8bdb	-0.049938064
151	0xbd30a675	-0.043127496
152	0xbdbbe4b0	-0.09174478
153	0xbcd74fa0	-0.026283085
154	0x3df240a4	0.118287355
155	0xb980e480	-0.00024584308
156	0x3deae124	0.114687234
157	0x3db5a4eb	0.08869346
158	0x3d823c91	0.063592084
159	0x3d576ff7	0.052597012
160	0xbc3001eb	-0.010742645
161	0x3d613e16	0.05499085
162	0x3d87d850	0.06633055
163	0x3db5366d	0.088482715
164	0xbd288151	-0.04113895
165	0xbc82cec9	-0.015967743
166	0x3dcb44fd	0.09925268
167	0x3d46abd1	0.0485037
168	0xbc013881	-0.007887007
169	0xbd895680	-0.06705952
170	0x3c6387fc	0.013887402
171	0xbd7b7ed1	-0.06140024
172	0xbd06673d	-0.0328133
173	0xbc4df4d2	-0.012570577
174	0x3cd13625	0.025538513
175	0xbdd3c9b2	-0.10341205
176	0x3c1e5282	0.009663226
177	0xbcc5e291	-0.024155887
178	0x3dbf8d09	0.09353072
179	0x3d057f63	0.03259219
180	0xbd8d6d00	-0.06905556
181	0x3d16c245	0.036806364
182	0x3da31a5f	0.07964014
183	0x3c2d3cf1	0.010573612
184	0xbd74f665	-0.059805293
185	0x3da89fde	0.08233617
186	0x3d69b3be	0.05705618
187	0xbde5cd76	-0.11220829
188	0xbb384433	-0.0028116822
189	0x39ef92d3	0.00045695025
190	0x3c516aa9	0.012781777
191	0xbc7d9a83	-0.015478733
192	0x3de54b11	0.111959584
193	0xbe0a31c5	-0.13495548
194	0xbc5d47cb	-0.013505886
195	0x3cd4512f	0.025917618
196	0xbd7992e2	-0.060931094
197	0x3db2b962	0.08726765
198	0xbd3f59ec	-0.046716616
199	0xbda9c537	-0.08289569
200	0x3d9ec126	0.07751684
201	0x3e0f57f1	0.1399839
202	0x3d59d8c5	0.053185243
203	0x3c35b3a6	0.011090195
204	0xbdbc21c6	-0.09186129
205	0xbc3e5951	-0.011617974
206	0x3db73d4b	0.089472376
207	0xbddc1b6c	-0.10747418
208	0x3dbea139	0.093080945
209	0xbca2bca1	-0.019865336
210	0xbd0e2f01	-0.034712795
211	0x3d421ff6	0.04739376
212	0xbd31d678	-0.043417424
213	0xbd73217a	-0.059358098
214	0xbdbb3ccf	-0.09142458
215	0x3d64b06d	0.055832315
216	0x3bbcee49	0.0057657105
217	0xbc11d63e	-0.008901177
218	0xbd002bd8	-0.031291813
219	0x3db8c4f0	0.09021938
220	0xbdd1ebe0	-0.10250068
221	0x3dbda001	0.09259034
222	0x3bd6acc7	0.0065513584
223	0xbd02f100	-0.031968117
224	0xbd8ffd56	-0.07030742
225	0x3e001465	0.1250778
226	0x3db2fe8a	0.08739956
227	0xbba625e3	-0.0050704344
228	0x3d3405e5	0.043950934
229	0x3d5d3438	0.054004878
230	0x3dfd322b	0.123630844
231	0xbdb2c2ea	-0.08728583
232	0x3d1d9cb5	0.038479526
233	0xbd9777eb	-0.073959194
234	0x3ca64f8d	0.020301605
235	0xba5e6294	-0.0008483317
236	0x3d18386d	0.037163187
237	0x3d05baf5	0.032649
238	0xbd03261e	-0.032018773
239	0x3c2a3ccd	0.010390473
240	0x3d40e38f	0.047092017
241	0xbdbfb592	-0.09360804
242	0xbb0964ae	-0.002096455
243	0xbd061308	-0.032732993
244	0xbc8fadd8	-0.01753895
245	0xbcfa7b20	-0.030576289
246	0x3d5f2011	0.05447394
247	0xbd91cabb	-0.07118746
248	0x3cec1714	0.028819598
249	0xbdc2d65c	-0.09513542
250	0x3dc78bd8	0.0974347
251	0x3c96eda6	0.018423866
252	0xbd849286	-0.0647326
253	0x3d25d4e1	0.04048622
254	0x3d9e5146	0.077303454
255	0x3d43bf12	0.04778964

encoder.4.bias f4 [128]
0	0x3c27742c	0.010220569
1	0x3d80f1a0	0.06296086
2	0xbc5748cd	-0.013139916
3	0x3d71ab4f	0.059001263
4	0x3d214879	0.039375756
5	0xbc19fd3e	-0.009398757
6	0xbd67081b	-0.056404214
7	0xbd61d974	-0.05513902
8	0x3bd42abc	0.006474821
9	0x3d4bc61e	0.049749486
10	0xbd624c1b	-0.05524836
11	0xbd05ce53	-0.03266747
12	0x3d477096	0.048691355
13	0x3d073cfa	0.033017136
14	0x3d0228e1	0.031777266
15	0xbbe8ef01	-0.0071085696
16	0xbd963602	-0.0733452
17	0x3d808a2a	0.06276353
18	0xbd4eebe9	-0.05051795
19	0xbd258184	-0.04040672
20	0x3dad7593	0.08469691
21	0xbcf8b911	-0.030361684
22	0xbcef8f41	-0.029243113
23	0xbd5a4af3	-0.053294133
24	0xbb4e29ca	-0.0031458014
25	0x3d085852	0.033287354
26	0x3d8fc210	0.07019436
27	0xbbded854	-0.0068006907
28	0xbb9d9d98	-0.0048100464
29	0x3d2cb337	0.0421631
30	0x3cbc8529	0.023012714
31	0xbd1f04f5	-0.038823087
32	0xbd340ebc	-0.043959364
33	0x3d4ae17e	0.049531452
34	0xbdb35dba	-0.08758111
35	0x3c33b520	0.0109684765
36	0x3d3d42d1	0.0462063
37	0x3dbe5503	0.092935584
38	0xbc66f04a	-0.014095375
39	0xbc44d81a	-0.012014413
40	0xbd83b57f	-0.06431102
41	0xbd4720c3	-0.04861523
42	0xbcf6092c	-0.03003367
43	0x3d9acc9d	0.07558558
44	0x3d8c62be	0.06854771
45	0x3cf264e9	0.029589133
46	0x3d9b16f5	0.07572738
47	0xbdabdcfa	-0.08391757
48	0x3da72c53	0.08162751
49	0xbd9922b1	-0.0747732
50	0x3d39c33a	0.0453522
51	0xbd53a690	-0.05167252
52	0xbc53c986	-0.012926465
53	0xbd605369	-0.054767046
54	0xbd85f6b9	-0.06541199
55	0xba0d66ad	-0.0005394023
56	0xbd90cfeb	-0.07070907
57	0xbabe832a	-0.001453494
58	0xbd427fad	-0.047485042
59	0x3d0f61f9	0.035005543
60	0xbcf86b1e	-0.030324515
61	0xbc2a5122	-0.01039532
62	0x3d1d2ac7	0.038370874
63	0x3dad9503	0.08475687
64	0x3da5c735	0.08094636
65	0x3d60b9f7	0.05486485
66	0x3c7c9000	0.015415192
67	0x3cfaea29	0.030629234
68	0xbd260eb1	-0.040541355
69	0xbd28d5bb	-0.041219454
70	0x3d7cb308	0.061694175
71	0xbceab661	-0.028651418
72	0xbd780672	-0.06055302
73	0x3d7f222f	0.06228846
74	0x3b5c7d32	0.0033643958
75	0x3c1e9978	0.0096801445
76	0x3d766d31	0.060162727
77	0xba651544	-0.00087388256
78	0xbd9035f8	-0.07041544
79	0xbd2b3e3f	-0.04180741
80	0x3d46c8be	0.048531286
81	0xbd99cc51	-0.075096734
82	0xbc349d37	-0.011023811
83	0xbda43400	-0.08017731
84	0xbd69a322	-0.05704034
85	0x3da0d70d	0.07853518
86	0x3da0694f	0.07832586
87	0xbd0089db	-0.03138147
88	0x3c896997	0.016773982
89	0xbb02320d	-0.0019866258
90	0xbd83c4fb	-0.064340554
91	0xbd1e059d	-0.038579572
92	0x3c908720	0.017642558
93	0x3c0cb352	0.008587675
94	0x3d3f9407	0.04677203
95	0xbd85c73f	-0.06532144
96	0xbc32330f	-0.010876431
97	0x3d91bb99	0.071158595
98	0xbd7f13ae	-0.062274627
99	0xbd24bc72	-0.040218778
100	0xbd333242	-0.0437491
101	0x3d8c15c8	0.06840092
102	0x3c4a7023	0.012355837
103	0x3ce65d94	0.028120793
104	0xbd85928a	-0.06522091
105	0x3c8f0e87	0.017462982
106	0xbb2a3c87	-0.0025976019
107	0x3d9c1a9a	0.07622261
108	0x3d4f3c9d	0.050594915
109	0x3d83f081	0.06442357
110	0x3a73393a	0.0009278242
111	0x3d343ac8	0.04400137
112	0x3d49c30e	0.049258284
113	0x3d4d1ea2	0.05007804
114	0x3d560309	0.05224899
115	0xbd9ab40b	-0.07553872
116	0xbc9a3212	-0.018822704
117	0xbd29d002	-0.041458137
118	0xbd686959	-0.056741092
119	0xbc420a86	-0.011843329
120	0x3b0cdf2a	0.002149532
121	0x3d79989e	0.060936563
122	0xbd0a03d6	-0.033695064
123	0xbdb62e31	-0.08895529
124	0xbcc65d3b	-0.024214378
125	0xbd8a93b7	-0.067664556
126	0xbda60678	-0.081067026
127	0xbd9a5220	-0.07535195

decoder.0.weight f4 [128, 128]
0	0xbbcad6b4	-0.0061901454
1	0x3d446cf1	0.047955457
2	0xbce1b5a4	-0.027552433
3	0xbd938740	-0.07203531
4	0x3da774da	0.081765845
5	0x3bc60111	0.0060426076
6	0xbe0bea90	-0.13663697
7	0xbd1d79ab	-0.03844611
8	0x3d8a5442	0.06754352
9	0x3c7982a3	0.0152289
10	0xba0272e5	-0.0004976227
11	0x3d82c5ab	0.063853584
12	0x3dbd6626	0.09247999
13	0x3ddc25cf	0.10749399
14	0x3d73fad2	0.059565373
15	0x3dae7d9e	0.08520053
16	0x3da8db10	0.08244908
17	0x3c160d9f	0.009158521
18	0x3d2b089b	0.041756254
19	0xbd4f4033	-0.050598335
20	0xbd4f31e7	-0.0505847
21	0xbd8c4c73	-0.06850519
22	0xbcc8758d	-0.024470115
23	0x3e01f6d1	0.12691809
24	0xbe42a314	-0.19007522
25	0xbd11f371	-0.035632554
26	0x3d84120d	0.064487554
27	0xbdb31f39	-0.087461896
28	0x3d8b32a8	0.06796771
29	0xbdcbd588	-0.09952837
30	0xbdec4028	-0.11535674
31	0xbd15df85	-0.036590118
32	0xbd38493e	-0.044991724
33	0xbcf189ef	-0.029484717
34	0xbd30f3ac	-0.043201134
35	0xbcd7c5cd	-0.026339436
36	0x3caafecd	0.020873452
37	0x3da30954	0.079607636
38	0x3bbf39bd	0.0058357404
39	0x3ba7adcb	0.0051171533
40	0xbe01eae4	-0.1268726
41	0xbdb4ba27	-0.08824568
42	0xbc01de20	-0.007926494
43	0xbcbd8826	-0.02313621
44	0x3d2e54ec	0.042561457
45	0xbd15b20b	-0.036546748
46	0x3d92d02e	0.071686134
47	0xbd043c21	-0.032283906
48	0xbd17e341	-0.03708196
49	0x3d55d5b6	0.052205764
50	0x3c0fc717	0.008775494
51	0xbd93686c	-0.07197651
52	0x3c9fa275	0.019486645
53	0x3cb65a79	0.022259938
54	0xbd52a01f	-0.051422235
55	0x3e181315	0.14851029
56	0xbc467ba7	-0.012114442
57	0x3dc3233a	0.09528203
58	0xba4eb703	-0.0007885547
59	0xbddb86af	-0.10719048
60	0xbd595d8b	-0.053067725
61	0xbd2557c9	-0.04036692
62	0xbda83d88	-0.08214861
63	0xbd2e1589	-0.042501006
64	0xbd1fb785	-0.038993377
65	0x3dae85e0	0.085216284
66	0x3d8e2824	0.0694125
67	0x3dd6fdc1	0.104976185
68	0xbe2f9f81	-0.1715069
69	0xbdda8742	-0.1067033
70	0x3d984be5	0.07436351
71	0xbc378b56	-0.011202654
72	0x3e19cf98	0.15020597
73	0xbd0bf973	-0.03417344
74	0xbd0a1193	-0.033708166
75	0xbbb73219	-0.005590689
76	0xbca01f08	-0.019546047
77	0x3ccde1a2	0.025132004
78	0x3ccf2f9e	0.02529126
79	0xbc9ce720	-0.019153178
80	0x3bdf8ada	0.0068219723
81	0x3e1a2b43	0.15055566
82	0xbccbe260	-0.024888217
83	0x3da0e467	0.07856064
84	0x3dcf5df7	0.10125344
85	0xbcf00db5	-0.029303411
86	0x3c3ff429	0.011715927
87	0x3db99c48	0.090630114
88	0x3e3e7fd8	0.18603456
89	0xbc612159	-0.013740861
90	0x3e04a3e3	0.12953143
91	0xbdc2ee01	-0.09518052
92	0xbd298421	-0.041385774
93	0xbd4cd83c	-0.050010905
94	0xbc8b3b75	-0.016996125
95	0x3dbeac67	0.09310227
96	0xbc5e1262	-0.0135541875
97	0xbe2312e3	-0.15925173
98	0xbc0e2dfb	-0.008677955
99	0x3d4ef0da	0.050522663
100	0xbdcd0403	-0.10010531
101	0xbdea72e1	-0.11447693
102	0xbd0bdae5	-0.0341443
103	0x3b705bbf	0.0036675779
104	0xbd1a6d27	-0.037701752
105	0x3d5d2a4d	0.05399542
106	0xbd709fc1	-0.058746103
107	0xbd2507e7	-0.04029074
108	0x3d813aed	0.06310067
109	0x3cd9691c	0.026539378
110	0xbd29f1ba	-0.041490294
111	0xbd85b352	-0.06528343
112	0x3d7d8b02	0.061900146
113	0x3e2c60a2	0.16833737
114	0xbdd66090	-0.104676366
115	0xbb90f3fe	-0.0044236174
116	0x3d4807e2	0.048835643
117	0xbd43740a	-0.047718085
118	0x3dfb7fe9	0.12280256
119	0x3d5b6aa2	0.05356849
120	0x3b879dea	0.004138698
121	0xbd50ca3e	-0.050974123
122	0x3c6655ef	0.014058574
123	0x3e16ee04	0.14739233
124	0xbd224868	-0.039619833
125	0x3c7bda0f	0.015371813
126	0x3d60bbe7	0.054866698
127	0x3cc78cc0	0.024359107
128	0x3d791c03	0.06081773
129	0x3df50869	0.11964495
130	0x3c8f599e	0.017498787
131	0x3d3e6ea4	0.046492234
132	0xbcea6ac2	-0.02861536
133	0x3c846e2c	0.016165815
134	0x3d502eac	0.05082576
135	0xbda1c25e	-0.07898401
136	0xbd8e12c4	-0.06937173
137	0xbcbe43cb	-0.023225686
138	0xba8a30c2	-0.0010543095
139	0x3dc76edb	0.09737941
140	0xbcf82127	-0.030289246
141	0xbcaf7663	-0.021418756
142	0x3ddbb98e	0.10728751
143	0xbd2e3d65	-0.04253902
144	0x3d211662	0.039327987
145	0xbd40f15e	-0.047105186
146	0xbca69485	-0.020334492
147	0xbbdc08e8	-0.006714929
148	0x3bc9c2db	0.006157262
149	0xbcf56b9f	-0.029958544
150	0x3d86c8d1	0.065812714
151	0x3d1b7e90	0.037962496
152	0xbdac7203	-0.084201835
153	0xbb22fe2f	-0.0024870744
154	0x3d130cb9	0.035900805
155	0xbc750471	-0.014954672
156	0x3ba0983f	0.0049009616
157	0xbd5a9f47	-0.053374555
158	0x3d5525da	0.05203805
159	0xbd47e39c	-0.04880105
160	0x3dcf0fe4	0.10110453
161	0x3bddb348	0.0067657568
162	0x3d616d0a	0.05503563
163	0x3dd1d512	0.10245718
164	0xbd6896e9	-0.056784544
165	0x3dc1c74d	0.09461842
166	0xbd3e733b	-0.04649661
167	0xbd64b752	-0.05583889
168	0x3cc22fd6	0.02370445
169	0xbda60ba6	-0.081076905
170	0x3d4e9ec0	0.050444365
171	0x3d657ce2	0.0560273
172	0x3d39ea4a	0.04538945
173	0x3d94638f	0.07245552
174	0xbd6b5680	-0.05745554
175	0xbd8b814a	-0.06811769
176	0x3d0b5d97	0.0340248
177	0xbcd2fd1c	-0.025755458
178	0x3dd9eede	0.106412634
179	0xbdd64725	-0.104627885
180	0x3d90eb72	0.07076158
181	0x3c1a2d8a	0.009410271
182	0x3cbf0766	0.023318958
183	0xbd217db4	-0.03942652
184	0xbdb535c9	-0.08848149
185	0x3d28c3e0	0.041202426
186	0x3c336f54	0.010951836
187	0x3cc191fa	0.023629177
188	0xbccd28ae	-0.025043812
189	0xbdb5e640	-0.08881807
190	0xbd3214e0	-0.04347694
191	0x3d66ad1e	0.05631744
192	0x3d484430	0.048893154
193	0xbd914ef5	-0.07095138
194	0x3b7a484c	0.0038190065
195	0x3d96e86b	0.07368549
196	0x3ca2934a	0.019845624
197	0xbdc8d436	-0.09806101
198	0xbbb1c44e	-0.0054250127
199	0xbd72ff30	-0.059325397
200	0x3caebda0	0.021330655
201	0x3bbd7f8d	0.0057830275
202	0x3d4973d9	0.049182747
203	0xbdb86b2d	-0.09004817
204	0xbb956dc8	-0.004560206
205	0xbc45c7ee	-0.012071593
206	0x3cd37a1c	0.025815062
207	0xbdabf82f	-0.08396947
208	0xbd8ea2bc	-0.06964633
209	0x3d72f223	0.05931295
210	0x3ce0ecc5	0.02745665
211	0xbd435c24	-0.047695294
212	0xbd82cfbb	-0.06387278
213	0xbd8d93b0	-0.06912935
214	0x3d7a33ea	0.061084665
215	0x3c800231	0.015626045
216	0x3dbfc2b3	0.09363308
217	0x3d6cf455	0.0578502
218	0x3ca24678	0.019808993
219	0xbde7c292	-0.11316408
220	0x3da531a9	0.080661125
221	0xbb43ebe7	-0.0029895247
222	0xbdce9814	-0.100876
223	0xbd0415da	-0.0322474
224	0x3b64625f	0.0034848673
225	0xbd7ab07c	-0.061203465
226	0xbd780aaf	-0.060557064
227	0x3d71582f	0.05892199
228	0x3d3e3561	0.046437625
229	0xbd888651	-0.06666244
230	0xbdc8e0ca	-0.098085
231	0xbd92cce2	-0.071679845
232	0x3d4dafad	0.050216366
233	0xbd75e9f7	-0.06003758
234	0xbcabd910	-0.020977527
235	0xbdd6f4b5	-0.10495893
236	0x3dd12f78	0.10214132
237	0x3d1a78a7	0.03771272
238	0xbd987a38	-0.074451864
239	0xbd8137c4	-0.063094646
240	0x3d88aea2	0.066739336
241	0x3d30cedc	0.043166026
242	0xbd485862	-0.048912413
243	0xbc26c378	-0.010178439
244	0x3de15d1c	0.11004087
245	0xbd9ded9e	-0.077113375
246	0x3d13f9a1	0.036126737
247	0x3b30f72d	0.0027002797
248	0xbce4e294	-0.027940072
249	0xbdab7815	-0.08372513
250	0xbdc7dea9	-0.09759266
251	0xbd02c1ed	-0.031923223
252	0xbdbc2741	-0.091871746
253	0xbcd7d5de	-0.026347097
254	0xbcecb27c	-0.028893702
255	0x3d3bb710	0.04582888

decoder.0.bias f4 [128]
0	0x3bb13da0	0.0054089576
1	0x3d25de71	0.04049534
2	0x3c6cd4ee	0.014455063
3	0x3dc06070	0.09393394
4	0x3da0857b	0.078379594
5	0xbd52c1fd	-0.051454533
6	0xbd69952d	-0.05702703
7	0x3d105896	0.035240732
8	0x3d37c6bc	0.044867262
9	0x3d0da651	0.03458244
10	0xbd104e0d	-0.035230685
11	0x3d72749d	0.059193242
12	0x3c203aee	0.009779675
13	0x3b425d49	0.0029657653
14	0x3db2c0e2	0.08728196
15	0x3d83860d	0.064220525
16	0x3d514795	0.051093657
17	0xbdbe0465	-0.09278182
18	0x3dbe5b3f	0.092947476
19	0x3db5a726	0.08869772
20	0xbdc0c742	-0.094130054
21	0x3da979f7	0.08275216
22	0xbcb9a6cd	-0.022662545
23	0xbc2935ad	-0.010327739
24	0xbd5fe4ec	-0.054661676
25	0xbd89f274	-0.067356974
26	0xbd872cc4	-0.06600335
27	0xbcaf1c2d	-0.02137574
28	0xbd1b9308	-0.037982017
29	0x3d39b7f3	0.045341443
30	0x3cc09e3a	0.023512948
31	0xbc0df0eb	-0.008663396
32	0xbd06fc05	-0.03295519
33	0xbcbeb965	-0.023281762
34	0x3d852621	0.06501413
35	0x3d968ecb	0.07351454
36	0xbda87f9c	-0.082274646
37	0x3db92f26	0.09042196
38	0xb998c400	-0.0002913773
39	0x3aa67649	0.0012700047
40	0xbd70745b	-0.058704715
41	0x3c3c7e98	0.011504792
42	0xbb9cc73e	-0.0047844937
43	0x3daf8770	0.085707545
44	0x3d378fa6	0.04481473
45	0xbb4e659f	-0.0031493676
46	0xbda2c666	-0.07947998
47	0x3cca1d14	0.024672069
48	0xbc75af66	-0.0149954315
49	0xbcf5ee85	-0.030020962
50	0x3d09157c	0.033467755
51	0xb9426961	-0.00018540538
52	0xbd58589b	-0.052818876
53	0x3db3344f	0.087502114
54	0xba5e6d04	-0.00084848725
55	0xbdaaed0c	-0.08345994
56	0x3d153891	0.0364309
57	0x3cb29d2b	0.02180346
58	0xbb83778b	-0.0040120534
59	0xbce49921	-0.027905049
60	0x3d8c9d2b	0.06865915
61	0xbcdcf013	-0.026969945
62	0x3da5e4ad	0.08100257
63	0x3d8faa89	0.07014949
64	0xbd6c8eec	-0.05775349
65	0x3c802b0b	0.015645524
66	0x3d2d7b2e	0.0423538
67	0xbbcf0d5e	-0.006318732
68	0xbd5c9ca6	-0.05386033
69	0x3d05758d	0.03258281
70	0x3bca0190	0.006164737
71	0xbd7311c9	-0.059343133
72	0x3d26a7a9	0.040687237
73	0x3d3e2777	0.046424355
74	0xbd48bc7d	-0.04900788
75	0x3cf617ae	0.030040588
76	0xbc0b3259	-0.008495891
77	0x3c8d5ed4	0.017257132
78	0xbda1e6a8	-0.07905322
79	0x3d8c918f	0.068637006
80	0xbd0bdd1c	-0.034146413
81	0x3ad5263e	0.0016262007
82	0xbd141eb9	-0.036162112
83	0x3daded8f	0.08492576
84	0x3d04895c	0.03235756
85	0x3d2c8c0d	0.04212575
86	0x3db1fbf7	0.086906366
87	0x3da43a37	0.08018916
88	0xba84411c	-0.0010090205
89	0x3cafb512	0.021448646
90	0x3d53d58f	0.051717337
91	0xbdaa425b	-0.083134376
92	0xbbf290b0	-0.007402502
93	0xbd91e746	-0.0712419
94	0xbd87cebb	-0.066312276
95	0xbda5a5e4	-0.08088282
96	0xbd5bf4ef	-0.053700384
97	0xbd4f1c80	-0.05056429
98	0x3c302c7b	0.0107527925
99	0xbd620d2f	-0.055188354
100	0xbd0d1426	-0.034443043
101	0x3ce5f2d4	0.028069891
102	0xbdae885f	-0.085221045
103	0xbd08058a	-0.033208407
104	0xbbdd9439	-0.0067620543
105	0xbd95e27b	-0.07318588
106	0x3b8fc4c1	0.0043874686
107	0xbd775715	-0.060385782
108	0xbda5c535	-0.08094255
109	0xbd77c91a	-0.06049452
110	0xbd65ed40	-0.056134462
111	0xbd894579	-0.06702704
112	0x3d8c206c	0.068421215
113	0x3dae905c	0.08523628
114	0x3d852851	0.0650183
115	0xbc502375	-0.012703766
116	0xbd134a01	-0.035959247
117	0xbd043798	-0.03227958
118	0x3d36696d	0.044534136
119	0xbbbca3d3	-0.005756834
120	0x3d619ea1	0.05508292
121	0x3db1efd8	0.08688325
122	0x3d71a85c	0.05899845
123	0xbba360b1	-0.0049858917
124	0x3d19507d	0.037430275
125	0xbc8660f3	-0.01640365
126	0x3cbe654a	0.023241658
127	0x3da1d651	0.07902206
