set_transformer/classification_model/deepset_multihot.pth (torch, 295612 bytes, 11 tensors)

embedding.weight f4 [198, 64]
0.825382 1.3368773 0.61236954 1.3655428 -2.0293689 1.2317668 -0.47945768 0.08573243
1.3740803 -0.83430266 0.2147187 -1.6115596 0.30320698 0.3662218 0.6229764 0.5425114
-0.9581976 -1.2997031 0.81513697 -0.34095126 -0.14799857 1.198351 0.22811078 -0.46346933
0.23634097 1.3514642 -0.6141111 -0.58841795 -0.8975152 0.28388402 0.55511254 0.06669693
1.4264995 -1.2312096 0.47827217 0.44165513 0.52979225 0.7990405 -0.72704136 -0.9454108
0.7034997 0.96782106 -0.58184296 -0.6736579 -0.10251472 -0.24708979 0.008638857 -0.13258374
-0.95461893 -2.198206 -1.2576176 0.11970856 -0.6302035 0.668779 0.3646606 -1.5023484
-0.4940171 -0.054817438 0.3102309 -0.044598676 -2.0001247 -0.15655354 -0.20126985 -0.53918517
-1.0480009 -0.5575344 -0.5762214 -0.1610044 -0.024821708 1.1677427 -1.5946133 0.71439004
-1.5825092 1.8253493 -0.45646316 1.7868671 1.1256461 -2.6652067 1.1998179 -0.74893093
-1.0367438 -1.1842667 0.63888174 -0.72002596 0.8583154 -1.0351734 -1.7304417 1.7174225
0.38950828 -0.30688888 -1.6119262 -0.17551182 0.13234429 0.81493723 -0.108679555 0.86696243
-0.56088597 0.010836867 0.16703288 -0.9425662 0.088650666 -0.37915224 -1.4791608 1.8159215
-1.9095719 0.49956295 -1.1036193 -0.44953683 1.3128561 0.18034151 -0.0649015 1.3357172
0.86793286 -0.70392996 0.21442437 -0.9486402 0.55953914 1.4956403 0.30496994 -0.9765401
-0.07206685 1.7448117 0.40428677 -0.7916209 1.2842237 0.8880989 -0.5839441 -0.7607781
0.4441032 0.051812675 -1.368921 -1.21451 -1.398294 -0.71475726 -1.2016178 -0.745775
-1.4916118 -0.86368465 -0.23260285 0.3106137 0.28356782 0.4729684 0.026272401 -1.7698126
-2.8870585 -0.0051045176 0.16479918 -0.009631181 -0.40117326 0.66527885 -0.580951 -0.5712301
0.016216671 2.471907 0.31476802 0.9102353 -0.9503079 0.30790162 -0.12853132 2.8466785
-0.045523144 -2.098905 0.03697833 -0.7731966 -0.2659074 -0.32070616 -0.23338999 -1.7208831
1.3293685 0.2775734 1.4233359 0.896458 0.47725487 0.14989406 0.9660791 -1.8726965
-0.57852966 1.2211217 -0.54141897 0.33008996 -0.26796502 -0.38130477 1.2167103 1.0063636
-0.11164014 0.7147611 0.22505629 -1.4905267 -0.7357044 0.6887979 -1.6415921 -0.3426782
0.47898114 0.46259838 0.6244015 -0.3912451 -3.052228 -1.5429258 -1.7579252 -1.978214
0.33774686 0.55735826 -1.3617078 0.1206326 0.47535345 0.34776115 -0.7319233 -1.6326152
0.9257952 1.398475 -0.9030697 -0.55606556 0.71060145 -0.6508043 -0.021904299 1.4111909
0.7700257 -0.017049843 0.24099591 0.2030742 -0.11325425 -0.07167977 -2.0737062 -1.1362553
0.13700138 -1.9119059 -0.079756446 -0.5731217 -1.6334549 1.723562 -0.67294055 -0.4163291
1.4067543 -0.35039362 -0.10497477 -1.3534518 0.5878825 0.7697238 1.0789578 0.74944925
0.30002922 -0.1169934 -0.21594456 -0.57192296 2.1634429 0.33879316 1.0868852 -1.7325073
1.6508653 0.70255154 0.17408021 1.7458075 1.2014929 -0.118900694 2.3610547 -1.4021206
00000000: 3c4c 533f cc1e ab3f 40c4 1c3f 1bca ae3f
00000010: 2ee1 01c0 89aa 9d3f 7a7b f5be 7c94 af3d
00000020: dde1 af3f dc94 55bf 38df 5b3e 9647 cebf
00000030: f23d 9b3e 6c81 bb3e 627b 1f3f 07e2 0a3f
00000040: 704c 75bf ac5c a6bf d1ac 503f 2a91 aebe
00000050: f08c 17be 9163 993f df95 693e da4b edbe
00000060: 5e03 723e c7fc ac3f 6336 1dbf 8fa2 16bf
00000070: 8ec3 65bf 3f59 913e db1b 0e3f 6698 883d
00000080: 8997 b63f 4798 9dbf 17e0 f43e 9f20 e23e
00000090: 77a0 073f eb8d 4c3f 621f 3abf 7106 72bf
000000a0: 8e18 343f 1fc3 773f a9f3 14bf d874 2cbf
000000b0: 3df3 d1bd 1b05 7dbe fe89 0d3c 08c4 07be
000000c0: e861 74bf 68af 0cc0 9df9 a0bf c329 f53d
000000d0: 0455 21bf 1a35 2b3f cbb4 ba3e f44c c0bf
000000e0: cfef fcbe 4088 60bd 96d6 9e3e 1aad 36bd
000000f0: 0b02 00c0 924f 20be af19 4ebe 0a08 0abf
00000100: e524 86bf 93ba 0ebf 3f83 13bf 56de 24be
00000110: e556 cbbc 9878 953f 4a1c ccbf 44e2 363f
00000120: a98f cabf 0ca5 e93f 8ab5 e9be 10b8 e43f
00000130: 2c15 903f bf92 2ac0 a293 993f f0b9 3fbf
00000140: 05b4 84bf 0d96 97bf c18d 233f 9f53 38bf
00000150: 8fba 5b3f 9080 84bf 1d7f ddbf 80d4 db3f
00000160: a16d c73e 8a20 9dbe 9953 cebf 5fb9 33be
00000170: 4385 073e ba9f 503f 6393 debd 40f1 5d3f
00000180: 3996 0fbf 1d8d 313c ab0a 2b3e 054c 71bf
00000190: 7b8e b53d 3e20 c2be 2455 bdbf 1e70 e83f
000001a0: da6c f4bf b7c6 ff3e 6643 8dbf b129 e6be
000001b0: ab0b a83f 72ab 383e 14eb 84bd c8f8 aa3f
000001c0: d930 5e3f c134 34bf 1092 5b3e 16da 72bf
000001d0: f53d 0f3f 2471 bf3f 0525 9c3e 88fe 79bf
000001e0: c997 93bd fd55 df3f adfe ce3e aba7 4abf
000001f0: 7161 a43f 735a 633f 5c7d 15bf 5bc2 42bf
00000200: 7f61 e33e 8739 543d ce38 afbf 1075 9bbf
00000210: 4cfb b2bf 55fa 36bf 9dce 99bf 1ceb 3ebf
00000220: 23ed bebf 701a 5dbf 712f 6ebe c208 9f3e
00000230: cd2f 913e ea28 f23e 3839 d73c 3889 e2bf
00000240: 91c5 38c0 cc43 a7bb 1ec1 283e 1acc 1dbc
00000250: 9566 cdbe b74f 2a3f 34b9 14bf 233c 12bf
00000260: d3d8 843c b933 1e40 4629 a13e 2e05 693f
00000270: 6147 73bf 48a5 9d3e b79d 03be fb2f 3640
00000280: 7a76 3abd 7654 06c0 9776 173d 36f0 45bf
00000290: 0425 88be 9933 a4be c9fd 6ebe e645 dcbf
000002a0: bf28 aa3f 1a1e 8e3e df2f b63f 467e 653f
000002b0: c05a f43e d47d 193e f650 773f 85b4 efbf
000002c0: 851a 14bf b74d 9c3f 6f9a 0abf 8d01 a93e
000002d0: b632 89be 613a c3be 2abd 9b3f 86d0 803f
000002e0: 96a3 e4bd 95fa 363f 2875 663e 94c9 bebf
000002f0: 2057 3cbf 0f55 303f b11f d2bf 8473 afbe
00000300: 043d f53e b2d9 ec3e c7d8 1f3f 4751 c8be
00000310: b457 43c0 987e c5bf b103 e1bf 1e36 fdbf
00000320: 28ed ac3e 08af 0e3f 714c aebf 390e f73d
00000330: 8761 f33e c00d b23e 535f 3bbf 89f9 d0bf
00000340: ea00 6d3f 3b01 b33f 932f 67bf 505a 0ebf
00000350: fae9 353f 1c9b 26bf a570 b3bc e7a1 b43f
00000360: 6720 453f 1dac 8bbc a2c7 763e aff2 4f3e
00000370: d8f1 e7bd d8cc 92bd 9ab7 04c0 d070 91bf
00000380: 174a 0c3e 55b9 f4bf 5957 a3bd 1bb8 12bf
00000390: 0d15 d1bf ae9d dc3f d545 2cbf 1629 d5be
000003a0: 8610 b43f cb66 b3be 03fd d6bd e93d adbf
000003b0: 787f 163f 9e0c 453f 4a1b 8a3f e8db 3f3f
000003c0: 6e9d 993e 3c9a efbd 9220 5dbe 8b69 12bf
000003d0: d975 0a40 4c76 ad3e 0e1f 8b3f cdc2 ddbf
000003e0: 8e4f d33f 6bda 333f 1542 323e 9f76 df3f
000003f0: 85ca 993f 3582 f3bd 851b 1740 b078 b3bf

encoder.0.weight f4 [128, 75]
0.00611761 -0.10517251 -0.062350377 -0.105961815 0.06339528 0.12518607 0.07246664 -0.099586815
0.048010886 -0.089076534 -0.027264573 -0.022204863 -0.007916417 -0.096426204 0.12097341 -0.006297572
-0.04117846 -0.044347994 0.084167525 -0.09259303 0.052077804 0.06724299 -0.12241559 -0.092841715
-0.0758344 0.005021392 0.09545711 -0.097340494 0.11597275 -0.009479896 -0.084103085 0.06584681
0.042817984 -0.084919006 -0.1039966 0.0036287168 0.09356071 0.0067390925 0.016041813 -0.07837152
0.027978526 0.095699795 0.08015474 0.009132799 -0.011451411 0.08904336 0.00081408094 -0.14570276
-0.019169426 -0.107948005 -0.022588927 0.010695146 0.024064677 0.016568003 -0.060912505 -0.0076990845
-0.050201584 -0.015757132 -0.034499113 -0.06404282 -0.011766407 0.026322657 -0.03707834 0.027841264
0.023420306 -0.07756831 0.17892279 0.011559144 -0.083759576 -0.040370997 -0.02037833 -0.05644386
0.09097785 0.14108753 0.018808823 -0.0124580255 0.072767556 -0.0659245 0.112767674 -0.027414504
0.04253847 0.04062549 0.08857404 0.05941844 0.04197863 -0.16555965 -0.06648135 -0.07786804
0.10689979 0.056772903 0.08994458 -0.12810673 0.030472321 -0.12379473 -0.049618907 0.04365487
-0.04622286 -0.072100475 0.08353465 -0.06898267 0.04359022 -0.08315302 -0.09695476 0.02540061
0.038677897 0.012216559 -0.07077888 -0.038089592 -0.013961352 0.026815556 -0.12246407 0.085305035
0.044191338 -0.08872253 -0.058240104 0.016932836 0.05079272 0.028103733 0.0673998 0.12125243
-0.00422931 -0.04681964 0.084190555 0.08830794 0.1500744 0.058072545 0.11239761 -0.0033180327
0.08940183 0.034842506 0.036141403 -0.0889247 -0.0039913883 0.008530679 -0.01981861 0.12934566
-0.080436125 -0.0076549784 0.014746588 0.031582646 -0.008181361 -0.087140724 -0.050937407 0.104385756
-0.02591372 0.024436772 -0.04514814 -0.07152594 -0.18293373 0.048631616 -0.07650779 0.050206076
-0.06291979 0.0052015157 -0.018460404 -0.07249867 0.089846015 0.113311276 -0.0031468023 0.17762917
-0.07424747 0.11665219 0.038395192 -0.08813531 -0.10651329 -0.13295501 -0.098557584 0.023273014
0.066631064 0.035272136 0.029056141 0.01875792 0.04002676 -0.050475933 -0.04299684 -0.038765952
-0.05222256 -0.015324119 0.0012628257 0.09942634 0.12870498 -0.012321978 -0.03504234 -0.039797865
-0.01886275 0.095283635 -0.041838452 0.113872945 -0.0603146 0.11298062 -0.02859905 0.047662355
-0.07952419 -0.07527643 -0.12018242 0.092879705 0.019790992 0.11455179 -0.05890729 -0.049571518
0.091767274 -0.13140199 -0.053303987 -0.07912717 -0.07374831 -0.1242412 -0.09409628 0.053896576
0.059999064 0.031208977 0.02282697 0.07950887 0.04878023 -0.10972277 -0.029184125 0.0024941862
0.07826618 0.040219527 -0.023814345 -0.013052203 -0.121795245 -0.043218315 0.021437073 0.1249443
0.00827376 -0.1401834 0.11098934 0.06328038 0.0065187034 0.11876508 -0.058754046 0.009679536
-0.13079183 0.108493276 0.032268684 -0.06438059 -0.1144553 0.0019935996 0.06185138 0.09206131
0.03194618 -0.07272576 -0.038601384 -0.010814305 0.075215444 -0.07795067 -0.08573333 0.031642042
-0.07920914 0.09019459 0.05213645 -0.071946144 -0.062787674 0.078745686 0.05712648 0.0055882516
00000000: 3b76 c83b af64 d7bd 1c63 7fbd 8202 d9bd
00000010: 62d5 813d c730 003e 6469 943d 2cf4 cbbd
00000020: 10a7 443d c26d b6bd f459 dfbc f9e6 b5bc
00000030: dcb3 01bc 1a7b c5bd e8c0 f73d dd5b cebb
00000040: bfaa 28bd 3ea6 35bd 0660 ac3d 6aa1 bdbd
00000050: 894f 553d b1b6 893d 06b5 fabd cc23 bebd
00000060: 114f 9bbd 7d8a a43b 047f c33d 745a c7bd
00000070: 1f83 ed3d 9151 1bbc 3d3e acbd b1da 863d
00000080: e961 2f3d 04ea adbd 2bfc d4bd c4cf 6d3b
00000090: c29c bf3d 9bd3 dc3b 1f6a 833c 3f81 a0bd
000000a0: 3933 e53c 41fe c33d 2b28 a43d bca1 153c
000000b0: b39e 3bbc 5d5c b63d 0c68 553a 1b33 15be
000000c0: 3309 9dbc d813 ddbd 6a0c b9bc b23a 2f3c
000000d0: 4923 c53c 9fb9 873c 647f 79bd 9a48 fcbb
000000e0: 2da0 4dbd 1a15 81bc f14e 0dbd e228 83bd
000000f0: e3c7 40bc 9da2 d73c 75df 17bd 5d13 e43c
00000100: f1db bf3c 22dc 9ebd 8937 373e 9062 3d3c
00000110: 248a abbd 0f5c 25bd 75f0 a6bc ad31 67bd
00000120: 9852 ba3d 4079 103e f614 9a3c bf1c 4cbc
00000130: 2807 953d 6d03 87bd bdf2 e63d 6294 e0bc
00000140: d23c 2e3d ea66 263d 4e66 b53d c060 733d
00000150: c9f1 2b3d 7888 29be 6027 88bd 4779 9fbd
00000160: 47ee da3d b48a 683d dd34 b83d 692e 03be
00000170: 17a1 f93c 1788 fdbd 323d 4bbd 73cf 323d
00000180: 2f54 3dbd 6aa9 93bd 3714 ab3d c946 8dbd
00000190: a98b 323d 214c aabd 3890 c6bd f114 d03c
000001a0: b76c 1e3d f627 483c 84f4 90bd d503 1cbd
000001b0: 28be 64bc 4cac db3c 71ce fabd 68b4 ae3d
000001c0: fa01 353d 28b4 b5bd 2d8d 6ebd bbb6 8a3c
000001d0: 070c 503d cd39 e63c e808 8a3d 3253 f83d
000001e0: 0696 8abb f3c5 3fbd 196c ac3d cbda b43d
000001f0: 1aad 193e 7add 6d3d b830 e63d 5a73 59bb
00000200: 4f18 b73d 04b7 0e3d 0209 143d 271e b6bd
00000210: 31ca 82bb 43c4 0b3c a35a a2bc 3073 043e
00000220: b2bb a4bd 9dd6 fabb ac9b 713c ce5c 013d
00000230: 1d0b 06bc d676 b2bd bea3 50bd 33c8 d53d
00000240: 0249 d4bc a02f c83c 42ed 38bd 317c 92bd
00000250: fb52 3bbe f231 473d 1eb0 9cbd e3a4 4d3d
00000260: 17dc 80bd 7a71 aa3b 463a 97bc 2f7a 94bd
00000270: 3001 b83d be0f e83d 953a 4ebb 6ce4 353e
00000280: 0f0f 98bd 58e7 ee3d 4744 1d3d 4980 b4bd
00000290: a423 dabd 5c25 08be 8fd8 c9bd 0ca7 be3c
000002a0: de75 883d 8479 103d 2507 ee3c 36aa 993c
000002b0: 1af3 233d dabf 4ebd 741d 30bd 0cc9 1ebd
000002c0: 53e7 55bd 0312 7bbc 6685 a53a 09a0 cb3d
000002d0: 3dcb 033e 1fe2 49bc 8f88 0fbd 1603 23bd
000002e0: 0e86 9abc 1124 c33d cc5e 2bbd 3836 e93d
000002f0: 710c 77bd 6262 e73d 8e48 eabc 9a39 433d
00000300: 94dd a2bd 872a 9abd 3322 f6bd b737 be3d
00000310: b820 a23c 219a ea3d c548 71bd 810b 4bbd
00000320: 7bf0 bb3d 3e8e 06be 4855 5abd 6d0d a2bd
00000330: 5b09 97bd 2c72 febd 8db5 c0bd a8c2 5c3d
00000340: 94c1 753d f8a9 ff3c a0ff ba3c 8cd5 a23d
00000350: c7cd 473d 55b6 e0bd 8c13 efbc 8075 233b
00000360: 054a a03d 3bbd 243d 4d16 c3bc e8d8 55bc
00000370: c96f f9bd b005 31bd cd9c af3c cce2 ff3d
00000380: aa8e 073c 3d8c 0fbe 614e e33d 2599 813d
00000390: d99a d53b 1b3b f33d 15a8 70bd eb96 1e3c
000003a0: 4bee 05be b931 de3d 2b2c 043d f9d9 83bd
000003b0: 8a67 eabd 0da7 023b df57 7d3d a48a bc3d
000003c0: ffd9 023d 3ef1 94bd 7c1c 1ebd 7c2e 31bc
000003d0: 8e0a 9a3d 9aa4 9fbd f594 afbd 169b 013d
000003e0: 6738 a2bd f1b7 b83d 088d 553d 8058 93bd
000003f0: d396 80bd 6b45 a13d 75fd 693d a71d b73b

encoder.0.bias f4 [128]
0.004113644 -0.05698757 0.019979449 0.07438194 -0.05756325 0.09548387 -0.018786438 0.062002145
-0.094070405 -0.002482225 -0.041481253 0.004679058 -0.0908528 -0.09034693 0.058501758 0.10480926
-0.021620596 0.058090102 0.04708084 0.0748388 -0.08720805 -0.03232278 -0.08275189 0.038064316
-0.03358705 -0.043806963 0.048607733 0.0645032 -0.07564997 0.056352437 0.0729407 0.087053806
0.08058894 0.055313334 -0.10582328 0.042612962 0.08637628 0.11253411 -0.09767352 -0.028873712
-0.025913185 0.0847263 0.0083263 0.11586628 0.072038054 -0.064622186 0.059130486 -0.0078316
0.07207926 -0.083477296 0.030288067 0.011669747 0.03352123 0.038083088 0.027997095 -0.012360349
-0.08774886 -0.05716214 0.0015941694 0.13157034 0.0472326 -0.10401567 -0.06601149 0.08769476
-0.03421724 0.02906898 -0.0054036733 0.0176842 0.07155987 0.005846462 0.09637454 -0.007399091
0.061551977 -0.024396125 0.07103875 -0.019375268 0.046248496 0.08624086 0.063241415 -0.03762015
0.010590441 0.008697027 0.025999442 0.046387095 -0.033860005 -0.060736824 0.05428233 0.009710995
-6.673982e-05 -0.03286547 0.034235947 0.037944194 0.092923 0.11259646 0.0567489 0.101209
0.059652343 -0.0018696929 0.023325361 0.10146209 -0.08049323 0.022729106 0.113152206 0.03256947
-0.09854197 -0.058363404 -0.09559326 0.051743098 -7.7312e-05 -0.036985837 0.041838735 0.11484966
-0.08364135 -0.06970653 -0.017892085 -0.0798525 -0.030375963 -0.08165272 0.048914414 -0.031592015
0.11653406 0.10971992 0.10215765 -0.023070041 -0.09210789 0.03550577 -0.06584833 0.056424964
00000000: bfcb 863b cc6b 69bd f1ab a33c 8f55 983d
00000010: 71c7 6bbd 0c8d c33d 04e6 99bc f6f5 7d3d
00000020: fca7 c0bd d3ac 22bb 3fe8 29bd c952 993b
00000030: 0811 babd d007 b9bd 8a9f 6f3d 3da6 d63d
00000040: ad1d b1bc e3ef 6d3d d7d7 403d 1645 993d
00000050: 229a b2bd e464 04bd d379 a9bd 54e9 1b3d
00000060: 9392 09bd ee6e 33bd e718 473d 411a 843d
00000070: 5fee 9abd d0d1 663d ef61 953d 4449 b23d
00000080: d00b a53d 3c90 623d e0b9 d8bd ee8a 2e3d
00000090: 0ce6 b03d 4978 e63d 0e09 c8bd 9088 ecbc
000000a0: e347 d4bc fb84 ad3d 096b 083c 4d4b ed3d
000000b0: b088 933d a358 84bd cf32 723d 1c50 00bc
000000c0: 4b9e 933d 25f6 aabd ae1e f83c 7732 3f3c
000000d0: 8f4d 093d 03fd 1b3d 2a5a e53c 1083 4abc
000000e0: adb5 b3bd d922 6abd 73f3 d03a 60ba 063e
000000f0: f976 413d 2b06 d5bd 0831 87bd 4f99 b33d
00000100: 6027 0cbd 1222 ee3c 4c11 b1bb 75de 903c
00000110: fb8d 923d ae93 bf3b 0460 c53d 1374 f2bb
00000120: ed1d 7c3d 62da c7bc c47c 913d e2b8 9ebc
00000130: 106f 3d3d 0c9f b03d b784 813d 9617 1abd
00000140: 8783 2d3c fa7d 0e3c c8fc d43c 6500 3e3d
00000150: cab0 0abd 2dc7 78bd 2657 5e3d dd1a 1f3c
00000160: abf6 8bb8 f19d 06bd fe3a 0c3d 5f6b 1b3d
00000170: 6a4e be3d f998 e63d 8971 683d aa46 cf3d
00000180: 0456 743d 7c10 f5ba d414 bf3c 5bcb cf3d
00000190: a2d9 a4bd 6432 ba3c 58bc e73d 9167 053d
000001a0: 5fd0 c9bd 770e 6fbd 66c6 c3bd 92f0 533d
000001b0: 9022 a2b8 767e 17bd 185f 2b3d 4c36 eb3d
000001c0: 284c abbd 4cc2 8ebd 6c92 92bc b589 a3bd
000001d0: 03d7 f8bc 8b39 a7bd 7b5a 483d a166 01bd
000001e0: 69a9 ee3d d6b4 e03d 0838 d13d 62fd bcbc
000001f0: 10a3 bcbd 806e 113d 7ddb 86bd dd1d 673d

encoder.2.weight f4 [128, 128]
0.04170485 -0.058666717 0.047174662 0.073471 0.09568423 0.050465632 -0.08164549 0.038200557
0.040520642 0.06485795 -0.08958122 -0.002841307 0.06498882 0.02053076 0.07629958 0.06792421
0.0018479627 -0.050275255 -0.022625009 -0.06742385 0.053142585 0.00061699416 0.0033907103 0.05572571
0.07219103 -0.029335273 -0.015425113 0.04628974 0.064038254 -0.026723545 -0.0518225 -0.056201715
-0.0015812364 0.07753293 0.0685318 0.12938237 0.017032161 0.11501163 -0.03210195 0.06736397
-0.084345855 -0.0044896556 0.0044836653 -0.026295064 -0.030131904 -0.06305687 0.0010781822 -0.052979216
-0.013726402 -0.04760329 0.07720385 0.0030184528 -0.014147213 -0.036571875 0.056094166 0.036544323
0.0054726866 0.0005800342 -0.03179025 0.050859325 -0.069442265 -0.03646909 -0.018210445 -0.038053036
-0.057531998 -0.02653098 0.0077553433 -0.030750534 0.071858056 0.032816906 0.11792083 0.015387485
0.07712183 0.03395084 0.04867826 0.07758588 0.044875566 0.09210581 -0.042670462 -0.015844448
0.089558266 0.060011785 0.039620448 0.06329682 0.05094529 -0.015310702 0.077999 0.040057603
0.04543456 0.07577803 -0.07529084 0.10885254 -0.06455152 0.0005562551 0.00083356834 0.052804716
0.025571588 -0.026656704 -0.077640876 0.06498206 -0.0055810064 -0.05593167 0.07464051 0.11499608
0.0480348 0.06593977 0.018411627 -0.012638174 0.072713085 -0.025209274 0.09969289 0.0040779007
-0.039497457 0.013038736 0.0100382175 0.043832697 0.05473642 0.045813587 -0.037088554 0.11558521
-0.027852913 0.0011512573 -0.0331041 0.053853657 0.0375034 0.024696914 0.014068501 -0.028710686
0.039281733 0.060949717 0.05672331 0.030325916 -0.008900537 -0.088608064 0.08442108 0.046983078
0.039000567 0.029186187 0.049539905 -0.0367259 0.08443783 0.036571603 -0.052260116 -0.07252532
-0.077899374 0.0046062167 0.057904985 -0.011410318 0.07837054 0.034406845 0.09470298 -0.015884778
0.10357087 -0.03513366 0.007363574 0.01437627 -0.012457956 0.0749883 0.020686734 -0.0053345426
-0.065887414 -0.05059746 0.063752614 0.12661335 0.04761309 -0.014101338 0.07733141 0.0013461045
0.063955255 -0.039389484 -0.044730097 0.019902928 -0.008863202 0.0053068516 -0.045174353 -0.02986305
0.009862113 0.02611968 -0.07228842 -0.045705702 -0.041753247 0.06102064 -0.06853126 -0.03368963
0.073349275 0.03499597 -0.08493403 -0.052682336 0.029506912 0.0819196 -0.017753018 0.049151078
0.0019842368 -0.075713016 -0.0060020015 -0.00031946087 0.04279848 0.034653146 0.04771702 0.063888445
0.047209557 -0.049442507 -0.060064606 -0.050146397 -0.049500506 0.06407456 -0.06463824 -0.075879425
-0.083240375 0.0048521766 0.12108748 0.08616215 0.057900004 -0.05264807 0.011190297 -0.07831276
-0.0464555 -0.044518266 -0.040740985 -0.05215572 -0.043391023 0.078446165 -0.05996045 0.061316617
-0.028939603 -0.07742565 0.007859592 0.050066393 0.05949314 -0.04703689 0.09345393 0.074650824
0.07424186 -0.065383755 -0.02405095 0.0037959707 0.047709055 -0.010170219 0.024164058 -0.02367832
0.0016880487 0.050446454 0.025130918 -0.011333131 -0.008174708 0.05120331 -0.045281805 0.0035294255
0.07828018 0.041519787 0.06269889 -0.08867567 0.08726984 0.053853676 -0.037017178 0.004650393
00000000: b4d2 2a3d 834c 70bd 383a 413d f777 963d
00000010: 18f6 c33d 0db5 4e3d c035 a7bd 3078 1c3d
00000020: f9f8 253d 3fd4 843d 5c76 b7bd 3935 3abb
00000030: dc18 853d 2030 a83c f442 9c3d d91b 8b3d
00000040: 5737 f23a 6ded 4dbd 1558 b9bc 8415 8abd
00000050: 0aac 593d c7bd 213a ae36 5e3b a440 643d
00000060: e4d8 933d 8750 f0bc 9db9 7cbc 4f9a 3d3d
00000070: 7d26 833d 56eb dabc d443 54bd c533 66bd
00000080: 7d41 cfba 96c9 9e3d 665a 8c3d d07c 043e
00000090: 0887 8b3c 388b eb3d 567d 03bd 1ff6 893d
000000a0: 85bd acbd f61d 93bb b6eb 923b bf68 d7bc
000000b0: 2fd7 f6bc f623 81bd cb51 8d3a bc00 59bd
000000c0: b4e4 60bc abfb 42bd 0d1d 9e3d 3cd1 453b
000000d0: b6c9 67bc 64cc 15bd ffc2 653d 80af 153d
000000e0: 3954 b33b 700d 183a 7e36 02bd de51 503d
000000f0: bf37 8ebd 9d60 15bd 122e 95bc 80dd 1bbd
00000100: aca6 6bbd 7f57 d9bc 8920 fe3b 8be8 fbbc
00000110: 512a 933d 056b 063d 7a80 f13d ca1b 7c3c
00000120: 0df2 9d3d 0910 0b3d db62 473d 59e5 9e3d
00000130: 71cf 373d f9a1 bc3d 39c7 2ebd 37cc 81bc
00000140: 536a b73d ebce 753d 0d49 223d c3a1 813d
00000150: 02ac 503d bdd9 7abc f1bd 9f3d 7113 243d
00000160: 9719 3a3d 8331 9b3d 1532 9abd 15ee de3d
00000170: 9633 84bd a6d1 113a d383 5a3a c249 583d
00000180: 827b d13c 295f dabc 2e02 9fbd 5015 853d
00000190: e0e0 b6bb 9b18 65bd 20dd 983d 1183 eb3d
000001a0: 23c0 443d 6e0b 873d fbd3 963c 5810 4fbc
000001b0: 99ea 943d ae83 cebc c92b cc3d e99f 853b
000001c0: 16c8 21bd 6ca0 553c 5677 243c ea89 333d
000001d0: 4c33 603d 07a7 3b3d 2bea 17bd f0b7 ec3d
000001e0: cb2b e4bc c9e5 963a 2a98 07bd a795 5c3d
000001f0: 2a9d 193d 2f51 ca3c 927f 663c ac32 ebbc
00000200: e2e5 203d 69a6 793d b456 683d 0e6e f83c
00000210: 8fd3 11bc 2578 b5bd f6e4 ac3d 5471 403d
00000220: 0fbf 1f3d df17 ef3c 5bea 4a3d e66d 16bd
00000230: beed ac3d 1bcc 153d b40e 56bd 2888 94bd
00000240: b589 9fbd bfef 963b c72d 6d3d 58f2 3abc
00000250: bc80 a03d 31ee 0c3d a3f3 c13d cb20 82bc
00000260: f71c d43d 50e8 0fbd 234a f13b 728a 6b3c
00000270: 741c 4cbc 7793 993d 3a77 a93c 63cd aebb
00000280: fbef 86bd 483f 4fbd bb90 823d eea6 013e
00000290: f205 433d 4c09 67bc ee5f 9e3d c66f b03a
000002a0: f9fa 823d de56 21bd e836 37bd 770b a33c
000002b0: f736 11bc 19e5 ad3b be08 39bd 5ba3 f4bc
000002c0: b394 213c f0f8 d53c f30b 94bd e735 3bbd
000002d0: 7405 2bbd c7f0 793d 1e5a 8cbd 23fe 09bd
000002e0: 2538 963d ef57 0f3d e5f1 adbd 6fc9 57bd
000002f0: 7bb8 f13c 77c5 a73d c76e 91bc a452 493d
00000300: f809 023b 6d0f 9bbd 70ac c4bb 507d a7b9
00000310: 754d 2f3d 75f0 0d3d ec72 433d f2d7 823d
00000320: cf5e 413d 3a84 4abd 4e06 76bd 4f66 4dbd
00000330: 0bc1 4abd 8639 833d 0e61 84bd ac66 9bbd
00000340: ee79 aabd 02ff 9e3b b6fc f73d c875 b03d
00000350: 8e28 6d3d 81a5 57bd 8257 373c 7162 a0bd
00000360: 1f48 3ebd c958 36bd 05e0 26bd 3ca1 55bd
00000370: c9ba 31bd 62a8 a03d 1799 75bd 2227 7b3d
00000380: bf12 edbc 5791 9ebd 85c5 003c 6b12 4d3d
00000390: 14af 733d c1a9 40bd c664 bf3d 88e2 983d
000003a0: 1e0c 983d ebe7 85bd 7f06 c5bc d2c5 783b
000003b0: 926a 433d fda0 26bc b4f3 c53c 09f9 c1bc
000003c0: 8441 dd3a f1a0 4e3d 5bdf cd3c 99ae 39bc
000003d0: 36ef 05bc 90ba 513d 6a79 39bd ef4d 673b
000003e0: 5c51 a03d a710 2a3d 4768 803d 979b b5bd
000003f0: 88ba b23d ac95 5c3d 539f 17bd 5362 983b

encoder.2.bias f4 [128]
-0.047051087 0.09013721 -0.060349092 -0.020290466 -0.05220802 -0.035552856 0.06657983 0.03702169
0.05458185 -0.006279562 0.081838325 0.06941926 0.040841173 0.07483085 0.0037813464 0.052421298
-0.06432719 -0.009180062 0.018609453 0.08329888 -0.010674959 -0.042668123 -0.014196048 -0.011467198
-0.033323858 -0.035967454 0.0241562 -0.0422647 0.06879967 -0.0054854113 0.07395119 -0.043230686
0.06082015 0.09627651 -0.078810416 -0.05692153 -0.051403705 -0.03923086 0.016557613 -0.03482234
0.08156423 0.048677247 0.07981314 -0.052648254 0.02873998 0.07122776 -0.07600477 0.023099598
-0.049993902 -0.06631217 0.0651993 0.014259859 -0.093335 0.0150193805 0.010381741 0.010294506
0.018868208 0.07782246 -0.030441266 -0.009890191 0.08194595 -0.04754883 -0.033872988 -0.009805814
-0.05419337 -0.06490551 -0.004176844 -0.059058785 -0.008894958 -0.06267416 0.028723484 0.03649784
-0.06557563 -0.030729283 0.03823244 0.023183694 -0.01558917 -0.023895923 0.032190613 -0.05460638
0.03919387 0.05799027 -0.005040322 0.06827845 0.0017642719 0.056873906 -0.06661796 0.043931175
-0.040049825 -0.0026471391 -0.06818469 -0.06902087 -0.06489895 -0.02460363 -0.031461336 -0.059019674
-0.043330345 -0.04217667 -0.061584923 0.0045405896 -0.04998224 -0.08003457 0.029698534 0.044393435
0.009624832 -0.070283525 0.031068029 0.010677269 -0.059238873 0.081025876 -0.037314024 -0.027284358
0.02180263 0.023692546 0.03634897 0.06119095 0.06597907 0.05488825 -0.010549275 -0.0044905823
0.06088214 0.08115755 0.054072976 0.03376253 0.023748657 0.07254966 0.09165144 -0.047305275
00000000: a4b8 40bd dc99 b83d 9c30 77bd 3138 a6bc
00000010: 14d8 55bd df9f 11bd 025b 883d 0ea4 173d
00000020: 3891 5f3d c9c4 cdbb da9a a73d af2b 8e3d
00000030: 1349 273d eb40 993d 77d0 773b b7b7 563d
00000040: f9bd 83bd f967 16bc da72 983c 9a98 aa3d
00000050: 06e6 2ebc c5c4 2ebd 8a96 68bc eae0 3bbc
00000060: 997e 08bd 9c52 13bd 39e3 c53c c01d 2dbd
00000070: d7e6 8c3d f7be b3bb b973 973d a912 31bd
00000080: 8d1e 793d 9e2c c53d 5b67 a1bd 8d26 69bd
00000090: b18c 52bd 8ab0 20bd d5a3 873c dfa1 0ebd
000000a0: 260b a73d cb61 473d 1275 a33d b2a5 57bd
000000b0: 1b70 eb3c dcdf 913d 64a8 9bbd 5e3b bd3c
000000c0: 68c6 4cbd adce 87bd 3687 853d 2fa2 693c
000000d0: 6c26 bfbd d913 763c 2e18 2a3c 4aaa 283c
000000e0: 8091 9a3c 6261 9f3d f65f f9bc 780a 22bc
000000f0: 47d3 a73d 90c2 42bd 67be 0abd 91a8 20bc
00000100: def9 5dbd 2eed 84bd e8dd 88bb a0e7 71bd
00000110: 28bc 11bc 4f5b 80bd 834d eb3c c27e 153d
00000120: 844c 86bd fabb fbbc 9e99 1c3d bbeb bd3c
00000130: b869 7fbc 62c1 c3bc 4eda 033d f1aa 5fbd
00000140: c089 203d 3587 6d3d 4929 a5bb 92d5 8b3d
00000150: 243f e73a 9df4 683d ff6e 88bd 2df1 333d
00000160: 490b 24bd a07b 2dbb 6aa4 8bbd d05a 8dbd
00000170: bee9 84bd 8d8d c9bc 9add 00bd 9dbe 71bd
00000180: 297b 31bd 72c1 2cbd 7940 7cbd 3ac9 943b
00000190: 2dba 4cbd 2ae9 a3bd 574a f33c e4d5 353d
000001a0: 79b1 1d3c cff0 8fbd 6182 fe3c b6ef 2e3c
000001b0: 76a4 72bd e5f0 a53d 97d6 18bd 7283 dfbc
000001c0: 6e9b b23c df16 c23c a8e2 143d 5da3 7a3d
000001d0: 0920 873d 80d2 603d ded6 2cbc bc25 93bb
000001e0: 8d5f 793d ee35 a63d a07b 5d3d 944a 0a3d
000001f0: 8b8c c23c eb94 943d c0b3 bb3d 2dc3 41bd

encoder.4.weight f4 [128, 128]
0.06251741 0.051106125 -0.014711009 -0.06588895 -0.013881236 0.06389194 -0.001970924 0.08662254
-0.0063263113 -0.059919413 0.054404523 -0.020414673 -0.0559431 0.01566366 0.08871948 -0.042139605
0.112509534 0.07352715 -0.023181105 0.09373646 -0.029361714 0.061451208 -0.03367462 -0.016635181
-0.010216023 0.05979774 0.11795632 0.04675803 -0.085995175 0.06718094 0.10866507 -0.011223202
-0.08304854 0.09667461 -0.052370373 0.06939959 0.005633294 -0.104582116 0.023179857 -0.06567398
-0.029546987 -0.05541041 0.06771517 0.031678446 -0.030231986 0.08672235 -0.018278794 -0.017572936
0.09907186 0.016689314 0.053380877 -0.033345904 -0.08064298 0.017650742 0.04380504 0.087937534
-0.024106683 0.10922589 0.061229073 -0.0024330001 0.04823079 0.09327439 -0.027757136 -0.014562176
0.09009538 -0.009739558 0.02367413 0.01877918 -0.049691558 0.0019478202 -0.029464684 -0.01986202
-0.00034680462 0.114410885 -0.033373393 -0.0853276 -0.025614329 0.06853433 0.06758694 -0.07730453
0.0456048 0.10593857 0.07100768 0.024509186 0.10712271 0.04589642 -0.09966019 -0.021724386
-0.08777819 0.04526614 0.07149811 0.09151904 -0.075095676 0.05327669 0.016566379 0.039410945
0.042558298 0.043734867 -0.036564916 -0.030397741 0.028146312 0.014399877 0.09749065 0.073304445
0.014754162 0.08142733 0.088689126 0.030449148 -0.009732986 0.02824323 -0.08823812 0.05125779
-0.004636711 -0.056992464 0.042326164 -0.08908121 0.09586342 -0.09756228 -0.033436354 -0.07147039
-0.038410503 -0.032821644 -0.051175524 0.09158459 -0.0751803 0.014619656 -0.015217051 0.08781591
0.04168269 0.04373157 0.09859575 -0.021492066 -0.05207077 -0.034870457 0.10256539 -0.030087335
0.0060460395 0.026019277 -0.008181931 -0.05647324 0.015179101 0.021066438 -0.0019536468 0.037709296
0.07351709 -0.052158874 -0.028976824 0.008209897 -0.018111985 -0.03678188 0.014972473 0.0902826
0.035529543 0.08057377 0.051808335 0.086358115 0.03209249 -0.02706068 0.017336857 -0.07236277
0.08609261 -0.020580407 0.015090045 0.0153459525 0.03275801 0.017436875 0.010717606 -0.04539774
0.034450136 0.014448869 -0.03296427 0.110977955 0.053800914 0.052994817 0.015377587 -0.045902483
-0.055544756 -0.03329209 0.08941561 -0.0736728 0.070634566 -0.03217092 0.0750093 -0.067378335
0.11028539 -0.0138098495 0.11282785 -0.02115227 0.05938674 0.033499654 0.06369808 0.14508855
-0.09553358 0.055418506 -0.050750542 0.0048531736 0.006488774 0.0336594 -0.074142076 -0.067583635
-0.018962668 -0.027192319 -0.08448723 0.05719972 0.046334427 0.082502 -0.05810245 0.01028445
0.044048257 0.024665112 0.0052548223 -0.00967273 0.012309054 0.04740692 0.002834971 0.036475923
-0.026196145 0.037515774 0.06616474 -0.014351633 0.013259404 -0.10192822 -0.062428247 0.07790153
0.037051115 0.10704783 0.06650586 -0.06313763 -0.034264993 -0.037405897 -0.09159083 0.0778341
-0.018398263 0.06356801 -0.09541066 0.006913767 -0.02547284 0.11170186 -0.044482443 -0.121136114
-0.092156544 0.020865235 -0.00031661012 0.0627448 -0.035190705 0.1361227 -0.013486332 0.09725928
0.025675088 0.026531415 0.05818894 -0.04565081 0.025967717 0.062147714 -0.10467614 0.044801325
00000000: 2109 803d a854 513d 7206 71bc c9f0 86bd
00000010: 206e 63bc c7d9 823d 9e2a 01bb 2967 b13d
00000020: f24c cfbb 0f6e 75bd 47d7 5e3d ac3c a7bc
00000030: 9824 65bd 1351 803c 8fb2 b53d 949a 2cbd
00000040: 666b e63d 6795 963d 4de6 bdbc e7f8 bf3d
00000050: fa87 f0bc 43b4 7b3d 66ee 09bd 8146 88bc
00000060: 1b61 27bc 7aee 743d 1593 f13d 5985 3f3d
00000070: 3d1e b0bd 2996 893d cb8b de3d 85e1 37bc
00000080: 5a15 aabd 57fd c53d 5182 56bd 5f21 8e3d
00000090: 7f97 b83b 262f d6bd afe3 bd3c 1480 86bd
000000a0: 860c f2bc 07f6 62bd 40ae 8a3d 42c1 013d
000000b0: 12a9 f7bc 7d9b b13d 69bd 95bc 1ef5 8fbc
000000c0: 30e6 ca3d 07b8 883c e8a5 5a3d b795 08bd
000000d0: 2628 a5bd 4a98 903c ea6c 333d 9818 b43d
000000e0: 617b c5bc d3b1 df3d 56cb 7a3d f872 1fbb
000000f0: a68d 453d a506 bf3d ef62 e3bc 3196 6ebc
00000100: ed83 b83d ab92 1fbc 40f0 c13c cbd6 993c
00000110: 6089 4bbd 004e ff3a ec5f f1bc adb5 a2bc
00000120: 54d3 b5b9 4150 ea3d 8ab2 08bd 3dc0 aebd
00000130: 24d5 d1bc ba5b 8c3d 066b 8a3d d651 9ebd
00000140: 19cc 3a3d 52f6 d83d 796c 913d 7dc7 c83c
00000150: 2763 db3d e2fd 3b3d a41a ccbd 57f7 b1bc
00000160: 0dc5 b3bd fd68 393d 9a6d 923d 566e bb3d
00000170: c3cb 99bd a938 5a3d 37b6 873c 5f6d 213d
00000180: 9c51 2e3d 5523 333d 18c5 15bd af04 f9bc
00000190: 1893 e63c 76ed 6b3c 2ea9 c73d a420 963d
000001a0: 71bb 713c 5fc3 a63d a5a2 b53d 7e70 f93c
000001b0: 1a77 1fbc 595e e73c 30b6 b4bd b0f3 513d
000001c0: 8def 97bb ee70 69bd 335e 2d3d 3670 b6bd
000001d0: 0a54 c43d bcce c7bd 8ff4 08bd 115f 92bd
000001e0: 5554 1dbd fd6f 06bd 6d9d 51bd b490 bb3d
000001f0: 21f8 99bd 4887 6f3c f050 79bc d4d8 b33d
00000200: 78bb 2a3d e01f 333d 92ec c93d 2110 b0bc
00000210: 2948 55bd 53d4 0ebd ce0d d23d b779 f6bc
00000220: db1d c63b 6126 d53c 820d 06bc 7c50 67bd
00000230: c4b1 783c 8693 ac3c c108 00bb 1075 1a3d
00000240: 2190 963d 8ba4 55bd ce60 edbc ce82 063c
00000250: 965f 94bc 99a8 16bd 1a4f 753c 15e6 b83d
00000260: 6d87 113d dc03 a53d fa34 543d 86dc b03d
00000270: 6a73 033d 5cae ddbc 0606 8e3c ef32 94bd
00000280: 5351 b03d 3e98 a8bc 3c3c 773c 976d 7b3c
00000290: 432d 063d c7d7 8e3c e698 2f3c fbf2 39bd
000002a0: 961b 0d3d f3ba 6c3c 8b05 07bd 6948 e33d
000002b0: 595e 5c3d 1811 593d 46f2 7b3c 3e04 3cbd
000002c0: e682 63bd 495d 08bd 881f b73d c4e1 96bd
000002d0: dba8 903d a8c5 03bd 7a9e 993d a7fd 89bd
000002e0: 4edd e13d b542 62bc 4a12 e73d 8647 adbc
000002f0: 833f 733d ef36 093d 2474 823d 1892 143e
00000300: 1ca7 c3bd 84fe 623d cddf 4fbd 5f07 9f3b
00000310: c89f d43b 70de 093d cdd7 97bd 4a69 8abd
00000320: 9957 9bbc 6dc2 debc a407 adbd 414a 6a3d
00000330: 2bc9 3d3d cff6 a83d d6fc 6dbd 1c80 283c
00000340: f26b 343d 7d0e ca3c a530 ac3b 5f7a 1ebc
00000350: eaab 493c c22d 423d ecca 393b c767 153d
00000360: 4c99 d6bc 24aa 193d 6181 873d 1d23 6bbc
00000370: f93d 593c bebf d0bd c3b4 7fbd d68a 9f3d
00000380: e9c2 173d e53b db3d 3934 883d 4d4e 81bd
00000390: 7359 0cbd ed36 19bd f993 bbbd 7c67 9f3d
000003a0: f4b7 96bc f22f 823d aa66 c3bd e28c e23b
000003b0: 6bac d0bc f2c3 e43d 3933 36bd 3616 f8bd
000003c0: 92bc bcbd 92ed aa3c b1fe a5b9 5880 803d
000003d0: 2124 10bd c063 0b3e c7f5 5cbc e02f c73d
000003e0: 9054 d23c 6958 d93c 8757 6e3d 58fc 3abd
000003f0: 40ba d43c 9a8e 7e3d 7260 d6bd 9881 373d

encoder.4.bias f4 [128]
-0.06632178 -0.035096783 0.0057782982 0.006993333 0.09001628 0.0012930732 -0.09371321 -0.014406131
-0.07366377 0.03435094 -0.055685006 -0.04783244 0.0477637 0.006534532 0.056882173 0.038115524
0.07001199 0.04963045 0.055420216 0.005047646 -0.046758585 -0.032421667 0.05301114 -0.06232233
-0.058876447 0.054020464 0.05946741 -0.060730536 -0.0076456633 0.01259057 0.08594335 0.08650964
0.018333629 -0.06078713 -0.079450764 0.03388915 0.010096162 -0.06983403 0.07028835 0.074732736
0.023733344 -0.0021310207 -0.07720607 -0.052874543 0.03433904 0.0075051337 0.043747853 0.047507953
0.012444495 0.02512788 -0.08197233 -0.07651399 -0.05435386 0.056668416 -0.038316403 -0.09153737
0.015103668 0.00922284 -0.0004646863 0.061645377 -1.9460324e-05 0.025431102 0.05385882 -0.0690683
0.066821605 0.04150325 0.012378319 -0.07828976 -0.08378943 -0.02734986 0.02065717 0.045827605
-0.06807762 0.007284598 -0.037818953 -0.07225716 0.028231282 0.06150578 0.08553518 -0.0875511
-0.018786237 -0.07590404 -0.0815489 0.039363056 -0.06194279 -0.03246233 0.046236712 0.001710315
0.030960891 0.061548807 -0.078143895 -0.02521794 0.06935063 0.0670601 -0.00028017434 -0.07336932
0.045507018 -0.003910208 0.00015052808 0.064001456 0.01803636 -0.052556403 -0.017117878 -0.023144506
0.03735711 0.01744349 -0.06348454 -0.07434877 0.055392515 0.07485231 -0.016868822 -0.04964166
-0.0771096 -0.025540877 -0.06281961 -0.025672993 -0.072011806 -0.027985752 0.015949925 0.007316521
0.051753454 0.06650741 0.057293408 -0.080458604 0.06536006 -0.050575655 0.059616566 -0.016982872
00000000: b7d3 87bd a5c1 0fbd e157 bd3b 5428 e53b
00000010: 755a b83d 567c a93a b6ec bfbd b107 6cbc
00000020: 08dd 96bd 92b3 0c3d f615 64bd f3eb 43bd
00000030: dfa3 433d a11f d63b 48fd 683d 061f 1c3d
00000040: 7262 8f3d 4c49 4b3d 4f00 633d b966 a53b
00000050: ee85 3fbd 95cc 04bd 3622 593d b345 7fbd
00000060: 6e28 71bd 9044 5d3d 1994 733d 95c0 78bd
00000070: 7988 fabb ae48 4e3c 1103 b03d f72b b13d
00000080: 6830 963c edfb 78bd 15b7 a2bd 59cf 0a3d
00000090: 5f6a 253c 2505 8fbd 57f3 8f3d 7a0d 993d
000000a0: 6e6c c23c 98a8 0bbb 371e 9ebd fa92 58bd
000000b0: 18a7 0c3d a0ed f53b f330 333d b397 423d
000000c0: ffe3 4b3c fcd8 cd3c 1ce1 a7bd 5eb3 9cbd
000000d0: 27a2 5ebd 241d 683d a9f1 1cbd f277 bbbd
000000e0: 6075 773c 651b 173c 24a1 f3b9 dd7f 7c3d
000000f0: ba3e a3b7 e354 d03c 119b 5c3d ae73 8dbd
00000100: c4d9 883d 50ff 293d 6fce 4a3c 6256 a0bd
00000110: cb99 abbd d00c e0bc 3a39 a93c bab5 3b3d
00000120: 476c 8bbd a3b3 ee3b 0ce8 1abd 90fb 93bd
00000130: 4a45 e73c 7ced 7b3d 122d af3d fe4d b3bd
00000140: 98e5 99bc 9473 9bbd 1c03 a7bd 283b 213d
00000150: b9b7 7dbd 38f7 04bd b562 3d3d a62c e03a
00000160: b2a1 fd3c 9a1a 7c3d e809 a0bd da95 cebc
00000170: b407 8e3d ce56 893d 5de4 92b9 a742 96bd
00000180: 9165 3a3d 3421 80bb 13d7 1d39 3213 833d
00000190: fdc0 933c 6245 57bd cb3a 8cbc 8c99 bdbc
000001a0: c503 193d a6e5 8e3c 2f04 82bd 2b44 98bd
000001b0: 43e3 623d 2b4c 993d 7c30 8abc 0e55 4bbd
000001c0: a3eb 9dbd 1a3b d1bc 91a7 80bd 2b50 d2bc
000001d0: ed7a 93bd 6042 e5bc 6ba9 823c 6dbf ef3b
000001e0: 6efb 533d 0935 883d 7eac 6a3d 7bc7 a4bd
000001f0: 7fdb 853d 6b28 4fbd 8030 743d aa1f 8bbc

decoder.0.weight f4 [128, 128]
0.07899483 0.073927306 -0.019597346 0.025505757 0.053763404 0.007010196 -0.024756461 -0.07569614
-0.036079958 -0.028769746 0.067277186 -0.016485665 -0.09019864 0.04424254 0.038770836 0.036743805
-0.07042727 -0.069284976 -0.07186807 0.05244201 0.01599337 0.0037150397 0.062112194 -0.08910033
-0.02902319 -0.012861669 0.03678486 -0.06893228 0.064002134 0.056279268 -0.008327441 -0.057880614
0.03280806 0.068137474 -0.013352238 -0.03889942 -0.03344874 0.03335041 -0.02338525 -0.039796215
0.01129193 -0.042748157 -0.027118417 -0.08319739 -0.07734997 0.045778655 -0.08602209 0.07210332
-0.040991053 0.03908646 0.008544677 -0.009369514 -0.033701442 0.02430227 -0.018766284 -0.035487197
0.07004995 -0.09217885 -0.04363751 0.039748292 0.054786045 0.054663334 -0.05533542 0.07043266
-0.06469308 0.07660632 0.055384472 0.026857302 0.09547639 -0.034902927 -0.03799672 0.023493098
0.037449036 -0.062564515 0.026948428 0.017950587 0.0182268 -0.08618952 -0.07256574 -0.039893433
-0.017480055 -0.010086802 0.09404383 -0.011331953 0.008766188 -0.052163787 0.039725866 -0.020183282
-0.06813867 0.07803032 -0.00018271341 -0.059837203 0.08197916 0.010680908 0.012903279 0.037485175
0.003869607 0.05094465 0.08193359 -0.053946737 0.01586024 0.0003611264 -0.039967015 -0.073195875
0.013416246 0.04887875 -0.056804262 -0.07277549 0.09038593 0.034871157 0.08399843 -0.0076167784
0.015456066 -0.020803533 -0.0012929086 -0.05212708 -0.038098253 0.022997882 0.014699614 0.0057556224
0.014043741 -0.0819638 0.020737264 0.06352891 0.057381637 -0.07165131 -0.019804532 0.057095937
0.08010105 -0.058292314 -0.06768686 -0.030539948 0.070399754 -0.01315552 0.005520355 0.033703554
0.036949545 -0.05791292 0.03729991 -0.02437267 0.010211743 -0.006238716 -0.05308801 0.052626558
-0.050242648 0.06702078 -0.088631056 -0.06705666 -0.004174596 -0.05139113 -0.02929991 -0.04153164
0.03991112 0.09374582 0.07466139 -0.00057428784 0.07004323 0.030744271 -0.011944988 -0.015155015
0.016079554 -0.062497538 0.045367103 0.030092977 0.009456749 -0.011847162 -0.0065182215 -0.07327987
-0.011417709 0.036008954 0.056873366 0.08125591 -0.017216744 0.068934046 -0.05423139 0.028150227
-0.056558978 0.005192058 0.07997754 -0.010395729 -0.0266997 -0.005043389 -0.08348561 0.06064389
-0.076897 -0.07508293 -0.009313045 0.017430332 0.06727727 -0.041426074 -0.068679206 -0.014993742
-0.07359346 -0.06467581 0.07970411 -0.02141456 0.06283307 0.01042024 -0.084098876 0.0037691258
-0.014282411 -0.07063548 0.03781842 0.02455616 0.06834075 -0.089283764 -0.06931315 -0.07330717
-0.056154627 0.022298977 0.026466887 0.05299906 0.02860829 -0.037507407 0.035527207 0.026986692
0.015470205 -0.0688242 0.041720454 0.06675328 0.0010933788 0.08052031 -0.08454553 0.07337617
-0.045257606 0.02512687 0.029762356 0.031594135 -0.03496101 -0.07944995 -0.07204004 -0.080192156
-0.044944167 -0.022109738 0.020523073 0.030297913 0.00917501 -0.008130111 0.055168174 -0.023774458
0.07477016 0.070754476 0.023072807 0.03839034 0.054500982 -0.03996583 0.03230413 -0.07090968
-0.039018184 -0.06065401 -0.06221678 -0.023911864 -0.08821977 -0.06746655 -0.030070877 0.040244646
00000000: 0bc8 a13d 3367 973d 9d8a a0bc 73f1 d03c
00000010: 0437 5c3d c9b5 e53b 10ce cabc 9406 9bbd
00000020: 94c8 13bd 88ae ebbc 9fc8 893d f20c 87bc
00000030: 11ba b8bd aa37 353d 2bce 1e3d ac80 163d
00000040: 2c3c 90bd 48e5 8dbd 912f 93bd 6fcd 563d
00000050: 8704 833c 0678 733b 5b69 7e3d 3c7a b6bd
00000060: 0ac2 edbc c0b9 52bc b9ab 163d 5e2c 8dbd
00000070: 8d13 833d 1785 663d d26f 08bc 3914 6dbd
00000080: bf61 063d a98b 8b3d 58c3 5abc 0055 1fbd
00000090: 8c01 09bd 719a 083d 6c92 bfbc 5b01 23bd
000000a0: ca01 393c b118 2fbd 7127 debc 6563 aabd
000000b0: a969 9ebd 6682 3b3d 592c b0bd e8aa 933d
000000c0: 3ce6 27bd 2019 203d f9fe 0b3c 9782 19bc
000000d0: 860a 0abd 8e15 c73c c0bb 99bc 065b 11bd
000000e0: 5976 8f3d 44c8 bcbd 3fbd 32bd 1bcf 223d
000000f0: 5567 603d a9e6 5f3d 65a7 62bd 003f 903d
00000100: ce7d 84bd c6e3 9c3d d4da 623d d803 dc3c
00000110: 2089 c33d 5ff6 0ebd 73a2 1bbd 9974 c03c
00000120: 2964 193d d321 80bd f3c2 dc3c 1c0d 933c
00000130: 5f50 953c 2284 b0bd 599d 94bd 4c67 23bd
00000140: 5532 8fbc 1d43 25bc 0d9a c03d a8a9 39bc
00000150: 0fa0 0f3c b2a9 55bd 97b7 223d 6957 a5bc
00000160: 498c 8bbd 5cce 9f3d c296 3fb9 db17 75bd
00000170: b1e4 a73d fafe 2e3c 4668 533c 0e8a 193d
00000180: 3c99 7d3b 56ab 503d cccc a73d 41f7 5cbd
00000190: 56ed 813c 9155 bd39 74b4 23bd b8e7 95bd
000001a0: d0cf 5b3c 1635 483d 96ab 68bd 510b 95bd
000001b0: 421c b93d 0fd5 0e3d 5e07 ac3d 2b96 f9bb
000001c0: 703b 7d3c 2c6c aabc d076 a9ba 3483 55bd
000001d0: ea0c 1cbd 0e66 bc3c a6d6 703c a999 bc3b
000001e0: b817 663c a3dc a7bd 32e1 a93c 721b 823d
000001f0: 0209 6b3d ecbd 92bd 1d3d a2bc 6edd 693d
00000200: 050c a43d ecc3 6ebd 699f 8abd ea2e fabc
00000210: bf2d 903d 408a 57bc 18e4 b43b bd0c 0a3d
00000220: 6858 173d 1936 6dbd cac7 183d 32a9 c7bc
00000230: 284f 273c 256e ccbb d072 59bd f28e 573d
00000240: 3ccb 4dbd 3142 893d 3384 b5bd 0155 89bd
00000250: 0dcb 88bb 817f 52bd 5d06 f0bc 151d 2abd
00000260: d879 233d cffd bf3d 12e8 983d ce8b 16ba
00000270: d372 8f3d 69db fb3c e9b4 43bc bd4c 78bc
00000280: 45b9 833c 6bfd 7fbd dbd2 393d 8c85 f63c
00000290: 7bf0 1a3c 991a 42bc ce96 d5bb c213 96bd
000002a0: 5811 3bbc 207e 133d 0cf4 683d 8069 a63d
000002b0: 210a 8dbc 4b2d 8d3d bc21 5ebd 4e9b e63c
000002c0: 63aa 67bd 2422 aa3b 44cb a33d d952 2abc
000002d0: 54b9 dabc 0343 a5bb 81fa aabd ba65 783d
000002e0: 2d7c 9dbd 14c5 99bd be95 18bc 0eca 8e3c
000002f0: aac8 893d 63ae 29bd afa7 8cbd 50a8 75bc
00000300: 2bb8 96bd c074 84bd e93b a33d 966d afbc
00000310: a0ae 803d a8b9 2a3c 083c acbd 7003 773b
00000320: c600 6abc 56a9 90bd 7de7 1a3d 002a c93c
00000330: 3cf6 8b3d 68da b6bd 0ef4 8dbd 1222 96bd
00000340: 6502 66bd 58ac b63c 16d1 d83c 8b15 593d
00000350: ef5b ea3c 5ea1 19bd fa84 113d 3213 dd3c
00000360: be76 7d3c b4f3 8cbd 11e3 2a3d f2b5 883d
00000370: b44f 8f3a d5e7 a43d 3526 adbd 3f46 963d
00000380: 0a60 39bd ded6 cd3c 2fd0 f33c da68 013d
00000390: 4733 0fbd a8b6 a2bd ba89 93bd c93b a4bd
000003a0: 6017 38bd 7b1f b5bc 0120 a83c 5433 f83c
000003b0: c852 163c 2834 05bc 06f8 613d a7c2 c2bc
000003c0: 1921 993d b9e7 903d 2f03 bd3c 303f 1d3d
000003d0: 6c3c 5f3d 36b3 23bd 5651 043d 1839 91bd
000003e0: 88d1 1fbd 5770 78bd 06d7 7ebd d0e2 c3bc
000003f0: 91ac b4bd e72b 8abd 3357 f6bc 92d7 243d

decoder.0.bias f4 [128]
-0.042806778 0.00039420073 -0.0030409694 0.039124083 0.03251753 -0.019676866 -0.008417989 0.06990554
-0.08842942 -0.059406936 0.06005893 -0.050844565 0.06237582 0.053756483 0.025513792 0.04047278
-0.070635915 -0.038284756 -0.0743912 -0.03646583 -0.05721466 -0.051209208 0.09276886 -0.0037090464
0.053927135 -0.03367848 -0.011420779 -0.041948654 -0.040366933 0.089212336 -0.028884593 0.030591704
-0.032261297 0.07153808 0.0025472832 0.057200383 -0.043935042 0.055454828 0.06761733 0.07927352
0.008067511 -0.0731025 0.018793387 0.0036272882 0.011568595 0.06429977 -0.062426314 -0.07398065
-0.03506447 -0.032218315 0.05413902 -0.066289075 0.06476824 -0.031449527 0.019959958 0.032064036
-0.07907457 0.064818956 -0.007538162 0.030392945 0.013712681 -0.021187421 0.06741011 -0.04376515
-0.05151814 -0.03011169 0.015825344 0.08166482 0.06397255 -0.029955076 0.033280574 0.030270806
0.07723074 -0.04051405 -0.033329044 0.0708965 -0.03256454 -0.009057922 0.0027341365 0.06389397
-0.05330341 0.06353476 -0.0664504 0.04801189 -0.07321171 0.070774555 0.04222423 -0.044003375
0.059379704 -0.03665309 -0.007443661 -0.08694111 0.013039733 0.025147423 -0.04679984 0.06481219
0.047866747 0.0068861973 -0.025004672 -0.02666291 0.020739846 -0.014520115 0.08736517 0.07014819
0.062606946 -0.06279604 0.011106603 -0.025380572 -0.07727413 0.038935717 -0.044303082 -0.09186999
0.04730666 -0.05844809 0.063900426 -0.027966497 0.036850024 0.036304552 0.057282384 -0.08652693
0.016413942 -0.05771136 0.028448097 -0.082932636 0.026575075 -0.06509999 0.09566961 -0.043536216
00000000: 2956 2fbd baac ce39 004b 47bb 9340 203d
00000010: 1a31 053d 6131 a1bc 9beb 09bc a32a 8f3d
00000020: 7c1a b5bd b054 73bd 5a00 763d 6442 50bd
00000030: ca7d 7f3d c22f 5c3d 4d02 d13c c9c6 253d
00000040: 90a9 90bd 7ad0 1cbd 6a5a 98bd 325d 15bd
00000050: eb59 6abd bfc0 51bd 9afd bd3d 7913 73bb
00000060: b3e2 5c3d 72f2 09bd 381e 3bbc 5ad2 2bbd
00000070: cc57 25bd f5b4 b63d 629f ecbc 749b fa3c
00000080: 6c24 04bd 8f82 923d 52f0 263b f34a 6a3d
00000090: 3bf5 33bd 9a24 633d f47a 8a3d 285a a23d
000000a0: 982d 043c c3b6 95bd 97f4 993c ccb7 6d3b
000000b0: 348a 3d3c 99af 833d bcb2 7fbd 2b83 97bd
000000c0: c39f 0fbd 5af7 03bd e1c0 5d3d 91c2 87bd
000000d0: 36a5 843d 38d1 00bd 1183 a33c 9455 033d
000000e0: d9f1 a1bd cdbf 843d b002 f7bb a0fa f83c
000000f0: 27ab 603c 3e91 adbc 500e 8a3d 1643 33bd
00000100: af04 53bd caac f6bc 27a4 813c e33f a73d
00000110: 0a04 833d 5964 f5bc 3651 083d 7bfa f73c
00000120: 262b 9e3d 0ff2 25bd 0984 08bd 2f32 913d
00000130: 6562 05bd ae67 14bc 332f 333b d7da 823d
00000140: ad54 5abd 831e 823d 2617 88bd 1ea8 443d
00000150: 05f0 95bd 40f2 903d 50f3 2c3d e23c 34bd
00000160: 2238 733d 8d21 16bd f4e9 f3bb 2e0e b2bd
00000170: 9ba4 553c f801 ce3c 30b1 3fbd 41bc 843d
00000180: ec0f 443d 9ca5 e13b 99d6 ccbc 2d6c dabc
00000190: 9ce6 a93c c7e5 6dbc 83ec b23d dba9 8f3d
000001a0: 1238 803d 369b 80bd 78f8 353c ebea cfbc
000001b0: e641 9ebd 0f7b 1f3d 2677 35bd 5526 bcbd
000001c0: a1c4 413d 4467 6fbd 3ade 823d ff19 e5bc
000001d0: 0df0 163d 15b4 143d efa0 6a3d 0835 b1bd
000001e0: 8876 863c bf62 6cbd fc0b e93c 96d8 a9bd
000001f0: f9b3 d93c 2553 85bd 6eee c33d 0853 32bd

decoder.2.weight f4 [7, 128]
0.00027226136 -0.0076329983 -0.026425578 -0.015861258 0.019210499 0.0020067643 -0.027566435 -0.013302403
-0.00431445 0.0617408 -0.08016431 0.066146426 -0.104652956 -0.043381095 0.09958829 0.050412476
0.020920506 0.01540112 -0.045129918 0.0154529195 -0.10290354 -0.095615745 -0.13934103 -0.083839856
-0.052494727 0.011802734 0.057544563 0.039147492 -0.017845284 -0.1375783 -0.0763987 -0.05358813
-0.086888656 -0.07707482 0.09578042 -0.09043881 0.015373653 0.014997758 -0.09364264 0.10336558
-0.048659403 0.06629746 -0.047726367 -0.01371781 0.026162194 -0.021597711 0.018515449 0.019721704
-0.058037434 -0.12445439 -0.021546986 -0.06714256 0.0650023 0.00020441443 -0.12659906 -0.06795025
-0.028071137 -0.026924936 -0.018795146 -0.024406731 -0.11251223 0.048292395 -0.07356127 0.067979835
-0.06507832 -0.08789585 0.06680671 -0.08961132 0.019680962 -0.062452264 -0.0075749448 0.09030986
0.13121195 0.021278195 0.08313318 0.05212001 -0.03151393 0.012480905 -0.0792569 -0.0357227
-0.15702544 0.073597364 0.008879016 -0.053222492 0.05373046 0.10772277 0.038464878 -0.024482371
0.08281807 0.07433434 0.027097287 -0.052754123 0.007829854 0.07971283 0.105345726 0.12265424
0.033203408 -0.06566519 0.10286156 0.008129869 0.021287221 0.05774023 0.018827343 -0.1286398
-0.04809994 0.123032026 -0.09024078 0.043076046 -0.0819605 -0.049691707 -0.17074995 0.042524297
-0.14756767 -0.0339539 0.057941295 0.01833732 -0.16806029 -0.15910894 0.10082285 -0.0056528994
-0.0193303 -0.023685673 -0.11101321 -0.07171166 0.006982555 -0.048666533 -0.08559401 -0.10622731
-0.0046475357 0.008977411 0.054022215 0.07316798 0.051947575 -0.02956204 -0.04085484 0.0065304595
0.0635002 -0.051832896 -0.05870065 -0.06406205 -0.08745873 -0.016333468 0.095698565 0.10545017
-0.08391708 -0.06460534 -0.05632721 0.026598992 -0.09332798 -0.09772127 -0.02362608 0.039575394
-0.09397283 -0.16892776 0.05679671 -0.002007089 0.03307114 0.049486507 0.039354168 0.029996594
0.04255216 -0.07201411 0.032085374 -0.017303187 -0.010151578 -0.021671403 -0.07946566 -0.056901645
0.1021774 -0.08059935 0.002603272 0.06293642 -0.060790524 0.046869524 0.108984165 0.033408925
0.08566256 -0.08124728 -0.0099258665 0.0533507 -0.02796085 0.030108832 -0.05355981 -0.05603303
-0.092181444 0.030755326 -0.11662101 0.032868657 -0.08072641 0.047790483 -0.040728576 0.04441341
0.056598563 0.016332537 -0.07796994 -0.015868261 -0.030873561 0.018651718 0.10220839 -0.042865288
-0.05893042 0.07043805 0.0903855 -0.06691334 -0.099241614 -0.05711258 0.031625245 0.03545842
-0.12558328 0.045187205 -0.06055364 -0.1220557 0.10168645 0.03631867 0.06549138 -0.09422296
-0.03974926 -0.039835542 -0.025067147 0.0038774014 -0.13490212 -0.01974158 0.104071856 0.016151048
0.035373878 -0.026976021 -0.0593329 -0.06567606 -0.04934524 -0.02097948 0.09321216 -0.042123195
0.10116415 0.028889675 -0.07937269 0.010038744 -0.038394503 -0.12930457 -0.13402946 0.017608961
-0.020305647 0.033147816 -0.016539969 0.04065744 -0.10765403 -0.02075875 0.023796892 -0.058984682
-0.06439649 0.033230405 0.06723842 0.08070424 -0.061110493 -0.022424543 0.018707925 -0.051866036
00000000: 4dbe 8e39 3b1e fabb 747a d8bc 78ef 81bc
00000010: 565f 9d3c eb83 033b 01d3 e1bc 52f2 59bc
00000020: 3b60 8dbb ece3 7c3d 302d a4bd c777 873d
00000030: 4a54 d6bd 60b0 31bd f2f4 cb3d 507d 4e3d
00000040: 7b61 ab3c fb54 7c3c 26da 38bd 3e2e 7d3c
00000050: 17bf d2bd 30d2 c3bd 6aaf 0ebe 3bb4 abbd
00000060: b604 57bd 4160 413c d9b3 6b3d 1f59 203d
00000070: 4630 92bc 53e1 0cbe ec76 9cbd 3a7f 5bbd
00000080: aef2 b1bd 67d9 9dbd 8628 c43d fc37 b9bd
00000090: c6e1 7b3c 28b9 753c b6c7 bfbd 55b1 d33d
000000a0: 154f 47bd f6c6 873d b97c 43bd aac0 60bc
000000b0: 1952 d63c afed b0bc b6ad 973c 698f a13c
000000c0: a9b8 6dbd f1e1 febd 4e83 b0bc 0a82 89bd
000000d0: ed1f 853d 1558 5639 2fa3 01be 8029 8bbd
000000e0: 71f5 e5bc af91 dcbc 47f8 99bc a0f0 c7bc
000000f0: d06c e6bd 3fce 453d 4ba7 96bd 0339 8b3d
00000100: c847 85bd bd02 b4bd f5d1 883d 2486 b7bd
00000110: f839 a13c f2cd 7fbd 3e37 f8bb 60f4 b83d
00000120: 6d5c 063e 9c4f ae3c bb41 aa3d cb7b 553d
00000130: c014 01bd b67c 4c3c 7151 a2bd f751 12bd
00000140: 47cb 20be 37ba 963d 4b79 113c d4ff 59bd
00000150: 7914 5c3d c19d dc3d 598d 1d3d 418f c8bc
00000160: 859c a93d 9a3c 983d 21fb dd3c b514 58bd
00000170: ca48 003c 7b40 a33d 80bf d73d 2532 fb3d
00000180: 4c00 083d 797b 86bd 15a9 d23d 2433 053c
00000190: 8a62 ae3c 0581 6c3d cd3b 9a3c 27ba 03be
000001a0: 7104 45bd 37f8 fb3d 28d0 b8bd 8270 303d
000001b0: e8da a7bd 8889 4bbd 13d9 2ebe f52d 2e3d
000001c0: fb1b 17be 3f13 0bbd da53 6d3d 2638 963c
000001d0: ff17 2cbe 74ed 22be 367c ce3d f53b b9bb
000001e0: 945a 9ebc 7508 c2bc e55a e3bd 90dd 92bd
000001f0: ebcd e43b 8f56 47bd ea4b afbd b48d d9bd
00000200: 5b4a 98bb fe15 133c 6646 5d3d 18d9 953d
00000210: fbc6 543d 172c f2bc 6857 27bd 77fd d53b
00000220: 650c 823d bb4e 54bd 1870 70bd f732 83bd
00000230: 901d b3bd c4cd 85bc 9cfd c33d 42f6 d73d
00000240: b8dc abbd ce4f 84bd 5cb7 66bd 21e6 d93c
00000250: bd22 bfbd 1722 c8bd 7b8b c1bc cf19 223d
00000260: d474 c0bd 66fb 2cbe aba3 683d 5e89 03bb
00000270: 9b75 073d 5db2 4a3d d631 213d 6bbb f53c
00000280: 2c4b 2e3d 227c 93bd f46b 033d 6abf 8dbc
00000290: ce52 26bc 3a88 b1bc e4be a2bd b311 69bd
000002a0: 6242 d13d 4611 a5bd a89b 2a3b cfe4 803d
000002b0: 7cff 78bd 42fa 3f3d 1733 df3d ccd7 083d
000002c0: da6f af3d f964 a6bd 1aa0 22bc 4386 5a3d
000002d0: 270e e5bc cca6 f63c 8861 5bbd e482 65bd
000002e0: a0c9 bcbd 98f2 fb3c ffd6 eebd 49a1 063d
000002f0: e353 a5bd f4bf 433d 02d3 26bd d6ea 353d
00000300: e5d3 673d d0cb 853c b4ae 9fbd 28fe 81bc
00000310: 8dea fcbc 7dcb 983c a252 d13d 8393 2fbd
00000320: 0661 71bd d341 903d 081c b93d dc09 89bd
00000330: 303f cbbd e1ee 69bd 7989 013d d93c 113d
00000340: e798 00be 3816 393d 1807 78bd 57f8 f9bd
00000350: fc40 d03d e3c2 143d 5820 863d f8f7 c0bd
00000360: 1fd0 22bd 982a 23bd 9e59 cdbc 001c 7e3b
00000370: c823 0abe 18b9 a1bc a023 d53d 344f 843c
00000380: 33e4 103d d1fc dcbc 0e07 73bd 2c81 86bd
00000390: 3c1e 4abd 29dd abbc 04e6 be3d 5f89 2cbd
000003a0: 262f cf3d 0aaa ec3c 268e a2bd 8b79 243c
000003b0: 8e43 1dbd 6b68 04be 053f 09be ab40 903c
000003c0: 0758 a6bc 01c6 073d d47e 87bc 6a88 263d
000003d0: b779 dcbd 410e aabc b3f1 c23c ec99 71bd
000003e0: 4fe2 83bd 9b1c 083d 4cb4 893d 4448 a53d
000003f0: ff4e 7abd adb3 b7bc 5d41 993c 7b71 54bd
