set_transformer/classification_model/deepset_moonboard.pth (torch, 238980 bytes, 10 tensors)

encoder.0.weight f4 [128, 64]
0.026580105 -0.10161282 -0.106539614 0.15959193 0.030651333 -0.046489537 0.16407368 0.062322296
-0.02287253 0.06185097 -0.06855267 0.09189797 -0.16826698 0.027524902 0.023319846 -0.07214599
-0.039331343 0.052216526 0.02370904 0.066468656 -0.031018997 -0.11340023 0.07141037 0.14653465
-0.08369844 -0.02117675 0.073899075 -0.04012464 -0.09318754 -0.035960812 -0.014718972 0.08537748
0.10987629 0.11711995 0.1709736 -0.1088057 0.09956137 -0.054396 0.13628487 -0.1118858
0.039369784 -0.07749949 0.026992694 0.03087351 0.07393953 0.079039864 -0.0656851 -0.14669292
-0.064908795 -0.12317659 -0.0455284 0.09036446 -0.072860226 0.11000978 -0.017109524 -0.07326544
-0.009234711 0.027971221 -0.04857991 -0.040712025 0.08388537 0.08337377 -0.09722951 -0.0018748651
0.0579393 0.002428341 -0.06786837 -0.03185278 0.118059754 -0.111473456 -0.004581537 0.020167362
0.02209351 0.12478318 0.041982844 -0.047802523 -0.10169966 -0.018564383 0.05942136 0.115579754
-0.067058705 -0.028084513 -0.039478112 0.15747394 0.092960924 -0.10678149 -0.1162317 0.10313317
0.12627232 0.024329664 -0.1515236 0.040853053 0.0604418 0.11202811 -0.11337349 -0.017706783
0.04770842 -0.10669829 0.014558072 0.05051136 -0.046335783 0.04477047 0.023971835 0.030064024
-0.035386536 -0.033047095 -0.123893574 0.06726877 -0.06620159 -0.0035530722 -0.07620118 -0.014149766
-0.03578255 0.102273725 -0.13587475 -0.02752465 0.092278756 -0.039626576 0.01595163 0.059264258
0.0036779346 0.00076971855 0.024346698 0.13049793 -0.0715121 0.051369626 0.030784257 0.049061403
-0.097759016 0.054733157 -0.014985126 -0.057395432 0.06368224 -0.070252754 -0.022303186 -0.15853788
-0.05153154 -0.10728254 -0.100400105 0.1195873 -0.029902453 -0.060519315 0.06868328 0.050101936
-0.046185102 -0.050225623 -0.14944246 0.038371753 -0.15162013 -0.05745306 0.041562 0.024146123
-0.13445468 -0.028139416 -0.011898725 -0.10744688 -0.07350152 -0.042117365 0.043861635 0.0009635797
-0.07532647 0.10955114 -0.088252306 0.03693536 0.025594551 -0.09408059 0.1148243 0.041856322
-0.031168628 -0.079998456 0.089287214 0.059732884 -0.10460621 -0.10864609 -0.05993498 -0.028472373
-0.08580998 0.07212453 0.08716742 0.052921217 0.013623734 0.10804673 -0.12093573 0.03602001
-0.11133908 0.117434524 0.06508593 0.10939343 0.0582204 0.0013149807 0.09077137 -0.028897636
-0.050736807 -0.07598465 0.09326336 0.016933579 -0.10663092 -0.014203539 -0.087589994 0.002395679
-0.022318987 -0.10727582 0.038941056 0.04836919 -0.07342856 -0.12242799 0.024408143 -0.045980293
-0.10384884 0.059406735 -0.022086961 -0.0311615 0.10717144 -0.039149914 0.08161049 -0.025772586
0.13446853 0.050583195 0.09137084 -0.15259701 0.08441916 -0.07078356 0.019686032 0.13842922
-0.118743755 -0.104299754 -0.052639272 0.07225662 0.14817908 0.004654279 -0.09509664 -0.105409294
-0.025936414 -0.1284344 -0.12222942 0.014959666 0.11352032 0.10524007 -0.017195497 0.098288245
0.023754628 -0.123425 0.050999563 0.018222246 -0.061027687 0.113490105 0.089757286 0.045652118
0.05745542 -0.034254875 -0.09509262 -0.10847056 0.06649208 0.034328226 0.10071626 0.10051214
00000000: 85be d93c 621a d0bd 7131 dabd 116c 233e
00000010: 8118 fb3c d06b 3ebd ee02 283e aa45 7f3d
00000020: 2c5f bbbc 7157 7d3d 5865 8cbd 0135 bc3d
00000030: 2e4e 2cbe e77b e13c 4309 bf3c 47c1 93bd
00000040: e719 21bd ffe0 553d 7639 c23c b820 883d
00000050: 8d1b febc 613e e8bd 9a3f 923d 2e0d 163e
00000060: 166a abbd dd7a adbc 6658 973d bc59 24bd
00000070: 1cd9 bebd a54b 13bd d827 71bc 63da ae3d
00000080: d206 e13d 96dc ef3d b413 2f3e 86d5 debd
00000090: d5e6 cb3d 57ce 5ebd 438e 0b3e 6224 e5bd
000000a0: 3642 213d 0db8 9ebd c81f dd3c 71ea fc3c
000000b0: 9c6d 973d a7df a13d e985 86bd ab36 16be
000000c0: e7ee 84bd 0244 fcbd fd7b 3abd 0111 b93d
000000d0: be37 95bd cf4c e13d 4629 8cbc 310c 96bd
000000e0: 2f4d 17bc e723 e53c bafb 46bd a7c1 26bd
000000f0: 18cc ab3d debf aa3d 4420 c7bd 09be f5ba
00000100: c251 6d3d cd24 1f3b 92fe 8abd 1078 02bd
00000110: 50c9 f13d 324c e4bd b820 96bb 0636 a53c
00000120: 73fd b43c 538e ff3d 34f6 2b3d 94cc 43bd
00000130: e947 d0bd 5514 98bc d063 733d 14b5 ec3d
00000140: 1356 89bd 7e11 e6bc cdb3 21bd d940 213e
00000150: 4c62 be3d 41b0 dabd e30a eebd 7c37 d33d
00000160: 884d 013e 014f c73c 0129 1bbe 8855 273d
00000170: d291 773d fe6e e53d 5c30 e8bd d10d 91bc
00000180: e769 433d a284 dabd fb84 6e3c 00e5 4e3d
00000190: 97ca 3dbd 3e61 373d 9560 c43c d448 f63c
000001a0: 79f1 10bd 645c 07bd eabb fdbd 35c4 893d
000001b0: b394 87bd a9da 68bb 5d0f 9cbd 6cd4 67bc
000001c0: b990 12bd e374 d13d c022 0bbe 607b e1bc
000001d0: a5fc bc3d 7a4f 22bd feac 823c 14bf 723d
000001e0: 8109 713b f0c6 493a ba72 c73c 40a1 053e
000001f0: f074 92bd f568 523d 442f fc3c 9cf4 483d
00000200: e135 c8bd e02f 603d 2d84 75bc 7917 6bbd
00000210: d66b 823d ade0 8fbd 2cb5 b6bc c157 22be
00000220: bc12 53bd f3b6 dbbd 929e cdbd 30ea f43d
00000230: fdf5 f4bc 1ae3 77bd d2a9 8c3d b037 4d3d
00000240: 972c 3dbd 62b9 4dbd 7207 19be b32b 1d3d
00000250: 4f42 1bbe e653 6bbd ea3c 2a3d 17ce c53c
00000260: 7dae 09be a284 e6bc dff2 42bc 1c0d dcbd
00000270: f787 96bd 4283 2cbd 42a8 333d bd98 7c3a
00000280: c444 9abd 595c e03d a0bd b4bd 8849 173d
00000290: aaab d13c 53ad c0bd 0129 eb3d 8971 2b3d
000002a0: 5a55 ffbc 3bd6 a3bd 37dc b63d 78aa 743d
000002b0: c83b d6bd d781 debd 627e 75bd e53e e9bc
000002c0: 25bd afbd 07b6 933d d584 b23d ebc3 583d
000002d0: 1536 5f3c 9b47 dd3d 27ad f7bd b889 133d
000002e0: be05 e4bd 8381 f03d c64b 853d aa09 e03d
000002f0: 8478 6e3d 6e5b ac3a 57e6 b93d bcba ecbc
00000300: 66d1 4fbd d79d 9bbd dc00 bf3d 4ab8 8a3c
00000310: 5061 dabd f6b5 68bc 6262 b3bd d300 1d3b
00000320: 4fd6 b6bc 6db3 dbbd a880 1f3d c61e 463d
00000330: b661 96bd 87bb fabd 96f3 c73c d555 3cbd
00000340: b3ae d4bd 7a54 733d b7ef b4bc 6746 ffbc
00000350: b37c db3d a95b 20bd 6723 a73d 0821 d3bc
00000360: 1eb2 093e 5330 4f3d a320 bb3d 6442 1cbe
00000370: f4e3 ac3d f9f6 90bd 9a44 a13c 64c0 0d3e
00000380: ed2f f3bd 1c9b d5bd 479c 57bd 47fb 933d
00000390: 42bc 173e ec82 983b 07c2 c2bd d4e0 d7bd
000003a0: 9a78 d4bc 4f84 03be 6b53 fabd 6319 753c
000003b0: 577d e83d 1b88 d73d 92dd 8cbc 594b c93d
000003c0: 1199 c23c 3fc6 fcbd ebe4 503d d246 953c
000003d0: 2bf8 79bd 806d e83d abd2 b73d b7fd 3a3d
000003e0: 6056 6b3d d74e 0cbd ebbf c2bd d025 debd
000003f0: 002d 883d c19b 0c3d 5444 ce3d 4fd9 cd3d

encoder.0.bias f4 [128]
0.07820126 -0.093604416 -0.05388495 0.09043974 -0.07032813 0.014130729 0.04534145 0.016777292
0.007965601 -0.050386086 0.040981695 0.032161564 -0.069264896 -0.093267165 -0.025018536 -0.13165866
0.15247902 0.061075334 0.06261805 0.014368711 0.06844931 -0.11097003 0.111361295 0.036783114
-0.030676791 0.051928077 0.07261502 0.06041514 0.1380937 -0.0024972917 0.06207727 -0.0035349806
0.13379481 -0.08256299 0.029201433 0.1069827 -0.041766874 0.12504232 0.008346709 -0.030969555
-0.10701708 -0.0040244865 -0.056467153 -0.08116661 0.10732274 -0.026961533 -0.08007776 0.026026558
-0.07772122 -0.11562423 0.0146468785 0.031957787 0.110886216 -0.012506612 -0.06551945 -0.042363454
-0.10197635 -0.09307847 -0.070034385 0.13366412 -0.027635012 0.05404303 0.042980008 0.072669476
-0.000154626 -0.056941386 -0.030600032 0.091382466 0.01987156 -0.07534081 -0.050776128 0.01659941
0.118909486 0.12769955 -0.030961625 -0.010012323 -0.012695405 0.05995148 -0.09480619 0.14806698
-0.057969566 0.0497069 0.011728439 0.03703991 -0.0390274 0.08893703 0.046750303 -0.0852144
0.019533008 0.0950264 0.06828507 -0.105524614 -0.07889436 0.068901464 0.023324005 -0.057344485
-0.019576792 -0.14217186 0.04401473 -0.0033808309 0.10126553 0.019704452 0.008130878 0.010231402
0.12013107 0.06299835 -0.034737356 0.09113682 0.06424095 -0.12045393 -0.10332913 0.020671157
-0.0073954775 0.031140644 -0.008972552 -0.08041349 0.090648964 0.103752054 0.08605781 -0.076605976
0.006820147 0.09992767 0.05988317 -0.046609323 -0.026257377 -0.08821232 -0.04801172 -0.05022605
00000000: fb27 a03d acb3 bfbd 77b6 5cbd 7838 b93d
00000010: 3208 90bd 9384 673c f5b7 393d 8870 893c
00000020: 2782 023c a461 4ebd 6cdc 273d d8bb 033d
00000030: c1da 8dbd db02 bfbd acf3 ccbc 87d1 06be
00000040: 7623 1c3e 212a 7a3d e43d 803d be6a 6b3c
00000050: 272f 8c3d 4144 e3bd 6411 e43d e4a9 163d
00000060: e54d fbbc 89b2 543d 2fb7 943d de75 773d
00000070: 6f68 0d3e 9aa9 23bb bc44 7e3d 22ab 67bb
00000080: 8201 093e c916 a9bd d837 ef3c bf19 db3d
00000090: be13 2bbd 180b 003e a3c0 083c ddb3 fdbc
000000a0: c52b dbbd d7df 83bb 1a4a 67bd ae3a a6bd
000000b0: 06cc db3d 6fde dcbc cfff a3bd a635 d53c
000000c0: 4e2c 9fbd 65cc ecbd 76f9 6f3c 2be6 023d
000000d0: 5018 e33d 88e8 4cbc 102f 86bd 4d85 2dbd
000000e0: fad8 d0bd ed9f bebd 306e 8fbd 3fdf 083e
000000f0: d262 e2bc 395c 5d3d ce0b 303d bcd3 943d
00000100: 1a23 22b9 5f3b 69bd ebac fabc bb26 bb3d
00000110: afc9 a23c 484c 9abd a1fa 4fbd 7cfb 873c
00000120: d186 f33d acc3 023e 3ca3 fdbc ba0a 24bc
00000130: 6300 50bc af8f 753d bf29 c2bd df9e 173e
00000140: 7f71 6dbd 7699 4b3d a328 403c 29b7 173d
00000150: 32db 1fbd 9e24 b63d 3f7d 3f3d e384 aebd
00000160: b003 a03c 349d c23d 0bd9 8b3d 4a1d d8bd
00000170: 5e93 a1bd 361c 8d3d fc11 bf3c 0de2 6abd
00000180: 825f a0bc 8095 11be ca48 343d ee90 5dbb
00000190: 4d64 cf3d 3b6b a13c 6037 053c 9ca1 273c
000001a0: 4707 f63d 4705 813d c248 0ebd f1a5 ba3d
000001b0: c290 833d 8db0 f6bd 399e d3bd 8f56 a93c
000001c0: c355 f2bb aa1a ff3c 9c01 13bc d4af a4bd
000001d0: 2aa6 b93d f57b d43d 143f b03d 98e3 9cbd
000001e0: 8a7b df3b e1a6 cc3d 0e48 753d 6be9 3ebd
000001f0: b619 d7bc a9a8 b4bd f0a7 44bd d5b9 4dbd

encoder.2.weight f4 [128, 128]
0.036753904 0.05927838 0.06774989 -0.0394023 0.08180172 0.092871346 -0.05003796 -0.0042645615
-0.049744334 0.059425224 -0.0021299922 0.05670403 0.04409644 -0.012517364 0.061041284 -0.033759695
0.10839974 -0.0664733 0.03865091 0.0065944293 -0.04817095 -0.07195834 -0.04238649 0.033858616
-0.052266452 0.08987286 0.100372575 -0.05945255 0.093695745 -0.09721353 0.02906203 0.08986344
-0.0032126189 -0.083327554 -0.029930256 0.024087667 -0.044678923 -0.008311054 0.0781865 -0.09690193
-0.0066539794 0.035602447 0.040652663 0.035985246 0.04261875 -0.10246316 -0.04970128 0.06788848
0.01642222 -0.010110553 -0.10148793 0.0047276975 -0.041095216 0.037769113 -0.082684316 -0.11703727
-0.06355984 -0.08153415 -0.015350346 0.11522109 -0.04569686 0.05923017 0.01875298 0.07082714
-0.04239925 0.032389186 0.03850209 -0.009380458 0.054921888 -0.03709927 0.13266952 0.02231838
-0.017006429 -0.0065269503 -0.05208998 0.007410752 -0.018392583 -0.05465605 -0.031924415 -0.070813656
0.020943241 0.01133108 0.08889645 -0.04694206 -0.06488248 -0.026313402 0.0014889836 -0.06802096
-0.07923555 0.10377366 -0.03988294 -0.03709422 -0.049969833 0.08805076 -0.008525923 -0.049436234
-0.048519228 0.048847675 -0.014946304 0.018923199 0.030348007 0.032229114 -0.011545242 0.009894724
0.059966333 -0.0040845275 -0.088615686 -0.024681114 -0.017738339 0.06178442 0.0566812 -0.11849655
0.04063266 -0.025416005 -0.0707237 -0.035497855 -0.056699555 -0.02346357 0.1242067 -0.020969981
0.008507739 -0.025441756 0.013678228 0.114857174 -0.10296299 0.017092817 -0.025179014 -0.083987564
-0.08051946 0.044404685 0.06297511 0.039994806 0.057475556 0.036909882 0.034864012 -0.10468837
0.06240704 0.082410425 0.10177901 -0.10895993 0.08757655 0.04777291 0.022175446 0.011592831
0.017435027 -0.03664857 0.049317546 -0.07081397 -0.12898853 0.07880554 -0.04430321 -0.01833285
-0.05956609 0.051022768 0.084268995 -0.007990762 -0.03430423 -0.014250081 -0.04827174 0.0033998524
-0.0039275554 0.09238267 0.021111296 0.022167673 -0.06481779 0.05584699 -0.12561202 0.09655861
-0.072790876 0.12138441 0.06217222 0.032052092 0.080054216 0.0011287256 0.086846545 -0.03994638
-0.032469634 0.07723992 0.026131302 -0.080886886 0.02500791 0.036900338 0.051102914 0.045599744
0.078130834 -0.039604314 0.04606471 -0.043997772 -0.048600838 -1.2719494e-05 -0.006011963 0.08268207
0.08948384 -0.0526868 -0.011765669 -0.021691551 0.069825925 0.08719662 -0.044767424 -0.025791094
-0.004203219 -0.07270006 0.049713384 0.02978009 0.030510614 0.107638136 0.0719967 -0.015715906
0.03651281 -0.0048496565 -0.01564801 0.027035814 0.11026923 0.017315477 0.015628926 0.045677606
0.033677094 -0.0438477 -0.04141005 -0.05459055 0.053854864 -0.05920589 -0.08509856 0.10144087
-0.03860034 0.015085296 0.061926596 -0.005894052 -0.05559351 0.1215857 -0.03912388 -0.03877089
-0.07192254 -0.062373165 -0.048890974 0.10817406 0.104405865 0.0033074552 0.019404195 0.040877458
0.012761555 -0.014298488 0.073138915 0.056270912 0.07386627 -0.037437055 -0.10080533 0.02268258
-0.08080231 0.08493288 0.004424648 0.022088703 0.010134682 -0.06063992 -0.057745118 -0.05896398
00000000: 438b 163d e3cd 723d 74c0 8a3d 4e64 21bd
00000010: a987 a73d 5533 be3d 9bf4 4cbd bcbd 8bbb
00000020: b7c0 4bbd dd67 733d 5797 0bbb 7c42 683d
00000030: 789e 343d a115 4dbc 6d06 7a3d 9b47 0abd
00000040: af00 de3d 2723 88bd 6b50 1e3d 1516 d83b
00000050: e74e 45bd e55e 93bd 759d 2dbd 55af 0a3d
00000060: 5915 56bd 430f b83d 2390 cd3d 8484 73bd
00000070: 8ee3 bf3d e317 c7bd 7f13 ee3c 530a b83d
00000080: cd8a 52bb a3a7 aabd 4c30 f5bc 8053 c53c
00000090: 3f01 37bd 162b 08bc 3e20 a03d 8574 c6bd
000000a0: a009 dabb dfd3 113d 6883 263d 4465 133d
000000b0: 0091 2e3d 35d8 d1bd 9293 4bbd 1e09 8b3d
000000c0: e487 863c bca6 25bc e7d8 cfbd cdea 9a3b
000000d0: 7553 28bd c9b3 1a3d 6556 a9bd 3cb1 efbd
000000e0: a92b 82bd 60fb a6bd 0580 7bbc 09f9 eb3d
000000f0: a12c 3bbd 569b 723d d99f 993c d20d 913d
00000100: d6aa 2dbd 86aa 043d 5eb4 1d3d 7eb0 19bc
00000110: c6f5 603d 67f5 17bd 85da 073e 09d5 b63c
00000120: 1151 8bbc 07e0 d5bb 4e5c 55bd e5d5 f23b
00000130: 0bac 96bc 06df 5fbd 2dc3 02bd c006 91bd
00000140: 2991 ab3c ffa5 393c 580f b63d 5146 40bd
00000150: 1be1 84bd 348f d7bc 002a c33a 934e 8bbd
00000160: 3f46 a2bd 4987 d43d 4b5c 23bd 1cf0 17bd
00000170: 2bad 4cbd f553 b43d 50b0 0bbc a67d 4abd
00000180: 19bc 46bd 8014 483d 58e1 74bc d304 9b3c
00000190: 629c f83c ad02 043d 4128 3dbc 7b1d 223c
000001a0: 429f 753d 80d7 85bb 247c b5bd 0c30 cabc
000001b0: fe4f 91bc a911 7d3d 8c2a 683d 52ae f2bd
000001c0: 6f6e 263d 3a35 d0bc 96d7 90bd 3366 11bd
000001d0: cb3d 68bd ac36 c0bc 1560 fe3d 3dc9 abbc
000001e0: 0b64 0b3c 3b6b d0bc a51a 603c 3d3a eb3d
000001f0: 43de d2bd 3c06 8c3c 3844 cebc ac01 acbd
00000200: 63e7 a4bd b0e1 353d 18f9 803d 98d1 233d
00000210: 7d6b 6b3d d12e 173d 91cd 0e3d db66 d6bd
00000220: 869e 7f3d ccc6 a83d 8371 d03d 6226 dfbd
00000230: 565b b33d 87ad 433d 48a9 b53c dcef 3d3c
00000240: e7d3 8e3c d01c 16bd 3201 4a3d ea06 91bd
00000250: 9215 04be cd64 a13d 4877 35bd c62e 96bc
00000260: 93fb 73bd 40fd 503d 3995 ac3d afeb 02bc
00000270: 9882 0cbd 2c79 69bc 97b8 45bd 0fd0 5e3b
00000280: b9b2 80bb 2033 bd3d 99f1 ac3c fb98 b53c
00000290: 31bf 84bd d0bf 643d 70a0 00be 85c0 c53d
000002a0: 6213 95bd 6498 f83d 4ca8 7e3d 0e49 033d
000002b0: 77f3 a33d bff1 933a 9adc b13d d19e 23bd
000002c0: e1fe 04bd f72f 9e3d 5011 d63c 06a8 a5bd
000002d0: 63dd cc3c cf24 173d 4a51 513d ccc6 3a3d
000002e0: 0f03 a03d 2238 22bd 59ae 3c3d 0237 34bd
000002f0: ac11 47bd d065 55b7 0000 c5bb 3855 a93d
00000300: 4e43 b73d 1dce 57bd cbc4 40bc 7bb2 b1bc
00000310: e500 8f3d 2494 b23d 0c5e 37bd d847 d3bc
00000320: 28bb 89bb c5e3 94bd 43a0 4b3d 60f5 f33c
00000330: 65f1 f93c 6271 dc3d 0173 933d a5be 80bc
00000340: 758e 153d dee9 9ebb 4130 80bc 367a dd3c
00000350: d6d4 e13d 30d9 8d3c 3c08 803c 7118 3b3d
00000360: fef0 093d a599 33bd 969d 29bd 579a 5fbd
00000370: eb96 5c3d e081 72bd 2748 aebd 3bc0 cf3d
00000380: 641b 1ebd 5128 773c bea6 7d3d e422 c1bb
00000390: 05b6 63bd ec01 f93d 5d40 20bd 3ace 1ebd
000003a0: 204c 93bd 017b 7fbd e741 48bd 5d8a dd3d
000003b0: bed2 d53d e4c1 583b 8cf5 9e3c 1f6f 273d
000003c0: d715 513c 3544 6abc dbc9 953d 547c 663d
000003d0: 3347 973d 9957 19bd 0673 cebd d1d0 b93c
000003e0: ae7b a5bd 4af1 ad3d a3fc 903b 5ef3 b43c
000003f0: f00b 263c 9161 78bd 2586 6cbd 3784 71bd

encoder.2.bias f4 [128]
0.096399486 -0.0395999 -0.036115758 -0.009454482 0.043689795 -0.044577345 -0.0022887695 0.09402571
-0.050846487 -0.05362834 0.00041574618 -0.074257806 -0.0075016604 0.015651746 -0.020312939 -0.024023796
0.031811442 0.025953531 -0.04016486 -0.015349809 -0.037254002 0.082672454 -0.038469926 0.05776653
0.07029781 0.09325938 -0.05855192 -0.04988416 0.019483421 0.0042288336 -0.048697274 -0.051019553
-0.079073004 -0.00080860424 -0.03781115 0.0127363745 -0.06354979 -0.07538577 -0.011065568 -0.043348417
0.046035692 -0.012477472 0.040692933 0.070249066 0.052887373 -0.037799116 0.007419955 -0.059732
0.013387689 0.04576697 -0.026361763 -0.04033606 -0.06707933 0.061919257 -0.0067739035 0.059220903
0.052561734 0.02974672 0.010879781 0.0065697017 -0.004554989 -0.016469467 0.10135513 0.04080398
0.055503156 -0.0017004202 0.036786046 -0.06763066 0.028206453 -0.07776531 -0.03658061 -0.009471348
0.014967258 -0.025311444 -0.07963937 -0.016234368 0.023283152 0.02386372 0.015353627 -0.049507067
0.033844724 -0.03398456 -0.033023614 0.04959928 0.07490722 -0.05445322 0.016429197 0.048221722
-0.014007897 -0.05077276 0.03534165 0.11928867 -0.08378472 0.06311028 -0.026063507 0.04678252
0.10844196 0.025657434 0.030596916 0.04185083 0.034830965 0.06797739 -0.0072128214 0.022498807
-0.07837713 0.052143116 0.01454155 -0.053765558 -0.026163548 0.041870702 -0.04801322 -0.030925093
-0.007464088 -0.06993159 0.007448643 0.009640487 0.070681535 0.0590664 -0.038890835 -0.04969373
-0.024359735 -0.0077932454 0.028953813 -0.0587372 -0.08567096 0.032858107 0.047376804 0.05752774
00000000: 186d c53d 8133 22bd 1eee 13bd f9e6 1abc
00000010: 12f4 323d bc96 36bd 2eff 15bb 8d90 c03d
00000020: 6844 50bd 64a9 5bbd 82f8 d939 7a14 98bd
00000030: 7dd0 f5bb 1738 803c 5267 a6bc 8dcd c4bc
00000040: b74c 023d 809c d43c e983 24bd c47d 7bbc
00000050: a797 18bd 2d50 a93d a492 1dbd 999c 6c3d
00000060: 4cf8 8f3d c6fe be3d 23d4 6fbd 5553 4cbd
00000070: b29b 9f3c 0792 8a3b cb76 47bd e1f9 50bd
00000080: 07f1 a1bd 83f8 53ba dddf 1abd 3aac 503c
00000090: 6426 82bd db63 9abd 5b4c 35bc 1c8e 31bd
000000a0: ec8f 3c3d 506e 4cbc a2ad 263d bede 8f3d
000000b0: 6ea0 583d 3fd3 1abd 1823 f33b 8ba9 74bd
000000c0: 0a58 5b3c 2576 3b3d a0f4 d7bc 6d37 25bd
000000d0: e360 89bd 0c9f 7d3d 9ff7 ddbb 9e91 723d
000000e0: f94a 573d 65af f33c 1c41 323c a746 d73b
000000f0: 0442 95bb faea 86bc 4793 cf3d 1322 273d
00000100: 4757 633d a2e0 deba f7ac 163d f281 8abd
00000110: 3811 e73c 6b43 9fbd 8dd5 15bd b62d 1bbc
00000120: 3b39 753c f259 cfbc f719 a3bd f0fd 84bc
00000130: 4fbc be3c d97d c33c c78d 7b3c ecc7 4abd
00000140: c4a0 0a3d 6533 0bbd c543 07bd 9d28 4b3d
00000150: f568 993d 570a 5fbd 8696 863c 2484 453d
00000160: 6181 65bc 19f7 4fbd 68c2 103d 9e4d f43d
00000170: 5397 abbd f63f 813d 2383 d5bc 079f 3f3d
00000180: d116 de3d 8a2f d23c 62a6 fa3c c76b 2b3d
00000190: eaaa 0e3d bb37 8b3d 8859 ecbb 6b4f b83c
000001a0: 3084 a0bd 0594 553d ae3f 6e3c 4639 5cbd
000001b0: f054 d6bc 9d80 2b3d 83a9 44bd 9f56 fdbc
000001c0: 4f95 f4bb 4b38 8fbd bf13 f43b 22f3 1d3c
000001d0: 7bc1 903d 9cef 713d ff4b 1fbd a78b 4bbd
000001e0: 118e c7bc 7b5e ffbb 8c30 ed3c 6b96 70bd
000001f0: 4274 afbd 3996 063d 2e0e 423d 35a2 6b3d

encoder.4.weight f4 [128, 128]
0.013883696 0.0323784 0.0028659403 -0.07912372 0.075405866 0.013368048 -0.0068148193 0.080334626
0.09346686 0.04440467 0.009936612 -0.067956455 0.05197847 -0.050920386 -0.005478762 -0.13813876
-0.068387955 -0.063640594 0.013347695 0.08612633 0.0406159 0.078768104 -0.07637538 0.035440262
-0.010533599 -0.06463369 -0.012289813 -0.031117627 0.05373282 -0.11020716 0.033650134 -0.055076633
-0.05782821 -0.047637437 0.044358924 0.048151758 -0.08887289 0.10568746 -0.028821206 -0.061814345
0.064903736 0.025651168 0.04437965 -0.024648044 0.07970321 -0.04718749 0.06854734 -0.03719342
0.065528736 -0.039864548 0.09441442 0.005806814 0.022663735 0.067294195 0.04290774 -0.05965395
-0.025100749 -0.083133295 0.094529115 0.080758594 -0.07554439 0.02740898 -0.053132903 -0.055220213
0.039740447 -0.031774815 0.047338318 0.06339074 0.0088863345 -0.022425964 -0.072104506 -0.021834608
-0.001219058 -0.08235509 -0.022616971 0.05758154 0.106468186 0.06483411 -0.019682975 -0.06513422
-0.089335926 0.06189033 -0.066971734 -0.035889722 3.752686e-06 -0.019296313 -0.101425715 -0.069140196
0.008283441 0.08345258 0.01926698 -0.035149697 -0.017862266 -0.071046524 0.017639352 -0.045777306
-0.024080712 -0.060681608 -0.10012779 -0.02463507 0.07320166 0.060720198 0.00068352337 -0.005418097
0.07511026 0.008263217 -0.034983005 0.07954235 -0.051863074 -0.045651358 0.082381174 -0.030351726
0.0019328564 0.0078006038 0.038693257 0.039894026 0.07985676 0.06836372 -0.043428704 -0.00296638
-0.095916025 -0.06330582 0.004503028 -0.105149426 -0.083486184 0.040658914 0.03393151 0.024865648
-0.026267288 0.039573338 -0.06738851 -0.06930424 -0.024278857 -0.07496612 -0.003662526 0.022103297
-0.0070771524 -0.06303021 0.033286247 -0.00951856 -0.04552296 0.024306696 -0.046259828 0.042680517
-0.044165447 0.049128536 -0.009453939 -0.0399943 -0.004318164 -0.09570497 -0.10255169 -0.06199854
-0.081781745 -0.008374957 0.010252752 -0.08059149 0.1014487 -0.020935848 0.010060987 -0.056990717
0.02418194 0.0035195167 -0.026593624 0.029287837 -0.08511881 -0.05679115 0.008018754 0.080102995
-0.021742355 -0.010965348 0.048542015 0.004095486 -0.046149146 0.05793787 0.096542865 0.0687591
0.07226713 -0.06963341 0.03910854 0.0482779 -0.023488397 -0.07909941 -0.08722526 -0.0035694116
-0.008657594 -0.059980843 0.05959777 0.0906627 -0.029768351 0.0427464 -0.010331248 0.002098305
0.07341219 0.006670804 -0.017080389 0.0713085 -0.013877132 -0.03490668 -0.007210712 -0.031224325
0.030866884 -0.08842855 -0.019616254 0.024695206 -0.056693118 0.028312458 0.022170914 -0.014770369
-0.051588304 -0.02894337 0.0027472435 0.046187766 0.03199283 0.041930042 -0.07247725 0.09221472
-0.00015460337 -0.0071748598 0.014569184 0.02523144 -0.007802584 0.023744 -0.07420523 -0.008882574
-0.09723476 -0.05750444 0.047014028 -0.072786964 -0.05088158 -0.0019348046 0.06503247 0.04181946
0.07910587 0.004689325 -0.05345868 0.012351553 0.054868847 -0.1012605 -0.0045081633 0.07394013
-0.0526864 -0.047396917 0.03679615 -0.07619043 -0.012549736 -0.024186864 -0.06723698 0.04057991
-0.03850383 0.0038182908 0.07421114 -0.07539263 -0.1046228 -0.05631832 -0.008713375 -0.027164271
00000000: 7178 633c 379f 043d 80d2 3b3b 9e0b a2bd
00000010: 646e 9a3d a805 5b3c d94e dfbb 7b86 a43d
00000020: 8e6b bf3d ace1 353d 2ccd 223c c12c 8bbd
00000030: 60e7 543d e591 50bd 3087 b3bb 3f74 0dbe
00000040: fc0e 8cbd 0056 82bd 4ab0 5a3c 0063 b03d
00000050: dc5c 263d 2c51 a13d b26a 9cbd cf29 113d
00000060: 1e95 2cbc ab5e 84bd 365b 49bc 65ea febc
00000070: f216 5c3d 4bb4 e1bd b9d4 093d 0998 61bd
00000080: 46dd 6cbd 791f 43bd b4b1 353d c73a 453d
00000090: fd02 b6bd ab72 d83d 731a ecbc 0a31 7dbd
000000a0: 40ec 843d 6622 d23c 70c7 353d b2ea c9bc
000000b0: 703b a33d ab47 41bd 8c62 8c3d 2158 18bd
000000c0: ee33 863d 0249 23bd 595c c13d 1647 be3b
000000d0: 4ca9 b93c 8ad1 893d 07c0 2f3d b357 74bd
000000e0: 16a0 cdbc ca41 aabd 7b98 c13d c364 a53d
000000f0: 04b7 9abd cc88 e03c e3a1 59bd 972e 62bd
00000100: e1c6 223d 4f26 02bd d3e5 413d 01d3 813d
00000110: fd97 113c a8b6 b7bc 87ab 93bd 7ede b2bc
00000120: ccc8 9fba c9a9 a8bd 3a47 b9bc 9fda 6b3d
00000130: fe0b da3d bfc7 843d 313e a1bc 1765 85bd
00000140: c1f5 b6bd b780 7d3d 7a28 89bd 1a01 13bd
00000150: a8d6 7b36 4d13 9ebc 49b8 cfbd 6099 8dbd
00000160: 45b7 073c 30e9 aa3d c9d5 9d3c 21f9 0fbd
00000170: e353 92bc d780 91bd 6780 903c fc80 3bbd
00000180: ea44 c5bc 478d 78bd cc0f cdbd 7ccf c9bc
00000190: c0ea 953d beb5 783d 7a2e 333a 4b8a b1bb
000001a0: 68d3 993d 7262 073c 574a 0fbd 19e7 a23d
000001b0: 606e 54bd ebfc 3abd 76b7 a83d 2fa4 f8bc
000001c0: e657 fd3a 359c ff3b d27c 1e3d eb67 233d
000001d0: f18b a33d 4702 8c3d 4ce2 31bd 9967 42bb
000001e0: 9f6f c4bd 7ba6 81bd 238e 933b 9558 d7bd
000001f0: cefa aabd f689 263d c4fb 0a3d 0bb3 cb3c
00000200: 7f2e d7bc a717 223d fd02 8abd 62ef 8dbd
00000210: 74e4 c6bc d687 99bd fd06 70bb f911 b53c
00000220: 75e7 e7bb fc15 81bd 2957 083d bcf3 1bbc
00000230: 4976 3abd d61e c73c f27a 3dbd c4d1 2e3d
00000240: d4e6 34bd 013b 493d b2e4 1abc 10d1 23bd
00000250: 637f 8dbb f800 c4bd 9f06 d2bd 2ef2 7dbd
00000260: 307d a7bd 1e37 09bc 29fb 273c 270d a5bd
00000270: 56c4 cf3d a881 abbc d7d6 243c 196f 69bd
00000280: 3419 c63c b1a7 663b dfda d9bc 0ced ef3c
00000290: c552 aebd d69d 68bd 1861 033c 0a0d a43d
000002a0: 061d b2bc 01a8 33bc fed3 463d 6d33 863b
000002b0: e306 3dbd 4350 6d3d 44b8 c53d 92d1 8c3d
000002c0: ca00 943d f69b 8ebd 4730 203d 0cbf 453d
000002d0: bd6a c0bc dffe a1bd 28a3 b2bd caec 69bb
000002e0: 95d8 0dbc 79ae 75bd cb1c 743d 5ead b93d
000002f0: c2dc f3bc d916 2f3d 6544 29bc b783 093b
00000300: 2159 963d c396 da3b 2cec 8bbc 310a 923d
00000310: e95c 63bc 4ffa 0ebd d647 ecbb 28ca ffbc
00000320: 8cdc fc3c 071a b5bd 44b2 a0bc 9a4d ca3c
00000330: 0b37 68bd 87ef e73c c79f b53c 6bff 71bc
00000340: 424e 53bd a51a edbc 190b 343b 622f 3d3d
00000350: ea0a 033d d6be 2b3d f46e 94bd 12db bc3d
00000360: 071d 22b9 161b ebbb 96b3 6e3c 2ab2 ce3c
00000370: d2ac ffbb c782 c23c e9f8 97bd 3788 11bc
00000380: 0523 c7bd c789 6bbd c891 403d 5511 95bd
00000390: 3469 50bd 4599 fdba be2f 853d e24a 2b3d
000003a0: 4202 a23d e9a8 993b 7df7 5abd 2b5e 4a3c
000003b0: 28be 603d aa61 cfbd 37b9 93bb ec6d 973d
000003c0: b2cd 57bd 4523 42bd 8fb7 163d ba09 9cbd
000003d0: 689d 4dbc 8823 c6bc 8bb3 89bd 1f37 263d
000003e0: 31b6 1dbd 4a3c 7a3b 03fc 973d 7467 9abd
000003f0: 7b44 d6bd 0aae 66bd 8bc2 0ebc 9b87 debc

encoder.4.bias f4 [128]
-0.023335202 -0.066427805 0.10050356 -0.0037915476 -0.0069861347 -0.006805319 -0.075918876 0.021522686
0.028049259 0.026314037 0.048517805 0.100832626 0.075120546 -0.045100983 -0.09067465 0.06985212
-0.06049294 0.07331977 -0.04541633 -0.019834533 0.03810331 -0.09658941 0.06775989 0.08617279
0.017534131 -0.084525816 -0.03996952 -0.032437794 0.0841598 -0.048013143 0.048282415 -0.08748271
-0.07072152 -0.03152495 0.038303226 0.07976349 0.011737945 0.03626209 -0.056672677 0.04909137
-0.059611205 -0.03446339 -0.07834899 -0.094239205 -0.0028195747 -0.05666339 0.028568592 -0.023278736
0.0048361216 -0.029856147 0.09169265 -0.0064232755 -0.058778077 -0.056971416 0.059655305 -0.08460298
-0.05499918 0.063514695 -0.012574634 0.07246209 0.045091603 0.026182538 0.057941977 0.05681812
-0.0051464597 -0.085035175 -0.03225546 0.04266994 0.08051615 0.04155545 0.026912618 -0.06787731
0.02185902 -0.0115603665 -0.019215023 -0.016354252 -0.054209974 0.036211032 -0.0030824079 0.0026847336
0.08281795 0.04975391 -0.08158993 0.011576605 -0.07026462 0.029060308 -0.06658537 0.08336437
0.08146533 -0.03373182 0.055865515 -0.04497547 0.030936483 0.012693817 0.013611051 0.021962395
-0.015866274 -0.03478803 -0.028535342 -0.052715234 0.09022888 0.08638935 -0.07387871 -0.017883947
-0.007329803 0.026790999 -0.07587495 -0.075671606 -0.088070296 -0.030932406 0.088818796 0.0116912
-0.0019713207 -0.0067177387 0.014650548 0.086515754 -0.0766439 -0.06111199 0.03834106 0.06506424
-0.010201882 0.09971623 -0.030191904 -0.0742823 0.06430033 0.03155346 -0.090410516 -0.08363811
00000000: 7729 bfbc 4d0b 88bd cfd4 cd3d 9d7b 78bb
00000010: f2eb e4bb 27ff debb 5b7b 9bbd 5850 b03c
00000020: 8fc7 e53c 8990 d73c 9bba 463d 5681 ce3d
00000030: cdd8 993d cfbb 38bd a2b3 b9bd a10e 8f3d
00000040: 72c7 77bd ad28 963d 7906 3abd 087c a2bc
00000050: 3712 1c3d abd0 c5bd b2c5 8a3d 5c7b b03d
00000060: bda3 8f3c df1b adbd 14b7 23bd 7edd 04bd
00000070: f95b ac3d 6ea9 44bd c8c3 453d 232a b3bd
00000080: 72d6 90bd 4e20 01bd d8e3 1c3d 0a5b a33d
00000090: 8250 403c 8f87 143d 9c21 68bd 0814 493d
000000a0: e12a 74bd 7c29 0dbd 6f75 a0bd 7c00 c1bd
000000b0: 9dc8 38bb df17 68bd ae08 ea3c 0cb3 bebc
000000c0: 5478 9e3b e194 f4bc 5bc9 bb3d 577a d2bb
000000d0: 48c1 70bd dc5a 69bd 1f59 743d 5444 adbd
000000e0: d246 61bd fe13 823d d605 4ebc 0167 943d
000000f0: f9b1 383d c37c d63c 9154 6d3d 1eba 683d
00000100: a2a3 a8bb ec26 aebd 4d1e 04bd adc6 2e3d
00000110: a7e5 a43d 0c36 2a3d da77 dc3c 4203 8bbd
00000120: b011 b33c b167 3dbc d368 9dbc 5af9 85bc
00000130: 470b 5ebd 0552 143d 3902 4abb 5bf2 2f3b
00000140: 759c a93d c2ca 4b3d 9f18 a7bd cdab 3d3c
00000150: e6e6 8fbd e20f ee3c e95d 88bd f0ba aa3d
00000160: 4cd7 a63d 602a 0abd 3dd3 643d 3338 38bd
00000170: 826e fd3c baf9 4f3c e300 5f3c 7bea b33c
00000180: fdf9 81bc e57d 0ebd f3c2 e9bc eeeb 57bd
00000190: ebc9 b83d e6ec b03d b94d 97bd 5b81 92bc
000001a0: d82e f0bb cc78 db3c 5364 9bbd b7f9 9abd
000001b0: 335e b4bd f565 fdbc a1e6 b53d 728c 3f3c
000001c0: 4631 01bb 7a20 dcbb da08 703c 2c2f b13d
000001d0: 7af7 9cbd 9150 7abd 840b 1d3d 6640 853d
000001e0: cb25 27bc 0638 cc3d 0355 f7bc 5221 98bd
000001f0: e4af 833d 333e 013d 2629 b9bd 754a abbd

decoder.0.weight f4 [128, 128]
-0.07713227 -0.03544402 -0.043975998 -0.0637589 0.11252303 0.009700968 -0.0193645 0.0952716
-0.017348574 0.08869992 0.005780498 -0.031455096 -0.03959297 -0.005077381 0.036977127 0.072133996
-0.07387574 -0.037156463 -0.045551453 -0.096384175 0.002555571 0.007751162 0.010448437 0.06496386
-0.04869205 0.08497123 -0.062246747 -0.06592729 -0.0654417 -0.052984033 0.11016919 -0.041933425
-0.053218145 -0.07123048 -0.010033268 -0.066394 0.033939335 0.0146450065 0.09588557 -0.02219841
0.04896478 -0.060982693 -0.07597408 0.100716725 0.009462703 -0.022036234 -0.0574288 0.010431846
0.06428917 0.0186638 -0.09580698 -0.063583866 -0.010706312 -0.066716306 -0.0055819517 -3.662646e-05
0.020091726 0.072292954 0.0469786 0.028661074 -0.10929596 -0.011427333 -0.055806827 -0.011441477
0.008381202 0.052886672 -0.08772161 -0.096821845 -0.07595728 -0.06427701 0.057128377 -0.013680973
0.047700908 0.073205836 0.09672125 0.023889942 0.02274126 -0.014756838 0.068364136 0.044362772
-0.0019274317 -0.012780093 0.1210651 -0.03505035 -0.022867827 0.11041539 0.0010247078 -0.007095723
0.004529467 0.07614212 0.020859757 0.03752184 0.07579321 -0.008291011 -0.052996263 0.079313435
-0.10480679 -0.092742346 0.070040196 0.02137868 0.09545588 0.06329275 -0.053446054 -0.007585565
-0.114643194 0.0074503524 0.0005789223 -0.016503371 0.051423743 0.047943104 0.059641864 -0.095485084
-0.06399867 0.07364934 -0.0071793594 -0.09594101 0.07545937 -0.058666937 0.030828247 0.0062317993
0.01882628 0.068107374 -0.06938425 -0.00948139 -0.027412899 -0.047690265 -0.08994222 0.06966143
-0.05349304 0.0075856624 0.027064873 0.015520349 -0.049265977 0.05256086 0.02516081 0.036475234
0.05908116 0.031427182 0.060627747 0.010332971 0.05922322 0.02210383 -0.017003458 0.037021123
0.0018215544 -0.058822826 0.07087159 0.045911245 -0.006025075 0.06036301 -0.05260261 0.001733484
0.0008724753 -0.083413444 0.059378944 0.018073903 -0.056385703 -0.011078034 -0.027309362 0.0554887
0.02451939 0.015124678 -0.06297131 0.0020594415 -0.07408314 0.061900884 -0.021032995 -0.05134915
0.008015334 0.06315063 0.0055702683 -0.062265936 -0.07407287 0.029857675 -0.0074223997 0.03781814
0.045653176 0.00810413 0.017654927 0.060894333 0.07180923 0.02935142 -0.023913352 -0.027802775
0.08087548 -0.07320656 -0.061029665 0.056258343 0.027030298 -0.033115122 -0.053637482 0.013610331
0.052051656 0.07152198 0.041720584 -0.055979773 -0.06082053 0.06401403 -0.08511317 -0.04997305
-0.07303573 -0.075019434 0.07682507 -0.075768694 -0.06492236 0.059083644 -0.037569735 -0.09092223
-0.07104424 0.08534855 0.0015415553 -0.07138584 0.07939576 0.08199516 -0.07342082 0.029242665
0.057494063 -0.017949225 0.08242238 0.03875548 0.004072441 -0.007935702 0.004786761 0.01011049
-0.022313947 0.08170021 0.046467103 0.08297075 0.0036137258 -0.06739487 -0.05829614 0.025935607
0.034299184 0.03244 0.010711581 -0.014113788 0.007433083 -0.06380266 -0.048343487 0.050416697
-0.04468281 0.00396973 0.00790265 -0.063113086 -0.0022386957 -0.06447178 -0.009642499 0.07768958
-0.058591537 0.05154269 -0.035079893 -0.056674242 -0.017413106 -0.019870736 0.016279435 -0.04415122
00000000: 86f7 9dbd c02d 11bd 2d20 34bd 0794 82bd
00000010: 7972 e63d cff0 1e3c 4da2 9ebc c21d c33d
00000020: 991e 8ebc 4ea8 b53d 556a bd3b 0fd7 00bd
00000030: 3d2c 22bd 2960 a6bb 5475 173d fdba 933d
00000040: 2a4c 97bd 6031 18bd 2994 3abd 1165 c5bd
00000050: 5e7b 273b 76fd fd3b ec2f 2b3c c60b 853d
00000060: 5171 47bd 6505 ae3d 72f6 7ebd e304 87bd
00000070: 4c06 86bd c905 59bd 62a0 e13d 62c2 2bbd
00000080: 45fb 59bd 49e1 91bd 9362 24bc 94f9 87bd
00000090: f903 0b3d 9cf1 6f3c a75f c43d 71d9 b5bc
000000a0: 4b8f 483d fdc8 79bd 4c98 9bbd 9244 ce3d
000000b0: 7409 1b3c 5585 b4bc 763a 6bbd 55ea 2a3c
000000c0: 0aaa 833d d3e4 983c 7336 c4bd 4238 82bd
000000d0: 8769 2fbc 8fa2 88bd cee8 b6bb 5d9f 19b8
000000e0: 6797 a43c 540e 943d a26c 403d a1ca ea3c
000000f0: 8fd6 dfbd b539 3bbc b395 64bd 0875 3bbc
00000100: 4f51 093c b29f 583d 63a7 b3bd 884a c6bd
00000110: 7e8f 9bbd aaa3 83bd 72ff 693d 2926 60bc
00000120: 0762 433d f1ec 953d ca15 c63d d7b4 c33c
00000130: e14b ba3c aac6 71bc 7f02 8c3d bdb5 353d
00000140: e0a1 fcba 9863 51bc fbf0 f73d f590 0fbd
00000150: 4f55 bbbc 7721 e23d 7d4f 863a 3d83 e8bb
00000160: ec6b 943b 66f0 9b3d 15e2 aa3c 80b0 193d
00000170: 7839 9b3d 05d7 07bc 9c12 59bd 156f a23d
00000180: f1a4 d6bd b3ef bdbd 3c71 8f3d 5722 af3c
00000190: 5f7e c33d a19f 813d 40ea 5abd 5590 f8bb
000001a0: 0dca eabd 1622 f43b d1c2 173a 1432 87bc
000001b0: b4a1 523d fd5f 443d 074b 743d af8d c3bd
000001c0: bc11 83bd 77d5 963d d540 ebbb b87c c4bd
000001d0: 718a 9a3d be4c 70bd 858b fc3c 1f34 cc3b
000001e0: 9239 9a3c e17b 8b3d 5419 8ebd d557 1bbc
000001f0: 0491 e0bc de56 43bd a033 b8bd a7aa 8e3d
00000200: 851b 5bbd 2691 f83b 27b7 dd3c 1049 7e3c
00000210: 1fcb 49bd 0e4a 573d 0b1e ce3c 0e67 153d
00000220: 16ff 713d cab9 003d cd54 783d 9f4b 293c
00000230: 0c94 723d 1713 b53c d64a 8bbc 76a3 173d
00000240: 39c1 ee3a 34f0 70bd 2025 913d 6e0d 3c3d
00000250: fe6d c5bb 343f 773d d675 57bd 1236 e33a
00000260: d4b6 643a abd4 aabd 5637 733d b90f 943c
00000270: b2f4 66bd a480 35bc e2b7 dfbc 1e48 633d
00000280: e3dc c83c 7fcd 773c 1af7 80bd b2f7 063b
00000290: e7b8 97bd c88b 7d3d 634d acbc 7c53 52bd
000002a0: bf52 033c 1e55 813d cc86 b63b 910a 7fbd
000002b0: 84b3 97bd 1598 f43c 9a37 f3bb 32e7 1a3d
000002c0: d3fe 3a3d 2fc7 043c 11a1 903c 566c 793d
000002d0: b810 933d 6472 f03c efe5 c3bc a5c2 e3bc
000002e0: 0ba2 a53d 52ed 95bd 3efa 79bd 266f 663d
000002f0: a56e dd3c b9a3 07bd fab2 5bbd defd 5e3c
00000300: 1e34 553d 1e7a 923d 34e3 2a3d 0c4b 65bd
00000310: f31e 79bd ca19 833d d04f aebd 8ab0 4cbd
00000320: c293 95bd caa3 99bd 7656 9d3d 9e2c 9bbd
00000330: 04f6 84bd b101 723d b9e2 19bd 6f35 babd
00000340: a47f 91bd 38cb ae3d 030e ca3a bd32 92bd
00000350: 3f9a a23d 14ed a73d a85d 96bd 508e ef3c
00000360: e57e 6b3d 410a 93bc 11cd a83d 11be 1e3d
00000370: 1c72 853b bf04 02bc 43da 9c3b 78a6 253c
00000380: bdcb b6bc 7152 a73d 4a54 3e3d 92ec a93d
00000390: 42d4 6c3b 5206 8abd efc7 6ebd e976 d43c
000003a0: 4d7d 0c3d cedf 043d a17f 2f3c 843d 67bc
000003b0: 3891 f33b f8aa 82bd d203 46bd bd81 4e3d
000003c0: 5205 37bd 8214 823b 1e7a 013c 6f41 81bd
000003d0: 15b7 12bb c809 84bd 92fb 1dbc b71b 9f3d
000003e0: aefd 6fbd 6d1e 533d efaf 0fbd 4023 68bd
000003f0: eea5 8ebc f4c7 a2bc 735c 853c e9d7 34bd

decoder.0.bias f4 [128]
0.05659051 -0.029292347 -0.016809156 0.08230911 -0.02358036 0.04581267 -0.06065823 -0.003957577
0.07028612 0.08584042 -0.06038968 -0.03438081 0.0010775174 0.051223148 0.10102167 0.035826337
-0.050395794 0.07026544 0.07040677 -0.040379275 0.0058837854 -0.074357785 0.07376415 0.015680477
0.02575673 -0.071729325 0.077475436 -0.038339805 0.087147236 -0.05666499 -0.024005111 -0.01617497
0.06750785 -0.055083442 -0.06392093 0.05802891 0.012493907 -0.056513295 -0.04478807 0.08732897
-0.07012767 -0.057160635 -0.013017476 0.0047195423 -0.02622716 -0.011642025 0.08415164 -0.043044046
-0.06910446 0.07476602 -0.085506745 0.01753873 -0.00760159 -0.023283966 -0.052417737 -0.016135965
0.011904971 0.07178787 -0.05365642 0.06252502 0.055104494 -0.06319516 -0.07544421 0.010528648
0.061296146 -0.0061541866 -0.05841169 -0.0030986287 -0.012420488 0.04306929 0.002782097 -0.07659871
-0.029631808 0.06105247 0.088017054 0.038289636 0.0772231 -0.037857693 0.0595195 0.024213277
0.011502819 -0.0072006206 -0.021745674 0.09325161 -0.0042695813 0.10193386 -0.07167945 0.06919506
0.0023382478 -0.043438975 -0.049453415 -0.081168905 -0.03341346 -0.008805794 0.03010451 -0.06938743
0.019518176 0.05905771 -0.026340716 0.01586563 0.050591387 0.081227235 0.058675822 0.008890268
-0.036204282 -0.031916697 -0.028796585 -0.08505086 -0.0045962175 0.075651616 0.09653339 0.07201885
0.066179946 0.055351544 -0.03357575 -0.029217444 -0.0034094402 0.029549267 0.042134725 -0.08662911
-0.08545775 0.08632129 -0.036124345 -0.018081121 0.013698127 -0.06744798 0.04166117 -0.07264722
00000000: 73cb 673d 81f6 efbc 5bb3 89bc ae91 a83d
00000010: 992b c1bc 11a6 3b3d c474 78bd 90ae 81bb
00000020: 2bf2 8f3d 1acd af3d 2b5b 77bd e4d2 0cbd
00000030: 7c3b 8d3a 5dcf 513d 73e4 ce3d a3be 123d
00000040: d26b 4ebd 54e7 8f3d 6d31 903d bd64 25bd
00000050: c5cc c03b e548 98bd a911 973d 5874 803c
00000060: c7ff d23c d3e6 92bd 71ab 9e3d 330a 1dbd
00000070: 407a b23d 8c19 68bd 5ea6 c4bc 5f81 84bc
00000080: 8e41 8a3d 2d9f 61bd fae8 82bd b9af 6d3d
00000090: 3eb3 4c3c 7c7a 67bd b273 37bd 88d9 b23d
000000a0: 199f 8fbd 4521 6abd 4047 55bc 64a6 9a3b
000000b0: 57da d6bc 31be 3ebc b257 ac3d f44e 30bd
000000c0: a486 8dbd ed1e 993d 291e afbd 62ad 8f3c
000000d0: c216 f9bb 04be bebc fbb3 56bd 922f 84bc
000000e0: 110d 433c 8505 933d d6c6 5bbd 1e0d 803d
000000f0: 40b5 613d 776c 81bd 7e82 9abd 5a80 2c3c
00000100: ab11 7b3d 0fa9 c9bb 1941 6fbd 5d12 4bbb
00000110: 4d7f 4bbc 6d69 303d d853 363b c9df 9cbd
00000120: 68be f2bc 2812 7a3d 4942 b43d 98d5 1c3d
00000130: 2527 9e3d ab10 1bbd b8ca 733d ec5a c63c
00000140: 5276 3c3c 2ff3 ebbb fc23 b2bc b3fa be3d
00000150: d8e7 8bbb b3c2 d03d adcc 92bd 24b6 8d3d
00000160: 4a3d 193b 11ed 31bd aa8f 4abd e23b a6bd
00000170: 8ddc 08bd 2d46 10bc bc9d f63c ff1a 8ebd
00000180: 95e4 9f3c 7fe6 713d 7cc8 d7bc a3f8 813c
00000190: ea38 4f3d 775a a63d 0f56 703d 7da8 113c
000001a0: f14a 14bd 15bb 02bd d1e6 ebbc 252f aebd
000001b0: de9b 96bb 3cef 9a3d 4cb3 c53d 9e7e 933d
000001c0: 5a89 873d 4db8 623d ba86 09bd 6c59 efbc
000001d0: ea70 5fbb 4e11 f23c 7695 2c3d 9a6a b1bd
000001e0: 7904 afbd 37c9 b03d 1ff7 13bd dc1e 94bc
000001f0: 1c6e 603c 2b22 8abd e7a4 2a3d 11c8 94bd

decoder.2.weight f4 [7, 128]
-0.03158154 -0.084987946 0.09931036 0.04646945 0.02686565 0.02883375 -0.15089194 0.003211327
-0.00933873 0.015869243 0.0366069 -0.08328169 0.013585584 -0.061829157 -0.16178235 0.0074267993
0.001107202 -0.09089779 0.116366446 0.08246292 0.07098959 -0.06940294 0.12742956 -0.06911773
0.0022072205 -0.0787448 0.029344881 -0.14263116 -0.11876779 0.047896456 -0.13557173 -0.028062124
-0.022030426 0.08523459 0.05760326 -0.05947806 -0.18421738 -0.041465003 0.06179215 -0.121999234
-0.021113086 -0.1307918 0.10783765 0.052879415 0.001985871 0.01409521 0.067381606 0.053755745
-0.08800299 -0.0035458195 0.056247685 0.046848543 0.028914675 -0.12067085 0.14070632 -0.016998757
0.0365205 -0.008067479 -0.050487965 -0.07701962 0.094357744 -0.0509332 0.017868131 0.095103465
0.0056274524 0.061796956 0.022342524 -0.025058411 0.049003687 -0.11636071 0.07268507 -0.078987
-0.01562693 0.030331118 0.048553273 0.024002774 -0.020812867 -0.02789409 -0.011489419 0.10275082
0.11264233 -0.009293089 -0.012620613 -0.0057673403 -0.018429026 -0.19389652 -0.06465479 0.042025056
-0.13229981 0.014300159 0.062000554 -0.06867747 0.01976617 0.01639419 0.07027364 -0.04790013
0.0759066 0.08075562 0.060903247 0.11689161 0.14333765 -0.12280254 -0.0069908476 0.060450647
0.01780921 0.08200333 -0.105740614 -0.01725745 0.06417808 -0.118824184 0.004541916 0.033246215
0.1270765 0.06203762 -0.07147721 0.03436747 0.0928587 0.09013009 -0.087428026 0.019690363
-0.0052536055 -0.1441467 0.02804716 -0.0774071 0.0625158 -0.0050010094 -0.05911448 0.007478692
0.064198464 -0.038373478 -0.024881106 0.038987536 0.0022365423 0.047762066 0.03600831 0.024646662
0.05337857 0.028795501 -0.026598211 0.04532634 -0.008664639 0.04304632 -0.116851635 0.076119006
0.03319459 -0.0644172 -0.014285059 0.009859478 0.06169666 0.07840089 -0.055860493 -0.07890365
0.010418324 -0.07150432 0.0024311545 0.027126072 0.02733505 0.08019373 -0.084924966 -0.08579281
-0.13642448 -0.0403488 0.061897036 0.042340863 -0.06631222 0.0010689613 0.07114954 -0.0877935
-0.010185161 0.06296695 -0.043399535 0.035052013 0.081795685 0.061719425 0.031071443 0.008794962
-0.040841002 -0.03793747 -0.033972237 -0.08358005 -0.061396573 0.024475114 -0.041569076 0.027332345
-0.15453194 0.0026203482 -0.16344379 0.011200346 -0.04476946 -0.12991363 0.068034016 0.02549161
0.09536574 0.0041209143 0.03764606 0.017203242 0.01882968 -0.11240718 -0.16892803 -0.03039573
0.025641771 0.05663762 0.05342734 0.08180727 -0.08664019 -0.14051598 -0.12170045 0.03617731
0.07979559 -0.057209395 0.068815894 -0.15474683 0.09706025 -0.05898541 0.045595955 -0.015833188
-0.11330709 0.056211255 0.038608436 0.057899646 -0.03440768 0.050972614 -0.060801614 0.023328628
-0.029489364 -0.031125082 0.064342216 0.047535248 -0.07375174 -0.05699999 -0.022686746 -0.01919777
0.104144864 0.048968546 -0.082120396 -0.042312067 0.034277324 -0.0505507 0.017598141 -0.017797891
-0.12086481 0.007631423 0.036193416 -0.06590309 -0.03699851 -0.07440206 0.011973746 -0.032922402
0.062292792 -0.028376453 0.117650926 -0.04659078 -0.04720133 -0.053936813 0.051079318 0.06423382
00000000: a55b 01bd 290e aebd 3b63 cb3d c056 3e3d
00000010: 5a15 dc3c c234 ec3c 6b83 1abe 2075 523b
00000020: 7901 19bc 3700 823c 1ef1 153d 978f aabd
00000030: 1296 5e3c 9240 7dbd 46aa 25be 825c f33b
00000040: 891f 913a 9f28 babd 8851 ee3d 52e2 a83d
00000050: fd62 913d 2123 8ebd e57c 023e 998d 8dbd
00000060: 04a7 103b f444 a1bd ad64 f03c e70d 12be
00000070: 873c f3bd 132f 443d 51d3 0abe 8ae2 e5bc
00000080: 2779 b4bc 798f ae3d 65f1 6b3d 449f 73bd
00000090: 7ba3 3cbe 35d7 29bd c419 7d3d bcda f9bd
000000a0: 5af5 acbc 49ee 05be fcd9 dc3d 1698 583d
000000b0: 6325 023b 98ef 663c 5eff 893d fc2e 5c3d
000000c0: e93a b4bd fb60 68bb f963 663d 42e4 3f3d
000000d0: 78de ec3c 4722 f7bd 5115 103e fa40 8bbc
000000e0: 8596 153d 762d 04bc 78cc 4ebd 76bc 9dbd
000000f0: a23e c13d 559f 50bd 3060 923c 9bc5 c23d
00000100: 7e66 b83b ce1e 7d3d ab07 b73c 4c47 cdbc
00000110: 17b8 483d 864e eebd e9db 943d f0c3 a1bd
00000120: 0c04 80bc f778 f83c ccdf 463d 77a1 c43c
00000130: bf7f aabc 2682 e4bc 1e3e 3cbc 066f d23d
00000140: 06b1 e63d 0a42 18bc b0c6 4ebc f5fb bcbb
00000150: 78f8 96bc cf8c 46be bb69 84bd 7722 2c3d
00000160: 9a79 07be 374b 6a3c 4bf4 7d3d c6a6 8cbd
00000170: aaec a13c 1c4d 863c a0eb 8f3d ed32 44bd
00000180: eb74 9b3d 3463 a53d af75 793d de64 ef3d
00000190: 1bc7 123e e67f fbbd 7b13 e5bb 199b 773d
000001a0: 9fe4 913c 5df1 a73d 898e d8bd 7f5f 8dbc
000001b0: cc6f 833d 185a f3bd 5ad4 943b 2f2d 083d
000001c0: 5820 023e 291b 7e3d a562 92bd e7c4 0c3d
000001d0: b42c be3d 2096 b83d 770d b3bd af4d a13c
000001e0: 7026 acbb 319b 13be 28c3 e53c 9d87 9ebd
000001f0: 4908 803d 82df a3bb 0622 72bd d10f f53b
00000200: 7c7a 833d 822d 1dbd 76d3 cbbc 65b1 1f3d
00000210: f492 123b 28a2 433d 737d 133d cce7 c93c
00000220: 7da3 5a3d 8be4 eb3c 7ee4 d9bc 1da8 393d
00000230: 21f6 0dbc 5751 303d e94f efbd 48e4 9b3d
00000240: 0df7 073d 2aed 83bd e10b 6abc a689 213c
00000250: a3b5 7c3d a590 a03d f9cd 64bd 3d98 a1bd
00000260: 9eb1 2a3c db70 92bd 0154 1f3b 7f37 de3c
00000270: c1ed df3c 9c3c a43d 24ed adbd 24b4 afbd
00000280: dcb2 0bbe c944 25bd bf87 7d3d 9d6d 2d3d
00000290: b4ce 87bd 641c 8c3a dab6 913d 14cd b3bd
000002a0: a9df 26bc d1f4 803d b6c3 31bd b392 0f3d
000002b0: 7f84 a73d 82cd 7c3d 8a89 fe3c bf18 103c
000002c0: e548 27bd 5264 1bbd 7926 0bbd 042c abbd
000002d0: f97a 7bbd 0980 c83c 5644 2abd 15e8 df3c
000002e0: 9f3d 1ebe 26ba 2b3b cf5d 27be a881 373c
000002f0: 2e60 37bd 1408 05be 6b55 8b3d c8d3 d03c
00000300: 1d4f c33d bc08 873b c132 1a3d d0ed 8c3c
00000310: b340 9a3c bc35 e6bd 78fb 2cbe 7700 f9bc
00000320: b10e d23c d9fc 673d a0d6 5a3d 928a a73d
00000330: 6970 b1bd 6ce3 0fbe 163e f9bd a92e 143d
00000340: df6b a33d 6654 6abd 59ef 8c3d f475 1ebe
00000350: 86c7 c63d af9a 71bd d3c2 3a3d 9ab4 81bc
00000360: 8c0d e8bd c63d 663d e123 1e3d 2e28 6d3d
00000370: 11ef 0cbd a9c8 503d 1d0b 79bd ae1b bf3c
00000380: ae93 f1bc 07fa febc dac5 833d 52b4 423d
00000390: 270b 97bd d278 69bd 8ed9 b9bc a444 9dbc
000003a0: e749 d53d 3e93 483d bd2e a8bd 6b4f 2dbd
000003b0: 6166 0c3d 400e 4fbd fa29 903c e2cc 91bc
000003c0: f887 f7bd 0411 fa3b 8c3f 143d 33f8 86bd
000003d0: c08b 17bd 1b60 98bd 882d 443c a4d9 06bd
000003e0: ba26 7f3d bc75 e8bc f8f2 f03d f9d5 3ebd
000003f0: 2f56 41bd d9ec 5cbd 8c38 513d 058d 833d

decoder.2.bias f4 [7]
-0.061219968 0.043282155 0.07034018 0.047817957 0.07290544 -0.047457147 0.03534592
00000000: cac1 7abd a148 313d 830e 903d c3dc 433d
00000010: 734f 953d 6d62 42bd e2c6 103d
