set_transformer/classification_model/deepset_multihot.pth (torch, 295612 bytes, 11 tensors)

embedding.weight f4 [198, 64]
000000 d2 79 0c c0 c4 da 69 3f 43 e6 89 3f bb cc 76 bf
       -2.1949353 0.91349435 1.0773395 -0.96406144
000010 cc 31 30 bf ae 9c 2e 3e e6 5a c3 be 0e 48 b0 3f
       -0.68825984 0.17051956 -0.38155288 1.3771989
000020 44 11 ad bf b4 81 3a bf a2 dc 89 3a f6 f1 d7 be
       -1.3520894 -0.7285416 0.0010518024 -0.4217679
000030 cd 50 47 bf e2 d4 24 3f 9e b8 2f 3e 2b 53 be be
       -0.7785767 0.64387333 0.1716027 -0.37172827
000040 1f 95 0d 3f e9 6f 63 3e f8 d0 1c bf 66 89 5e 3f
       0.55305666 0.22210659 -0.6125636 0.86928403
000050 07 1b 97 bd 2e af 54 3f b6 9b 11 3f 46 94 22 bf
       -0.07378202 0.83079803 0.5687822 -0.635075
000060 15 aa c0 bf 06 ba c1 be 06 b3 5e 3f 7e c5 82 bf
       -1.5051905 -0.37837237 0.8699192 -1.021652
000070 83 be 1e 3f 57 2a f1 be f0 7d 7f bf 98 88 71 3f
       0.6200945 -0.47102615 -0.9980154 0.9434905
000080 76 b3 36 bd 2e d1 bc 3e dc 2d 26 3f 50 e7 64 bf
       -0.04460474 0.3687834 0.64913726 -0.89415455
000090 49 57 27 40 ba f0 83 3c 75 09 a4 be 4d 87 11 3f
       2.6147025 0.016105998 -0.32038465 0.5684708
0000a0 72 c5 67 3f c1 23 30 40 89 b6 21 bf fc 73 8d 3f
       0.9053565 2.7521822 -0.6316915 1.1051021
0000b0 16 6a a6 3f 18 f2 50 3f fc a8 9b 3f 09 2d 00 bf
       1.3001125 0.81619406 1.2160945 -0.5006872
0000c0 3d a5 13 bf be 83 a9 3f 0c 09 33 3f 33 a0 52 be
       -0.5767401 1.324333 0.6993568 -0.20568924
0000d0 92 01 15 3f a2 9d 80 be 8d d6 eb 3e b7 17 2e bf
       0.5820552 -0.25120264 0.46062127 -0.68004936
0000e0 c2 4a 7b 3f c8 ab c8 3f 43 25 50 bf f4 7d 07 bf
       0.98160946 1.5677423 -0.81306857 -0.52926564
0000f0 ac d9 4f be 5d 2e a6 bf ba ed 2c 40 7e f7 ba bf
       -0.20297879 -1.2982899 2.7020097 -1.4606779
000100 5d 86 4f 3e 11 cc dd bd 24 f9 4c bf 78 85 1c be
       0.202661 -0.10829938 -0.8006766 -0.1528529
000110 01 62 90 bf 84 f8 e3 3e 7e f4 f7 3f 78 85 c7 3f
       -1.1279908 0.4452554 1.9371488 1.5587606
000120 be fe 3d 40 f6 bb 04 3f 93 64 c1 bf 77 af 4a bf
       2.9686732 0.51849306 -1.5108818 -0.7917399
000130 38 26 d6 3e 6a d7 af be 10 88 95 3f aa a7 b3 3e
       0.41826034 -0.34344035 1.1682148 0.35088855
000140 5e 67 ed 3e 1d df 95 3f ac 32 5b 3f a1 7b df 3f
       0.46367925 1.1708714 0.85624194 1.7459604
000150 3b a4 b4 3e fa 5f a0 3e 37 d3 20 bf ae 86 92 3f
       0.35281548 0.31323224 -0.6282229 1.1447351
000160 77 de 7e 3f ce d5 e2 3e 7e 85 20 3f 5f fa 82 3f
       0.99558204 0.44303745 0.6270369 1.0232657
000170 ee 61 22 40 84 bd 70 bf 11 7a 62 bf 94 59 bd bd
       2.5372272 -0.9403918 -0.8846751 -0.09245601
000180 89 67 98 bf 41 c7 1a 3e 39 cc c8 3e f3 39 8a 3e
       -1.1906596 0.15115072 0.3921831 0.26997337
000190 52 aa e6 be 9d 63 72 bf 9e c0 bb be 95 c2 9f be
       -0.4505182 -0.9468325 -0.36670393 -0.31203142
0001a0 e7 29 6e be b5 f3 09 bd 78 1d 01 40 ce e6 a0 be
       -0.23258172 -0.033679683 2.0174236 -0.3142609
0001b0 63 7b 4b 39 13 83 fa bf bf fe f6 be 9a e3 27 3f
       0.00019405554 -1.9571251 -0.4824123 0.6558167
0001c0 e9 3c 3a bf fd 91 02 3f 4a 43 9a 3f b0 de cc 3f
       -0.7274919 0.5100401 1.2051785 1.6005459
0001d0 a3 80 fe be 08 1f 79 bf 7e 01 8c be 65 98 14 bf
       -0.49707517 -0.97312975 -0.27344888 -0.58045036
0001e0 25 ce b3 bf b4 76 1b bf b1 cc 1a 3f cc d9 52 3e
       -1.4047285 -0.60728 0.60468584 0.20590895
0001f0 3e b0 29 bf bc 2e a5 bf f1 fa b7 3e d0 ce cf 3d
       -0.6628455 -1.2904887 0.3593364 0.10146868
000200 6c c5 ee 3e 70 91 a6 3d af bb e5 3d 6c 8e ef be
       0.46634996 0.08133209 0.112174384 -0.46788347
000210 57 5e 26 3f f4 0c 48 bf 4e 97 b4 3e 2c 6c aa be
       0.649877 -0.78144765 0.35271686 -0.33285654
000220 09 97 8b be 51 03 0c bf 18 d2 33 3f aa 62 02 3d
       -0.27263668 -0.5469256 0.7024245 0.031832375
000230 8e cc 54 bf 5d 11 ac be 03 dc c7 3f ac 3a b7 bf
       -0.83124626 -0.33606997 1.5614017 -1.431478
000240 a8 95 7e 3e 82 24 5b 3f 38 67 3e 3e 35 61 94 3e
       0.24861777 0.8560258 0.18594062 0.28980413
000250 0b d6 b4 bf df ed 37 3e 38 0d bc 3e 31 9f 87 3e
       -1.4127821 0.17961834 0.36728835 0.2648864
000260 5c f4 d0 3e f4 85 df 3e 6d dc c9 bd f9 27 fb bf
       0.4081143 0.43656886 -0.09856496 -1.9621574
000270 30 34 ff 3e e5 70 2c 3f 4b 01 13 bf f3 64 1a c0
       0.49844503 0.67359763 -0.5742385 -2.4124115
000280 13 9a 26 c0 6f e7 cc bd 11 c9 98 3f 6c 23 08 c0
       -2.603154 -0.1000508 1.1936361 -2.127162
000290 f6 42 c6 3f de 6f 94 3f 68 79 1e 3f 58 7b 04 c0
       1.5489185 1.1596639 0.61904 -2.0700283
0002a0 61 62 70 3f 6a f1 22 be 61 f4 69 bf f5 ac b9 3f
       0.93900114 -0.15912405 -0.9138852 1.4505907
0002b0 38 ff 9f be ad 2c ad 3f f7 4a 1a c0 44 fc 43 3f
       -0.31249404 1.3529259 -2.4108255 0.765568
0002c0 c8 a5 df 3f 2b e3 36 3f fa 76 a8 bf 6c 58 65 3f
       1.7472467 0.7144038 -1.3161309 0.89588046
0002d0 be 15 ec 3d d6 c5 a8 3f 97 2a 77 3f 28 55 20 3f
       0.115275845 1.3185375 0.9654936 0.6262994
0002e0 ce 0d eb bf 4a a2 a7 be 9b 96 18 bd dc a6 0c 40
       -1.8363588 -0.32741004 -0.037253004 2.1976843
0002f0 16 3a 7f 3f ef 80 b2 3f 50 56 74 3f 3e cf df 3e
       0.9969801 1.3945597 0.954442 0.437128
000300 84 ee fa be cc 2c f0 bd 4c d0 15 bf 5e f7 02 3f
       -0.49010098 -0.11727294 -0.5852096 0.511587
000310 9f be cb be c7 26 01 c0 0c 6d 92 be 91 4c 42 3f
       -0.3979387 -2.0179918 -0.2859882 0.7589808
000320 e1 47 98 3f 69 e6 c6 3d f8 7f d9 bf 84 d3 94 bf
       1.1896936 0.09711916 -1.6992178 -1.162705
000330 70 1a b7 be 0c ed 70 3f b1 f3 e0 be 42 8a be be
       -0.35762358 0.94111705 -0.43935922 -0.37214857
000340 66 f8 d2 bf af b3 70 be 79 bd d2 be 29 78 3a 3f
       -1.6482055 -0.23506044 -0.4116018 0.728396
000350 a9 82 29 c0 37 58 da 3f c3 02 80 bf 40 c0 9c 3f
       -2.6485999 1.7058171 -1.0000843 1.224617
000360 70 0f 2e 3f c5 01 3a 3f fb 85 24 3f 7d e9 ae bf
       0.67992306 0.7265895 0.6426694 -1.3665005
000370 37 1b 94 bf fb 54 70 bf bf 22 36 bf 7f 8c 2f be
       -1.1570805 -0.9387967 -0.7114677 -0.17143439
000380 34 4e 24 bf a8 e8 45 bf 16 f4 d2 be 57 09 93 3f
       -0.6418183 -0.7730813 -0.41201848 1.1487225
000390 da b5 6c be 9e ac a2 bf e5 d9 f7 bf c6 0e 77 3f
       -0.23116246 -1.2708929 -1.9363371 0.9650692
0003a0 cd ab 04 3d 37 04 de bf 15 ee 84 bf 87 ee 02 c0
       0.032390404 -1.7345036 -1.0385157 -2.0458086
0003b0 84 be 21 be 32 a1 07 bf 79 ac 1f c0 af f2 62 3f
       -0.15795332 -0.5298034 -2.494902 0.88651556
0003c0 b2 ce cd 3f a7 7a fa be 13 13 45 bf c1 f6 aa 3f
       1.6078703 -0.489217 -0.7698223 1.3356553
0003d0 dd bf ae be 2b df 7c 3f 87 d1 a8 bf 3d 94 11 bf
       -0.34130755 0.9877803 -1.3188943 -0.5686682
0003e0 f1 55 06 40 fd df cc 3f 53 b1 26 c0 ae 10 dd 3d
       2.0989954 1.6005856 -2.604573 0.10794197
0003f0 4e f0 16 bf 35 9d 06 bf bf 80 15 3f 21 55 e6 3f
       -0.58960426 -0.5258363 0.58399576 1.7994729

encoder.0.weight f4 [128, 75]
000000 b0 05 28 bb 5f 5b 23 3d 8a 1a ab bd 2c 77 14 3d
       -0.0025638156 0.03988206 -0.08354671 0.036246464
000010 64 18 50 3d b6 03 dd 3c 8c 4d c5 bd 50 d6 a9 bd
       0.05080451 0.026979309 -0.096339315 -0.0829283
000020 45 97 a0 3d 17 89 c3 3b 16 5f 63 bd 3d 06 34 3c
       0.078413524 0.00596727 -0.055510603 0.010987815
000030 69 b3 89 3d 77 fe f0 bc 3a d3 d8 3c 10 bd 28 bc
       0.06723673 -0.029418213 0.026467908 -0.010298982
000040 83 6d 6d 3c 98 f1 86 3d 77 bd 64 bc fc 77 cd 3d
       0.014491442 0.06589049 -0.013961188 0.10032651
000050 3e cb 19 bd 8b ff a7 3d 52 df f1 bd 65 38 70 3d
       -0.037547342 0.08203038 -0.11810173 0.058647532
000060 00 8d b1 bd 5f 1a 9b 3d 2e 9a 9c 3b 9b 58 e4 3c
       -0.08669472 0.07573389 0.004779122 0.027874282
000070 db 3e c4 bd a1 32 10 be de 08 62 bd 94 d9 32 3d
       -0.09582301 -0.14081813 -0.055184238 0.04366453
000080 4a bc 4b 3c e7 c2 95 bd 97 db 55 bd 05 25 ac 3d
       0.012435028 -0.07312565 -0.05221137 0.084054984
000090 79 bc 68 3d 98 aa 1d 3d 8c 97 e8 3d d9 79 d6 3c
       0.056820367 0.03849277 0.1135703 0.026181148
0000a0 9b e1 ef 3d 81 ff 99 bd ed 55 69 bd 22 51 a5 bd
       0.11712953 -0.07519437 -0.05696671 -0.080721155
0000b0 59 2f 2e bd 1b 3b 00 be 84 f1 8e 3d 9a 04 0e bd
       -0.042525623 -0.12522547 0.06979659 -0.034672357
0000c0 24 49 10 3e ce 59 9a 3d 06 20 61 3d 69 89 8a bd
       0.14090401 0.0753666 0.05496218 -0.0676449
0000d0 eb 1f 0d bd 1c ff 26 bd b1 06 b0 3d a5 cd 8b bd
       -0.034454267 -0.040770635 0.08595026 -0.06826333
0000e0 84 19 19 be 68 fb 3b 3d f8 d7 9e bd 87 a0 80 3d
       -0.1495114 0.045894057 -0.077560365 0.06280618
0000f0 2f 07 a1 bd ee dc 8c 3c f1 9c 2f bc cf a9 44 3d
       -0.07862698 0.017195191 -0.01071857 0.048013505
000100 3f a6 e5 bc 5e ab b7 3c 49 e3 c9 3d 91 84 dd 3d
       -0.028033374 0.022420581 0.09857804 0.10816301
000110 68 24 36 3d d5 99 04 3d 18 15 9f 3d 7b e5 91 3c
       0.044468313 0.03237327 0.07767695 0.01780962
000120 e4 28 94 bd 0b e9 24 3e f3 06 d8 bc 96 42 48 bd
       -0.07234362 0.16104524 -0.026370501 -0.048891626
000130 f0 b9 97 3c bd c8 fd 3c d3 2e 9e 3d f6 b6 9d 3d
       0.01852128 0.030979509 0.07723775 0.07700913
000140 02 b2 a7 3b e8 1d f1 bc d0 80 dc 3d b9 e5 f4 bc
       0.0051176557 -0.029433206 0.107667565 -0.029894697
000150 22 b6 d9 bd 42 85 c2 bd 5f 87 56 3d 1f b0 02 bd
       -0.10630442 -0.09498073 0.052375194 -0.031906243
000160 bd 30 b6 3d 52 b7 4b bb bc b8 18 be ae de a0 3d
       0.08896015 -0.003108461 -0.1491422 0.07854973
000170 18 ef 8b bb 7a f9 89 3c 25 35 94 3d 6d 56 33 bd
       -0.0042704456 0.016842593 0.07236699 -0.043783594
000180 5b 21 8e bc a8 1c 16 3e 9b a5 97 bd a7 7b fb bd
       -0.01734989 0.14659369 -0.074046336 -0.12279444
000190 45 14 4f 3d 48 cd a2 bd 06 4a bf 3d da b2 96 3d
       0.05055644 -0.079493105 0.09340291 0.07358332
0001a0 1a 39 61 3d a9 72 89 bd f5 20 55 bd 6c 5a 21 bc
       0.054986097 -0.06711323 -0.052033383 -0.009848218
0001b0 62 05 1b be 99 b5 69 3d fb ed e3 bd 20 9d 74 bc
       -0.15138772 0.05705795 -0.111293755 -0.01493004
0001c0 66 a9 e4 bc e6 c7 9c bd 6f 90 b4 3d 7b a0 99 bc
       -0.027912807 -0.07655315 0.08816611 -0.01875328
0001d0 1d cf 8b 3c 39 f0 76 3d ec 15 9d bd f1 42 c9 3c
       0.017066533 0.060287688 -0.07670197 0.024568053
0001e0 7c a3 75 3d a8 b2 c3 3d e5 e4 3d 3d 38 dc bd bc
       0.059970364 0.0955556 0.04636087 -0.023176298
0001f0 d7 d9 ab bd 09 00 ef bc d1 ad 9b bd 5e bc ae 3d
       -0.08391159 -0.029174821 -0.07601512 0.08532022
000200 ef e2 2c bc 4e 0a de 3c c8 7d 91 bd 3b 0f e4 bd
       -0.010552152 0.027104523 -0.07104069 -0.111357175
000210 3e 1a 95 bd 67 cf bd bd a0 10 84 3d 8a a6 30 bc
       -0.07280396 -0.092680745 0.064484835 -0.0107818935
000220 6f 3a 1e 3d 9a 5f ee ba 22 d3 af bd b4 3a 82 bd
       0.038629945 -0.001818645 -0.08585192 -0.06358853
000230 3f e2 a4 bc 3d 49 48 bd 75 61 7e 3d b1 d9 0b be
       -0.020127414 -0.04889797 0.06210466 -0.13657261
000240 bc 49 9d bd bd d6 01 bc dc 55 fe bc 95 e8 14 3e
       -0.07680079 -0.007924733 -0.0310468 0.14541848
000250 26 bb 2f be a8 79 89 bd b9 a9 73 3d 56 e4 a4 bd
       -0.17161235 -0.06712657 0.059488032 -0.08051364
000260 6e d5 3c 3c 21 06 19 bc 07 c1 c4 3d 94 67 16 3d
       0.011525495 -0.00933984 0.096071295 0.036719874
000270 e9 6a 5a bd 22 cb 0a bd 30 f4 19 3e 14 b8 03 bd
       -0.053324614 -0.03388513 0.15034556 -0.032157972
000280 dc 99 9a bd 1b b5 c5 bd f6 13 77 3d 9d 94 24 3d
       -0.075488776 -0.09653684 0.06032177 0.04018079
000290 b2 53 96 bb 00 06 b0 3c 65 07 03 be 08 84 87 bd
       -0.004587614 0.021487236 -0.1279579 -0.0661698
0002a0 55 ad 71 3d b9 b5 cc 3c 84 67 f6 bd a9 36 7c 3d
       0.059003193 0.024988996 -0.12031463 0.061575565
0002b0 a9 13 f9 bd 73 7f 51 3d ba 44 1e 3d eb a0 a2 bc
       -0.12161953 0.051146936 0.03863976 -0.019852122
0002c0 b1 cc 01 bd 95 eb 6f bb 92 ad ce 3d 8e 6b ea 3c
       -0.03168935 -0.0036608924 0.100917 0.02861574
0002d0 68 55 1f 3d db 25 a2 3d dc c4 a2 3c f6 95 b7 3d
       0.03889981 0.079173766 0.01986926 0.0896415
0002e0 3d ea 8f bd 0e 4b e3 3d 7e c9 63 3d f0 bb 25 bd
       -0.07027099 0.110983 0.05561208 -0.040462434
0002f0 0d 0d e9 bc 93 72 52 3d 5e f0 42 bd f8 c5 b6 bd
       -0.028448606 0.051378798 -0.047592513 -0.08924478
000300 f6 49 f5 bd 02 ec d4 bd a2 15 21 3e 71 9e 18 bc
       -0.119769976 -0.103965774 0.15730909 -0.009315119
000310 df 69 24 bd b4 b8 40 bd d5 03 d9 3d 0a d3 a3 bd
       -0.04014003 -0.047051147 0.10596434 -0.07999237
000320 8d 59 f4 3d 07 6c 6a 3c 9e 6e 95 bd bb 3e 25 3e
       0.11931143 0.014307982 -0.07296489 0.16137211
000330 34 b9 9a bd b1 25 8b 3d cf 19 e1 bd 0b 7e a7 3d
       -0.07554856 0.067942984 -0.10991251 0.08178338
000340 25 04 cc 3d 36 b7 fd 3d 83 19 2e 3d 58 ef 6d 3d
       0.09961728 0.1238846 0.0425048 0.058089584
000350 74 a9 41 bd fb 70 f3 3c 9f 5d fa ba 74 79 dd 3d
       -0.047280744 0.02971696 -0.0019101388 0.10814181
000360 3e c3 2b be 8f 52 0e 3c 46 d6 a5 3c 40 a4 cd 3b
       -0.16773698 0.008686676 0.020243775 0.0062756836
000370 a5 74 20 bd c7 dd c5 bc 34 80 b6 3d ee 17 e0 bc
       -0.03917374 -0.024153603 0.089111716 -0.02735516
000380 d2 fc 16 bd b1 92 0c bc 53 2f 01 bd 3b 93 2d bd
       -0.036862202 -0.008579896 -0.031539273 -0.042376738
000390 cf cd 33 3d a1 7d 7c 3d 5d 46 87 bd 9d f9 0b bc
       0.043897446 0.061643247 -0.066052176 -0.008543399
0003a0 01 1f e2 3d b6 c8 03 3e 7e e5 50 3d 48 e9 8f bd
       0.1104107 0.12869534 0.05100011 -0.07026917
0003b0 c1 96 6a 3c 58 82 71 bc e5 0e 18 3d 8f f4 a9 bd
       0.014318169 -0.014740549 0.03712358 -0.08298599
0003c0 dd e0 f8 3c fc 45 98 3d 4a 53 83 3d e6 51 71 bd
       0.03038066 0.074352235 0.064123705 -0.058915995
0003d0 82 78 c6 3d fd 3b 9d 3c dc 95 02 be 8d c6 16 bd
       0.09690954 0.019193644 -0.1275248 -0.036810447
0003e0 e3 2c 65 3d 9f 1c 1a bd e9 c5 53 bd 87 ba c3 bb
       0.05595101 -0.03762495 -0.051702414 -0.0059731635
0003f0 1e ed c6 3d 75 3f 52 bd c4 0f 46 bd f9 02 d0 bd
       0.09713195 -0.05133005 -0.04835488 -0.10156817

encoder.0.bias f4 [128]
000000 83 22 82 3d d2 24 6b 3d f7 5a 8c 3d 79 36 52 bd
       0.06354239 0.05740816 0.06853288 -0.05132148
000010 47 30 db bb 77 0f 03 3e 60 86 47 3b 27 3c 42 3d
       -0.0066891047 0.12798868 0.0030445084 0.047420647
000020 3c 88 93 3d e1 ae d8 3d e2 bc 8f bc b3 87 cd bd
       0.07203719 0.105802305 -0.017546121 -0.10035648
000030 5c d2 6b 3d d9 93 7f 3d fa 57 48 bd 42 78 e8 3c
       0.05757366 0.062396858 -0.048912026 0.028377656
000040 e7 fe b1 3d 08 b5 17 3d 9d 62 dd 3d 2e d8 18 bd
       0.08691197 0.03703788 0.108098246 -0.03731554
000050 bb c3 1d 3a d9 2b 42 bd ab 83 45 3d e0 1b 88 3d
       0.0006018241 -0.047405098 0.04822127 0.06645942
000060 11 e8 62 3d 73 bf 65 bc 27 a6 a5 bc 16 d1 9c bc
       0.055397097 -0.014022696 -0.02022083 -0.019142669
000070 81 fb 93 bc 34 4d 2f bd d2 d7 8d 3d e5 8c 16 bd
       -0.018064262 -0.042798236 0.0692593 -0.03675546
000080 7a dd 8f bc 91 d0 13 3d ef 4d 63 bb 93 35 b8 bc
       -0.017561663 0.036087576 -0.0034683903 -0.022486484
000090 fe 11 a4 3b 6a a0 30 bd ba 5d a8 bc 66 b6 92 bd
       0.0050070276 -0.043121733 -0.020552505 -0.07163696
0000a0 09 22 e2 bc e5 70 67 bd 4a 15 07 3b 90 e1 b7 bd
       -0.02760412 -0.05650415 0.0020612055 -0.089785695
0000b0 09 c0 60 3d 04 2e e2 3d dc 78 49 3d ad 45 d0 bb
       0.05487064 0.11043933 0.049187526 -0.0063559623
0000c0 b7 46 6e 3c ae af b9 bb 3f 29 b7 bd 73 af c1 bd
       0.014543227 -0.0056666946 -0.08943414 -0.094572924
0000d0 df a0 a9 3d bc 99 ab 3d 76 f6 02 bd 23 6f 6a 3d
       0.08282637 0.08378932 -0.031973325 0.057234894
0000e0 00 36 c9 bd 98 6e 48 3d 20 e6 45 bc 4b 9b 36 3d
       -0.09824753 0.048933595 -0.012078792 0.044581693
0000f0 d0 f1 9b 3c 28 47 bc 3c 68 d9 dd 3d 52 1b 80 3d
       0.019036204 0.022983149 0.108324826 0.06255211
000100 0a ae b6 bd 8c 7a a9 3d 26 a3 8d bc 38 95 ea bb
       -0.08919914 0.08275327 -0.01728971 -0.0071589015
000110 67 ff ef bc d0 46 09 bc 73 9e dc 3d 87 0c de bc
       -0.02929659 -0.008378699 0.10772409 -0.027105583
000120 ac 35 6a 3c 62 fb 1e bd 2d f7 7b 3d 18 95 b7 3c
       0.014295023 -0.038813956 0.061515022 0.02240996
000130 1a 12 c8 bd b4 44 c1 bc f4 ec d6 3d 92 c2 23 bd
       -0.097690776 -0.02359233 0.10494414 -0.03998048
000140 86 5d 3d 3d 5e 41 b8 bc 47 d4 d6 3d 73 90 2e 3c
       0.04623177 -0.022492107 0.104897074 0.010654557
000150 a0 ce 13 3d 94 f7 0c bd a2 c8 9b bd 09 65 b8 bd
       0.036085725 -0.034415796 -0.07606627 -0.09003646
000160 b0 bb 85 3d a2 76 c8 bd 09 96 30 bd 9d 15 c5 3b
       0.06529939 -0.097882524 -0.043111835 0.0060145394
000170 c6 c4 b8 bd 5e 09 d9 3d e2 b4 d4 3d 23 61 b7 bd
       -0.090219066 0.1059749 0.10386063 -0.08954074
000180 67 69 97 bc f2 b5 b1 bd 70 cb 51 3d cb c5 18 bd
       -0.018482877 -0.086772814 0.051219404 -0.037298005
000190 f1 a8 c4 3d cd d8 33 bb de 8d c3 3d 33 ac 06 bb
       0.096025355 -0.0027442456 0.095485434 -0.0020549416
0001a0 5c a5 9a ba b7 c7 9d 3c 45 ce 88 bd 20 76 b5 bd
       -0.0011798549 0.01926027 -0.06679968 -0.08860421
0001b0 54 68 07 3d ce dc 02 bc bc 02 f0 3d 5d 37 bd 3d
       0.03305848 -0.007987214 0.117192715 0.09239075
0001c0 b8 c4 34 bd ed ee ae bd fc 02 91 bb 6b 22 ff bb
       -0.044132918 -0.08541665 -0.0044254046 -0.0077860854
0001d0 a2 68 0f 3d 86 89 98 bd 7f 9c 0b bd 6a 6b c3 bc
       0.035011895 -0.074481055 -0.034084793 -0.02385493
0001e0 e6 6c f4 3d bd 02 f7 bc d5 75 dd 3d 47 28 7a 3d
       0.11934833 -0.030152673 0.1081349 0.061073568
0001f0 4d 8f 3d bd 57 1f 94 3d 22 63 81 3c 9c 8f 33 3d
       -0.04627924 0.0723254 0.01579434 0.04383813

encoder.2.weight f4 [128, 128]
000000 6c d7 a6 bc 9d b8 64 3d c8 9b 29 bd 2b 11 e5 3c
       -0.020366393 0.055840123 -0.04140833 0.027962288
000010 7b 83 3e 3d 69 b1 85 bd 48 31 36 bd 0a 3d c7 bd
       0.04651211 -0.06527979 -0.044480592 -0.09728439
000020 14 4e e3 3d fa 69 28 bd 80 1b 84 bd 8f 89 94 bd
       0.110988766 -0.041116692 -0.06450558 -0.072528
000030 70 fc cc 3d fa d3 9f 3a 5a 2e d4 bd b7 52 90 bd
       0.10009086 0.0012193911 -0.10360403 -0.070470266
000040 a5 73 a1 3d 68 63 5c bd b3 cf 2a 3b b8 e6 a7 3b
       0.078833856 -0.05380574 0.002606374 0.0051239394
000050 06 d2 6a bd eb 33 da 3d 2b aa 23 bd 27 d3 39 bd
       -0.0573292 0.10654434 -0.039957207 -0.045367386
000060 17 98 ea bd 25 81 a1 bc 5b be a5 bd 29 7b a5 3c
       -0.1145479 -0.019714901 -0.08092948 0.020200329
000070 be e7 a5 bc 64 ef 6b 3d b3 b3 74 3b 43 22 0f 3d
       -0.020252105 0.057601348 0.0037338554 0.034944784
000080 53 7a c4 bc 4d 37 0d be 78 d2 86 bb 58 6c c8 bc
       -0.02398411 -0.13790627 -0.0041144453 -0.024465725
000090 48 9a 8a bd 16 a8 18 3c 4b 70 aa 3d ae 7c 10 bd
       -0.06767708 0.009317419 0.083221994 -0.035275154
0000a0 53 41 c2 3d f7 67 ce 3d d0 57 09 be 29 25 21 3b
       0.09485116 0.100784235 -0.13412404 0.00245888
0000b0 09 cd 0c bd 73 57 d6 bc d1 92 61 bd 2a 2e 3d bd
       -0.034375224 -0.026164746 -0.055071656 -0.046186604
0000c0 29 fb 54 bb 6f 15 1f 3d 02 b9 d4 bc 1d 66 fc 3b
       -0.0032498336 0.0388388 -0.025967125 0.0077026025
0000d0 cb ae cf 3c 1f 92 56 bc 32 46 df 3d b3 af 93 bc
       0.025351902 -0.013096361 0.109020606 -0.018028116
0000e0 75 26 b0 bd cf 8c 8e 3d 79 0e b7 3d 77 8e 8b bd
       -0.08601085 0.06960451 0.08938307 -0.068142824
0000f0 68 a4 3d bc 94 14 f5 bc 6a 7e a5 3d 49 a3 82 bd
       -0.011574842 -0.029917039 0.08080752 -0.063788004
000100 5b 3b aa bc 85 0c 59 3c 63 76 52 bd 7f 2d 65 bd
       -0.020780256 0.013247614 -0.051382434 -0.05595159
000110 a5 ee f7 3b 9f f3 3e 3c b2 14 49 bd 8d 8b fd 3c
       0.0075662904 0.0116547635 -0.049092002 0.030950332
000120 55 61 4b 3c 8b 2f a2 3d cf 8a 2f 3d 03 28 bf bc
       0.0124133425 0.07919224 0.042856988 -0.023334509
000130 53 05 f0 3b 1e 8e 53 bd 81 eb 00 bb f4 1c 47 bd
       0.0073248534 -0.051649205 -0.0019671621 -0.048611596
000140 0b f7 fb 3c 03 d8 be bc c5 d7 6d 3d ef 0e 12 3c
       0.030757448 -0.023296362 0.058067102 0.008914693
000150 fc 60 08 3d ba 83 d0 bd d4 5f f3 bc fa 47 ab 3d
       0.033295617 -0.10181375 -0.02970878 0.08363338
000160 c0 e8 c4 bc da 10 39 3d 18 70 87 bd b8 d6 fa 3c
       -0.024036765 0.045182087 -0.06613177 0.030619964
000170 63 98 04 bd c6 1b c5 b9 4f 8c 37 3d 8b 7d 86 bd
       -0.03237189 -0.0003759546 0.044811543 -0.06566914
000180 60 86 b5 bd 5d b2 41 3d 99 5d 54 bc cd cf aa bd
       -0.088635206 0.04728924 -0.012961769 -0.08340416
000190 65 64 4d bd 2c 95 a0 3d 11 c1 5c ba d3 df 97 bb
       -0.05014457 0.07840952 -0.0008421103 -0.004634836
0001a0 af 1a 53 bd 69 8d 40 bd 03 23 db bc 09 a2 05 3e
       -0.05153912 -0.04700986 -0.026750093 0.13050093
0001b0 fe 55 8e bd 8f ee b9 3d cc cb 31 bc e0 a6 29 bb
       -0.069499955 0.090787046 -0.010851812 -0.0025886819
0001c0 e8 02 b6 bc 8b 47 7b 3d d0 76 fe bc a8 9c 46 bd
       -0.022218183 0.061347526 -0.031062514 -0.048489243
0001d0 12 30 ae 3b 67 62 cb 3d ec 76 52 3d a8 8a 33 bd
       0.005315789 0.09930878 0.051382944 -0.043833405
0001e0 b8 94 67 bc 85 25 26 bd 3c 33 4a bd 7d 91 74 3d
       -0.014134578 -0.040563125 -0.049365267 0.05970906
0001f0 42 58 7f bd 9b cb bf 3c d0 bb a7 bc ac 05 b7 bd
       -0.06234003 0.023412516 -0.020475298 -0.08936629
000200 64 de 16 bd ad 29 45 bc db c1 24 3d cf 1a 90 3d
       -0.036833182 -0.012033862 0.040223937 0.07036363
000210 07 01 d7 3c 10 71 4f 3d ac 45 a3 bd 1c 7b a1 3d
       0.026245607 0.050644934 -0.07972273 0.078848094
000220 b1 51 36 bd 08 86 41 bc c3 bb 8d 3c 08 8b 7b bd
       -0.0445115 -0.011811741 0.017301446 -0.061411887
000230 51 b4 c4 3d cb c7 5b 3d b7 a4 96 3d 86 b4 8a bd
       0.09604705 0.053657334 0.073556356 -0.06772713
000240 d7 07 4d bd 42 50 10 bd 0b c2 c4 3c 7c 75 14 3d
       -0.050056305 -0.03523279 0.024018308 0.036244854
000250 29 37 ed bb 7f 46 56 3d 3d 31 da 3a aa 2e 64 bd
       -0.0072392416 0.052313324 0.0016646754 -0.055708565
000260 c6 3a e1 3c 79 c5 06 3e 51 af 98 3c 70 82 8b bd
       0.027493846 0.13161267 0.018638285 -0.06811988
000270 a6 3e ca bd 95 97 dc 3d 87 1e 78 bd 7f f2 64 bc
       -0.098752305 0.107710995 -0.06057599 -0.013973831
000280 95 2b 92 bc 67 2d 80 3d 18 3c d4 3d 80 c5 64 bd
       -0.017843047 0.0625866 0.103630245 -0.055852413
000290 6a 6d 4d 3b 8d a8 1b bd 59 20 15 3d b9 cf 8a 3d
       0.0031345733 -0.03800254 0.036407802 0.06777901
0002a0 4a ae 85 bd 77 9f 88 3d 16 72 3d bd 53 86 36 3c
       -0.065273836 0.066710405 -0.04625138 0.011140424
0002b0 12 51 84 3d f1 be 96 ba f6 64 0a bd 06 3e 8a bc
       0.064607754 -0.0011500997 -0.03378769 -0.016875278
0002c0 db 9f e0 bc eb 2d 90 bc 4f c5 70 3d ec 37 c6 3d
       -0.027419975 -0.01760002 0.05878192 0.09678635
0002d0 b1 f7 9c bd 78 91 15 3b ea a6 3f bd 73 c3 88 3d
       -0.07664431 0.0022822302 -0.04679004 0.06677904
0002e0 49 6b a4 3d 69 0b 9b bd 49 c7 8d 3d 5e 22 93 bd
       0.080282755 -0.07570536 0.06922776 -0.071842894
0002f0 47 8c 64 bc 2f 8f 61 bd 46 25 a0 3b 0e d2 31 bd
       -0.01394946 -0.05506819 0.004887256 -0.043413214
000300 f1 61 a4 3d b8 1b 77 bd ea 8f 87 bc cf cd 75 3d
       0.08026493 -0.06032917 -0.016548116 0.060010727
000310 4e b0 6a 3d 1a cc 15 3d 0b 44 f2 3c 86 45 8f 3d
       0.057297044 0.0365716 0.029573461 0.069956824
000320 b3 45 13 3c f8 69 c1 3d fe 6d 1d bd 78 84 6d 3d
       0.008988786 0.0944404 -0.038434975 0.05798766
000330 e1 f6 13 3d 46 6d b5 3a 97 35 3c 3d 79 d4 33 3b
       0.036124114 0.001384177 0.045949545 0.0027439876
000340 d2 b5 9a 3d c7 39 b6 bd 5b 2d b9 bd b0 ed 38 3d
       0.07554211 -0.08897739 -0.09041854 0.04514855
000350 e4 9e 40 bc 9e 86 c5 bd cc b7 80 bd 80 00 e0 3c
       -0.0117566325 -0.09644817 -0.062850565 0.027343988
000360 56 0b 90 3d 55 ec a1 bd f4 d4 14 bd 82 b6 b0 3d
       0.07033412 -0.07906405 -0.0363359 0.086285606
000370 77 4a 8a 3d 75 c0 1c bd d4 31 2c bb 64 4d cc bc
       0.06752484 -0.03826948 -0.0026274817 -0.024939246
000380 26 e9 06 bc 15 10 dc bd b3 a3 be bd 2c 2c c9 3d
       -0.008234298 -0.10745255 -0.09308567 0.09822878
000390 89 ec 56 3d 4d d2 03 3d af a5 19 bd d0 44 b8 3d
       0.05247167 0.03218298 -0.037511524 0.089975
0003a0 07 fa 00 bd 84 a2 2f 3d f8 45 3f bb ad 5e 4a 3d
       -0.031488445 0.042879596 -0.0029185992 0.049406696
0003b0 ab bf 32 3d 8c 14 34 3d 16 af 95 bd d5 38 9d bd
       0.04363982 0.043964908 -0.073087856 -0.076768555
0003c0 8d 62 8d 3d ae 32 4f 3d 41 da 70 3b 50 49 84 bd
       0.06903563 0.05058544 0.0036751183 -0.06459296
0003d0 cc b5 f4 3c 78 61 81 bd da d9 74 bb 70 c0 d4 bd
       0.029871844 -0.06317419 -0.0037361295 -0.10388267
0003e0 98 40 a2 bd 49 8a b7 3c 27 87 9a 3d 11 85 c7 3d
       -0.079224765 0.022404807 0.075453095 0.09742177
0003f0 a4 89 85 bd 5f 8b ae 3d f8 4f 97 bd 36 1a 9e 3a
       -0.065203935 0.08522677 -0.073883 0.0012062255

encoder.2.bias f4 [128]
000000 7b d3 94 3d 3d 80 3e 3d b3 64 2a bd a5 2b 9b 3d
       0.07266899 0.046509016 -0.04159994 0.07576684
000010 51 a9 82 3d ec 25 74 bd a4 a0 5c bd 46 30 21 3d
       0.06379951 -0.059606478 -0.053864136 0.039352678
000020 d7 76 2f 3b bd 5d 13 bd 92 c3 95 bc 57 2e 71 bd
       0.0026773715 -0.035978068 -0.018281732 -0.058882084
000030 91 b2 89 3d b6 f2 09 bd 69 73 d6 bc 7a 0e 81 3c
       0.06723512 -0.033678733 -0.026178079 0.015753973
000040 eb b4 2b bc 5e d8 d7 3c 96 d9 81 3c 20 1f 08 bd
       -0.010480146 0.02634829 0.015850823 -0.033232808
000050 2c 91 e6 bc 00 52 89 bd ef 75 ed 3c be d7 84 3d
       -0.028145395 -0.067050934 0.0289869 0.06486462
000060 cc 8a 57 bd 3a 98 b1 3d f3 14 59 bd 94 d5 77 3d
       -0.0526226 0.08671613 -0.052998494 0.06050642
000070 58 07 30 3d f2 8e b6 3d 24 2e 8d 3d 9e fa 16 bb
       0.042975754 0.089139834 0.06893566 -0.0023037563
000080 7a 6d e4 bb cb ac b5 bb 2b c4 98 bd c1 f4 04 bd
       -0.0069710584 -0.00554428 -0.07459291 -0.032459978
000090 41 46 54 bd d3 e8 96 3c ba 5a fe 3c 8a f1 81 3d
       -0.05182481 0.018421566 0.031049121 0.06344898
0000a0 e8 88 aa 3d cd 5c 99 3d b1 11 34 bd 16 21 a6 3d
       0.08326894 0.074884035 -0.043962184 0.081117794
0000b0 78 a1 b2 bd 05 4a 77 bd 22 79 5d bd 9a c6 4d bb
       -0.08722204 -0.060373325 -0.0540706 -0.0031398893
0000c0 fd 98 43 bc 41 91 61 bc cd d8 b4 3d 92 b4 19 3c
       -0.011938331 -0.013767541 0.08830414 0.00938143
0000d0 28 48 c1 bb ee f3 d8 bc 71 f7 af 3d 03 68 c9 3c
       -0.0058984943 -0.026483502 0.085921176 0.02458573
0000e0 22 84 19 bd ae 99 41 3d ae bf c0 3d 1f 81 58 bd
       -0.037479527 0.0472657 0.0941156 -0.052857514
0000f0 77 c9 a9 3d 8e b1 5b 3c 6a ae 55 bd 36 aa 56 3d
       0.082903795 0.013409032 -0.052168287 0.05240842
000100 a6 9e 82 3d 0c 61 21 bd d6 88 25 bc 89 b4 04 3d
       0.06377916 -0.03939919 -0.010103425 0.032398734
000110 19 f7 13 bd 42 46 5a 3d 7e 08 13 3b dc 4f 4d 3d
       -0.036124323 0.05328966 0.0022435482 0.050124988
000120 4d 94 8a 3d c0 e5 a8 3d a6 14 53 3a 74 6f 9b bd
       0.067665674 0.08246946 0.0008052088 -0.07589617
000130 67 41 05 3d b6 7a 44 bd b5 86 9d bb 73 73 b0 3d
       0.032533076 -0.04796859 -0.004807318 0.0861577
000140 7d 38 7e bd c8 d9 c9 3c a6 cb 82 bd 74 03 9b 3c
       -0.06206559 0.024639979 -0.06386499 0.018922545
000150 1a 49 86 3d 94 6b 82 3c 92 83 b5 3c 12 44 3b 3d
       0.06556912 0.015920438 0.022157464 0.045719214
000160 3f 73 1f bd 04 9f 01 3d 3a d1 02 bd dc 01 93 bc
       -0.038928267 0.03164579 -0.031937815 -0.017945223
000170 f9 a4 97 bd 48 3e 2c bd 23 9f 96 3d d8 71 40 3c
       -0.07404513 -0.042051584 0.07354572 0.011745892
000180 c2 78 a8 bd 51 4c 8c bc 9b 17 1f 3d c2 e7 83 3d
       -0.08226158 -0.017126234 0.03884087 0.06440689
000190 15 da 6e 3d 68 17 1c 3c 8b c4 76 bb 82 7e 80 3d
       0.058313448 0.009527065 -0.003765377 0.062741295
0001a0 89 0d 30 3a 1c d4 a6 3d e6 96 96 3c 76 09 f0 bc
       0.0006715884 0.081459254 0.0183825 -0.029301386
0001b0 d9 bd e6 3c 15 24 9a 3d 22 e5 4f 3d a3 54 0f 3d
       0.028166698 0.07526413 0.050755627 0.034992825
0001c0 74 5f 9e 3d 23 47 85 3d 63 cb 93 3d 2f fd bb 3d
       0.0773305 0.06507709 0.07216527 0.0917915
0001d0 2f 5c 8d 3d ce 43 a1 3d 0f f5 83 3d 3c cc 3a 3a
       0.06902348 0.07874261 0.064432256 0.000712577
0001e0 1e 73 bc bc 8d 14 dc bb 1a ba 41 3d 49 3c 44 3c
       -0.02300411 -0.006716317 0.04729662 0.011977264
0001f0 82 b7 76 3d 39 0b 49 3d 38 d2 88 bd 2d 30 fe 3c
       0.0602336 0.04908297 -0.06680721 0.031028831

encoder.4.weight f4 [128, 128]
000000 d5 be 85 bd 48 a4 e7 3b ac 45 a6 bd 89 1d 83 3d
       -0.06530539 0.0070691444 -0.081187576 0.06402118
000010 ee ac 22 bd 0d db 6b 3d d1 47 09 3e e3 03 10 3d
       -0.0397157 0.05758195 0.13406302 0.035159957
000020 de 83 a9 bd 19 ac 42 bd 0d 5a 09 3d 87 4c 9a 3a
       -0.08277105 -0.047527406 0.033533145 0.0011772075
000030 d4 a7 51 3d e3 c9 81 3d 29 2e d2 3a 3c b4 a9 3d
       0.051185444 0.06337335 0.0016035485 0.0828633
000040 32 a0 46 3d 09 cd 55 bd 76 15 3c bd b5 e7 d7 3c
       0.048492618 -0.05219749 -0.045918904 0.026355604
000050 04 b6 5d 3d 9d f6 2f 3c 5a 89 dd bc 90 90 3e 3c
       0.05412866 0.0107399495 -0.027043033 0.011631146
000060 d9 66 4c bd a3 99 bd bc 62 f0 62 3d fb a3 b8 bd
       -0.04990277 -0.023144549 0.05540503 -0.09015652
000070 b3 46 ac 3d a1 a5 63 3c d8 87 13 3d 39 a7 81 bd
       0.08411922 0.0138944695 0.036018223 -0.06330723
000080 a8 4c ca 3b d6 6f a1 bc 91 43 85 3d b3 90 56 bd
       0.006173689 -0.019706648 0.06507028 -0.05238409
000090 a2 ad 95 bb 45 af 95 bc 1b d2 90 3d 9e 01 3c 3d
       -0.004567818 -0.018272052 0.070713244 0.04589998
0000a0 9b d8 8d bd d6 2f ca bd ff 59 8f bc a5 0a ad bd
       -0.0692608 -0.09872405 -0.017498968 -0.08449296
0000b0 a7 50 02 3d 48 a1 4d bd ac 39 10 3e a1 bd 6a bd
       0.031815197 -0.050202638 0.140845 -0.05730975
0000c0 27 a1 a1 3d 06 40 02 bd 00 49 79 3d 32 dc a3 bd
       0.078920655 -0.03179934 0.060860634 -0.08000983
0000d0 f5 8d ca bd 5b 8c b6 3d a8 df 91 3d 52 5c 54 bd
       -0.098903574 0.089134894 0.07122737 -0.051845856
0000e0 5f f4 c9 bc 4d 02 89 3d cf 55 19 3d f0 ff 38 be
       -0.024652658 0.06689892 0.03743535 -0.18066382
0000f0 9e fd 7a bd 13 3e 99 bd 18 ba c2 bc b5 43 ea 3d
       -0.061277024 -0.07482543 -0.023770377 0.11438695
000100 b0 53 1e bd 0f 00 06 3d 77 c5 6d bd f0 bc 2b 3d
       -0.03865403 0.0327149 -0.058049645 0.04192823
000110 2f 20 08 bd ed c0 c3 bd 45 96 c8 bd 08 d1 f1 3c
       -0.033233818 -0.09558282 -0.09794287 0.02951862
000120 eb 22 d2 3c 79 c9 b1 3d 30 2c fd bb 15 0e 59 bc
       0.025651416 0.08681006 -0.007726215 -0.013247986
000130 09 01 1c bd bb a1 9f bd 5f 89 83 bd 37 78 96 3d
       -0.038086925 -0.077945195 -0.06422686 0.07347148
000140 87 43 e2 3d c5 4d 44 3d 9b ed cc 3b 74 01 a2 ba
       0.11048036 0.04792573 0.0062539107 -0.0012360052
000150 e0 8c 05 bd da 45 1f 3d 92 d8 fa 3d 37 13 73 bd
       -0.032605052 0.038884975 0.12248339 -0.059344497
000160 40 4d 0d 3d 3f fc 3a bd f4 18 69 3d 8f b0 83 3d
       0.0344975 -0.045650717 0.056908563 0.0643016
000170 91 bc 3d 3d 34 9d 59 bd f1 a2 6d bd c9 d1 46 3d
       0.04632241 -0.053128436 -0.05801672 0.04853991
000180 3d 6b 7e 3c fa 01 80 bc 55 d5 58 bd 1c ac ad 3c
       0.015528497 -0.015625942 -0.052937824 0.021200232
000190 c7 f7 c8 bc b9 ea a2 3d 37 df 48 bd 22 1d 49 bd
       -0.024532212 0.07954926 -0.049041 -0.04910005
0001a0 9f 1d 88 bd a4 b2 cf bd d8 44 95 bd 30 50 b6 bc
       -0.06646275 -0.10141495 -0.072885215 -0.022255033
0001b0 65 5e 02 3d 82 a9 9a bd 53 43 d7 bd d0 fc 48 3d
       0.031828303 -0.07551862 -0.10510888 0.049069226
0001c0 7f 2d 99 bd 84 f2 d7 bc 4b 94 e9 bd cc a5 dd bb
       -0.07479381 -0.026360758 -0.11405238 -0.0067641493
0001d0 3e 1c 8c 3d 91 13 aa bd c7 3d ae bd ed 20 37 bd
       0.06841324 -0.08304513 -0.08507877 -0.044709135
0001e0 30 16 9a bb 0e 99 32 bd 7e 88 a6 3d 6c aa 9a bd
       -0.004702352 -0.043602996 0.081315026 -0.07552037
0001f0 1e 8a 98 3c aa d9 87 3a 7e 8c 30 bd 85 a1 99 3d
       0.018620547 0.0010364552 -0.043102734 0.075015105
000200 8a 77 17 bb fe 5d e1 3c de 8e 73 bd cc 88 75 bd
       -0.0023112022 0.02751064 -0.05946242 -0.059944913
000210 4b 1d 31 bd ba 6d 51 ba 0d c7 7e 3d fe 74 1d bd
       -0.043240827 -0.0007989068 0.06220155 -0.03844165
000220 ae 60 4b bd 87 c9 8c bd bd 24 1c 3c d9 1a 4a bc
       -0.049652748 -0.06874376 0.009530243 -0.012335503
000230 ee 22 a7 bc 8d 86 f6 bd 18 9e 61 bd 4f eb 4d 3d
       -0.020402398 -0.12037382 -0.05508241 0.050273236
000240 b0 36 0e bd ae 4e 9e bc ca f4 23 bd cf 88 b5 3d
       -0.034720123 -0.019324627 -0.04002837 0.08863985
000250 62 ab 55 3d 55 23 f7 bc 97 d6 8e bd 22 86 7e 3d
       0.052165397 -0.030168215 -0.069745235 0.062139638
000260 11 b2 41 bd 62 6d 77 3d ab b5 d4 bd d9 6d 6c 3d
       -0.047288958 0.06040705 -0.10386213 0.057721946
000270 96 7d 5c 3d 81 e4 cd bd 34 56 7f 3d ee b9 82 3d
       0.053830706 -0.10053349 0.06233807 0.063831195
000280 3d 10 00 bc 3a d2 a8 bd 88 18 90 3c e5 0a f4 bd
       -0.0078163715 -0.082432225 0.017589822 -0.119161405
000290 37 48 9a 3d 2c 97 b5 bd 4f 53 24 bd 3f 63 87 3d
       0.07533305 -0.08866724 -0.04011851 0.066107266
0002a0 0a 9a b1 bd 4f 5f 38 3d 79 f8 06 3d 18 29 7f 3d
       -0.08671959 0.04501277 0.032951806 0.06229505
0002b0 da dc 91 bd 6a 3c ad bd 9a 11 5e 3b f3 7e 9b 3d
       -0.07122202 -0.08458789 0.0033885003 0.07592573
0002c0 d2 92 53 3d f1 16 70 bd c6 ed 92 bd be 97 90 bb
       0.05165369 -0.05861563 -0.07174258 -0.0044126203
0002d0 4c 3c 42 bb 12 8c dd 3b a6 18 e1 bd 5b 36 28 3d
       -0.002963799 0.0067610824 -0.109910294 0.041067462
0002e0 79 83 da bd 1d f1 6e bd c4 e1 18 3d 43 3a 3a bd
       -0.10669608 -0.058335412 0.037324682 -0.04546572
0002f0 72 dd 2c bd 65 a6 ad bd 87 2a d6 3c 2c cf 61 bd
       -0.042203374 -0.08479003 0.026143325 -0.055129215
000300 d2 b8 f9 bb fc 25 a7 3d bc de 96 bd c3 bc 0f bc
       -0.0076209093 0.08161542 -0.07366702 -0.008773032
000310 73 9c 05 3c 9a a6 a4 bd 4a c7 14 3c 5d 9a c3 3c
       0.008154976 -0.08039589 0.009080717 0.023877317
000320 11 6d 8c bd 49 e6 fc bc 89 e5 d0 bd 27 3f ba bc
       -0.0685674 -0.030871527 -0.1020003 -0.022735192
000330 41 22 a2 bc 1d 26 75 bd a8 10 5a bd 88 8b 50 3d
       -0.019791724 -0.0598508 -0.05323854 0.050914317
000340 be b2 ae 3d b0 85 0d 3d 83 c9 d6 bc 59 23 8d bd
       0.08530186 0.034551322 -0.026219135 -0.06891508
000350 fc d8 82 3d 0e 18 00 be 7d 6f 84 3c 46 49 8c 3d
       0.06389043 -0.12509176 0.016166443 0.06849913
000360 c0 bc ec bd b5 31 61 bd e7 ad 57 3d cc 5c c3 bd
       -0.11559439 -0.054979045 0.05265608 -0.09539184
000370 23 83 16 3d 34 60 86 3d 64 b1 2c bd 60 b4 aa bd
       0.036746155 0.06561318 -0.04216136 -0.08335185
000380 13 5e 2b 3d cd 57 94 3d cc 43 59 3d 8f d7 aa 3c
       0.041837763 0.07243309 0.05304317 0.02085474
000390 4a 64 dc bd 35 a7 5c 3c 58 f7 73 bd a6 bf ad bd
       -0.10761316 0.0134676 -0.059562057 -0.0848382
0003a0 26 d7 8b 3d 52 64 33 bd 5c c5 0e 3d a3 b9 17 3c
       0.06828146 -0.043796845 0.034856185 0.009260568
0003b0 36 60 75 3c f8 e9 05 3d fd 46 0d 3c 25 01 90 3d
       0.014976552 0.032693833 0.008622882 0.07031468
0003c0 9c b0 ad bc af 17 85 3a f7 02 e7 bc 8a 9b b5 bc
       -0.021202378 0.0010154153 -0.028199656 -0.022168893
0003d0 17 68 f5 bb f4 32 0e 3d 69 90 2b 3d 60 33 53 bd
       -0.007489215 0.03471656 0.041885767 -0.051562667
0003e0 ff 76 80 bd 24 ae 81 bd b8 93 b8 bc da 47 98 3d
       -0.06272697 -0.06332043 -0.022531375 0.074355796
0003f0 d3 45 21 bd 6f 01 96 bd a7 c9 80 bd c6 87 fc 3c
       -0.03937323 -0.07324492 -0.06288462 0.03082646

encoder.4.bias f4 [128]
000000 3b 7f 2b bd 29 8b 82 bc dd 6d 31 bc 8d a5 57 bd
       -0.041869383 -0.015935497 -0.010829416 -0.052648116
000010 15 7c 7f 3d 2f 7b ba bd 83 8d 60 bd 1c 47 7a bd
       0.062374193 -0.09105527 -0.054822456 -0.06110297
000020 39 ab b9 bc 19 19 7b bd 0d 7a 90 bd 3f 09 0d bb
       -0.022664653 -0.061303232 -0.07054529 -0.0021520404
000030 8a e4 77 bd 29 f0 e4 bc 42 18 90 bd 06 e2 58 3d
       -0.060520686 -0.027946549 -0.07035877 0.052949928
000040 bf 96 75 3d 58 c5 30 3d 88 d3 3b 3c c3 40 dc 3a
       0.059958216 0.04315695 0.011464007 0.0016803968
000050 28 1d 9b 3d 13 a3 ac 3d 1d 1e f8 3c 0f 97 5d 3d
       0.075739205 0.084295414 0.030287797 0.05409914
000060 41 61 31 3d 56 52 19 3c 66 5c 2b 3d 74 e9 93 bd
       0.04330564 0.009358009 0.041836165 -0.07222262
000070 24 b4 ce 3c 53 75 0e 3d 66 5b 61 3a 50 93 03 3c
       0.025232382 0.034779858 0.0008596688 0.0080307275
000080 2b d3 9f 3d 7e 02 22 3d 0b 2c bb bd 96 d1 32 3c
       0.07803949 0.039553158 -0.0913926 0.010914227
000090 51 d4 3e bd 42 06 9f bd 66 a0 9a 3d 36 a2 9d bd
       -0.0465892 -0.077648655 0.07550125 -0.07696955
0000a0 f5 d3 a6 bd da 15 40 3c 42 1c be bd db 2b b5 3d
       -0.08145896 0.01172396 -0.092827335 0.088462554
0000b0 f5 6f c8 bc 6f d8 19 3d b1 56 a7 3d 01 c0 78 3d
       -0.024467448 0.037559923 0.08170832 0.060729984
0000c0 85 bb d9 3c f8 bb 6f 3c 46 6d 6d bd e8 98 70 bd
       0.026578674 0.014632218 -0.05796554 -0.058739573
0000d0 4b 67 94 3d 79 de cb bb 68 52 99 3d 18 7e b5 3d
       0.07246264 -0.006221589 0.07486421 0.08861941
0000e0 a6 5c 04 3d 50 e7 bb bd ea c3 8a bd e4 69 1e bd
       0.03231492 -0.09174979 -0.06775649 -0.038675204
0000f0 79 07 2d 3d 0c 2b ff 3c f7 9d a2 bd 4a 5e aa bb
       0.042243455 0.031148456 -0.07940286 -0.0051992284
000100 6f 46 82 bd 9b f1 93 bd aa ab 9c bd 32 e0 b8 bc
       -0.063610904 -0.07223817 -0.0764993 -0.022567842
000110 fe 07 a3 bb b3 c2 ac 3d af 3b 86 bd a3 de b4 bd
       -0.004975318 0.084355734 -0.065543525 -0.08831527
000120 f7 61 7f 3d 98 71 83 bd 4a 63 ae 3d eb 37 1a 3b
       0.062349286 -0.06418151 0.08515032 0.0023531865
000130 f5 f9 71 bd b6 33 05 3d aa 70 38 3d 6e 71 9c 3d
       -0.05907627 0.03252002 0.04502932 0.076388225
000140 7d 1c 41 bd 13 ac 45 3d 33 32 2d 3b 93 0b d2 bc
       -0.04714631 0.048259806 0.0026427626 -0.025640285
000150 74 63 6c bd ab d1 73 bc c3 5b 87 bd 55 1f 3f 3b
       -0.057712033 -0.014881532 -0.06609299 0.0029162962
000160 3e e7 97 3d fd ec ad bd 10 87 ad bc 8b 09 73 3d
       0.07417153 -0.084924676 -0.021182567 0.059335273
000170 f0 30 85 3d 44 bc 8f 3c 4d f9 92 3d 0e 39 09 3d
       0.06503475 0.017545827 0.071764566 0.033501677
000180 60 81 f3 3b 58 a1 f4 bc 31 cc 45 bd 24 17 2b 3c
       0.007431194 -0.029862091 -0.048290435 0.010442529
000190 ce d9 41 3d 3c 27 60 bc 18 be 04 3c 46 36 8c 3d
       0.047326855 -0.013681229 0.0081019625 0.06846289
0001a0 c9 f7 53 3b 7b 45 1d 3d 37 90 0e bd 7b cc 8b 3d
       0.0032343736 0.03839634 -0.034805503 0.06826111
0001b0 7b 0b 8a 3d e9 26 b0 bd 21 cf 72 3c f5 0d 27 3b
       0.06740471 -0.086011715 0.014819891 0.0025490497
0001c0 2c 93 8e 3c 86 21 49 bd d0 24 4e 3c db 01 4f bc
       0.017404161 -0.049104236 0.012582019 -0.01263472
0001d0 00 74 87 3d 94 95 9d bd 61 e3 63 3b 9f b3 ad 39
       0.06613922 -0.076945454 0.003477298 0.0003313096
0001e0 b4 8f 8d 3c 29 d1 7a bd e4 26 ad 3c d7 c8 45 bd
       0.017280437 -0.061234627 0.021136709 -0.04828724
0001f0 13 f9 08 3d 6c b5 28 bd 0c e5 80 3d 41 eb 15 3d
       0.03344066 -0.041188642 0.06293687 0.03660131

decoder.0.weight f4 [128, 128]
000000 6b f9 af bb ec 8a af bd e1 10 0a 3d 01 fa 31 3d
       -0.005370309 -0.08571419 0.033707503 0.043451313
000010 16 51 79 3d 07 5d 25 bd d4 0f 56 3b b0 45 e0 3c
       0.060868345 -0.04037192 0.0032663243 0.02737698
000020 c5 44 a0 3b ec cd 87 3c 06 0f 7a 3d 32 4d 59 bd
       0.0048910105 0.016577683 0.061049484 -0.053052135
000030 fd ae c7 3d e4 99 af bd a1 36 b6 3d 36 96 b0 bd
       0.09750173 -0.08574274 0.088971384 -0.086224005
000040 d9 2e 9b 3d a2 bb 5c 3d 29 91 63 bd be da 83 bd
       0.07577295 0.053889878 -0.055558357 -0.06438206
000050 e6 26 93 bd f6 73 26 bd 7c ec 5c 3d ef 94 a5 3d
       -0.07185154 -0.040637933 0.053936467 0.080850475
000060 6c 81 54 bd 32 37 45 3d 32 28 18 bd 44 2e 42 3d
       -0.05188124 0.04814834 -0.03714771 0.047407404
000070 8f da 85 3d df b2 48 3d 04 ab cb 3c d9 44 ee bb
       0.06535827 0.04899871 0.02486182 -0.007271391
000080 3c 56 4b 3b 5c 9d 43 3c 80 e8 8c 3d 92 28 24 3d
       0.0031026741 0.011939373 0.06880283 0.040077753
000090 53 a5 94 bd fc 57 e9 bc ea 08 70 bd 57 8c ca bd
       -0.072580956 -0.028484337 -0.05860225 -0.09890049
0000a0 16 82 11 3c 6a bf af bd 27 61 66 3c 7d a3 b6 3d
       0.008881113 -0.08581431 0.014061249 0.08917902
0000b0 16 91 22 bd 1e 2d 84 bc 5c 8a 29 3d ec 41 57 bd
       -0.039689146 -0.016134795 0.041391715 -0.052553102
0000c0 13 95 96 bd dd 79 a9 bd 5d 07 54 bc 27 77 19 3d
       -0.073526524 -0.08275197 -0.012941209 0.03746715
0000d0 f7 df 52 bd 79 25 70 3d 1a 44 07 3d ce e3 b7 3c
       -0.05148312 0.058629487 0.03302393 0.022447493
0000e0 e9 7a 94 bd 41 98 2e 3b 82 88 eb bb b6 27 3d 3c
       -0.07250006 0.0026641043 -0.007187904 0.011545112
0000f0 65 85 35 bd ee b3 e4 3c 23 3c 5d bb e4 93 59 3c
       -0.044316668 0.027917828 -0.0033757768 0.013279889
000100 23 35 45 3d b9 86 8d 3c eb 34 92 3c db d4 ba bd
       0.04814638 0.017276155 0.017847499 -0.0912263
000110 84 26 dc 3b df a7 1a bd c0 70 b7 bd 46 f5 91 3c
       0.0067184586 -0.03775775 -0.08957052 0.01781715
000120 90 10 a5 3c 13 97 bd bd b1 32 2b bc e4 c4 53 bd
       0.0201495 -0.09257331 -0.0104490975 -0.05170144
000130 29 a6 3b bd b2 f5 82 3b d3 85 10 bd 00 4a bc bd
       -0.04581276 0.0039965743 -0.035283875 -0.09193802
000140 a1 f9 09 3d 23 ab 17 bc 10 06 f5 3c 0f 56 1e bc
       0.03368533 -0.009257111 0.029910117 -0.009664073
000150 a9 3b b7 3d 66 1d 14 bd 19 90 3f bd 04 80 bc 3c
       0.08946926 -0.03616085 -0.04676828 0.023010261
000160 63 5e 1e 3d a3 37 48 3d d7 9f 80 3d 9c 2c 21 3d
       0.038664233 0.048881184 0.06280487 0.039349183
000170 0a 8c 7f 3a fd 71 74 3d c8 01 55 bd 8e fe 8b bd
       0.00097483455 0.05967902 -0.05200365 -0.06835662
000180 20 4b a7 bd 96 e2 45 3c d1 d1 98 3d 13 94 bc 3d
       -0.08168626 0.012077948 0.07461894 0.092079304
000190 91 a3 af 3d 68 40 6b bd 0a 9d bc 3c 4d 35 c2 bc
       0.0857612 -0.05743447 0.0230241 -0.023707056
0001a0 fb 05 87 bc 41 a1 2b bd 33 be 7d 3b 1b 78 97 3d
       -0.016482344 -0.04190183 0.0038718104 0.07395955
0001b0 26 f0 0e bc f3 21 06 3d 16 ab aa 3b 7b 02 9f bd
       -0.008724248 0.03274722 0.0052083833 -0.07764145
0001c0 89 4f c7 3d 08 85 9b 3d 70 e5 0a 3d a0 f2 b0 3d
       0.09731967 0.07593733 0.033910215 0.08640027
0001d0 77 9c 7c 3c 8b 69 e4 bc 4d f6 d9 3c 0e 7e f5 bc
       0.0154181635 -0.027882358 0.026606703 -0.029967334
0001e0 08 7c 85 bd 4c 6c 52 3d f0 6e 12 bd 85 96 2b bd
       -0.06517798 0.05137281 -0.03575033 -0.041891593
0001f0 ec 8e dc bc 64 4f 05 ba e8 05 04 3c 31 0e 89 bd
       -0.02692362 -0.00050853775 0.008058049 -0.0669216
000200 24 e1 55 3c 7b d1 12 3d 6f ee 78 3d 9b 4f 37 3d
       0.013054166 0.035844307 0.060774263 0.044753652
000210 05 79 f2 3c 41 07 aa 3b 89 5f a2 bc b4 c7 29 3c
       0.029598722 0.005188853 -0.019820945 0.010362554
000220 99 ac bb 3d 49 de 71 bd 24 8d 38 bc 67 8d 3c 3b
       0.0916378 -0.05904988 -0.011264119 0.0028770806
000230 90 0c d1 3c d0 14 93 bd 50 c5 74 bd cf 08 53 bd
       0.025518686 -0.07181704 -0.059758484 -0.051522072
000240 26 31 d0 b8 c1 4e b4 bc 57 f6 83 bc ef 7a 85 3d
       -9.9273675e-05 -0.022010209 -0.016108675 0.06517588
000250 49 83 81 3c 0e 00 de bb d7 82 62 bd da e8 8c bd
       0.015809672 -0.006774909 -0.05530056 -0.068803504
000260 4b e8 06 3c 6e 86 8e 3d d8 36 b7 bd ee 60 8e bd
       0.008234094 0.06959234 -0.089460075 -0.069520816
000270 92 6a ac bd 89 21 99 bd 90 3b a6 3c 80 9d de bc
       -0.08418764 -0.074770994 0.020292073 -0.027174711
000280 5f 56 b3 bd ea 4e bc bd 17 2d 5b bb 03 ea 4a bd
       -0.08756708 -0.09194739 -0.0033443624 -0.049539577
000290 e2 af 4c bd d8 1d 19 bd b2 65 f1 3c ef 8a a0 bd
       -0.049972422 -0.037381977 0.029467437 -0.078389995
0002a0 0f 53 42 bc 4b e6 a9 3c dd 3b 92 3d f9 89 df bc
       -0.011860623 0.020739695 0.07140324 -0.02728747
0002b0 51 ef 85 3d 91 66 81 bd 2e 4e 2c 3d a7 c9 9f bd
       0.065397866 -0.06318391 0.042066745 -0.07802134
0002c0 a4 12 48 bd c5 3c 86 3d 07 1e cf ba f7 10 60 bd
       -0.048845902 0.065545596 -0.0015801796 -0.05470368
0002d0 4c 09 6f 3d 98 5c 7d bd 27 90 68 3d fc 30 53 bd
       0.058358476 -0.061855882 0.0567781 -0.051560387
0002e0 19 d5 b8 3d 05 e1 63 bd dd cc 93 bd 04 d7 4a 3c
       0.0902502 -0.055634517 -0.07216809 0.012380365
0002f0 50 22 12 bd 86 eb 88 bd f4 a5 87 3d 6c 50 cb 3c
       -0.035677254 -0.066855475 0.0662345 0.024818622
000300 9c 4b 4a bd bb 41 a2 3d 97 17 a9 3d 0a be 7b 3d
       -0.049388513 0.07922693 0.082564525 0.061460532
000310 b3 70 e3 3c 54 16 14 3d 8f 7f af bb 3d ff a6 3d
       0.0277637 0.036154106 -0.0053557823 0.081541516
000320 08 19 62 3d e0 4f ee 3c 66 b7 60 3d 08 d2 4d bd
       0.055199653 0.029090822 0.054862402 -0.05024913
000330 98 62 8e 3d bd bd ec 3c 6b b4 db bc f1 63 85 3d
       0.06952399 0.028899068 -0.026819428 0.06513203
000340 53 26 97 bd ce 29 2b bc 40 f9 bf bd 72 de 0d bc
       -0.07380357 -0.010446979 -0.093737125 -0.008658992
000350 72 02 52 3d e3 ed 54 3d 18 3c 4a bd 09 68 c7 3b
       0.051271863 0.05198468 -0.049373716 0.0060854
000360 62 2f 10 3d 5d 18 81 3d 34 b0 ca bc 16 cd 8b bd
       0.035201438 0.06303475 -0.024742223 -0.068262264
000370 1b 86 6f bd 1e c3 d4 3c c5 6c d7 3c dd 56 88 bd
       -0.058477502 0.025971945 0.026296983 -0.06657193
000380 dc 39 1a bd a2 aa 8a bc f9 29 4a 3d 9e 1a df bc
       -0.037652835 -0.016927067 0.049356434 -0.027234372
000390 41 02 5c 3d b2 17 88 3d 0f ad ac bd 9c 7f 7a 3d
       0.053713087 0.066451445 -0.08431446 0.061156854
0003a0 f8 63 04 bc 84 50 c0 3c 3b e8 6d bc 61 b7 64 3d
       -0.008080475 0.023475893 -0.0145207 0.055838946
0003b0 7a 59 99 3d 9d ef 2d 3d 18 9c d4 3b 6c 75 6f bd
       0.074877694 0.04246484 0.0064883344 -0.05846159
0003c0 8f 10 50 bd 4d 7c 80 bd 70 96 8e bd e1 b6 68 3d
       -0.05079704 -0.062737085 -0.069622874 0.056815032
0003d0 cd 3e 4c bd 4f 20 80 bd d7 bb 7d 3d ce 63 89 bb
       -0.04986458 -0.062561624 0.061946716 -0.004192806
0003e0 36 fe 85 3d 9e c4 3a 3c 1c 69 ad bd 29 45 b3 bd
       0.065426275 0.011399416 -0.08467314 -0.08753426
0003f0 62 83 89 bd c4 c6 46 3c 95 5a 3d bc 1f 97 55 3c
       -0.067145124 0.01213235 -0.011557241 0.013036518

decoder.0.bias f4 [128]
000000 3e 55 98 3b e1 dc 73 bc 02 83 e6 bc cf 19 6a bd
       0.0046488335 -0.014884205 -0.028138641 -0.05715352
000010 40 67 a6 3d bd 4c b7 bd 1d 88 67 3d b5 e7 51 3d
       0.08125162 -0.089501835 0.056526292 0.051246364
000020 68 0d aa 3c 99 34 9e bd 5e f1 7e bd 20 b2 06 bc
       0.020758346 -0.07724876 -0.062241904 -0.008221179
000030 53 72 7f bd 6d c3 a7 3d 1a e9 a8 bc d2 b2 3c 3d
       -0.062364887 0.081915714 -0.020618964 0.046068974
000040 67 b5 c3 3c 1e 7e ff 3b e5 e6 c6 bc aa 8d 92 bd
       0.02389021 0.0077970168 -0.024280021 -0.071559265
000050 c8 b7 93 3d d9 19 9c bd 35 60 76 bd 4b 67 62 3d
       0.07212788 -0.076221175 -0.060150344 0.05527429
000060 2b 6b 70 bc f8 7e bb 3d 8d 88 dc bc 50 3e 75 bb
       -0.014673988 0.09155077 -0.026920581 -0.0037421174
000070 32 4a bd 3c e7 7c b1 3d aa ee 8c 3d 15 81 38 bd
       0.023106668 0.08666401 0.06881459 -0.045044977
000080 1c 2d 82 bc a4 0d 33 bb ab 64 7d 3d c0 ef 8d ba
       -0.01589065 -0.0027321363 0.061863583 -0.0010828897
000090 14 de 9e bc f6 3d 85 bd 00 db af 3d f0 4f 10 bd
       -0.019393004 -0.06505959 0.08586693 -0.035232484
0000a0 d0 b9 c0 3c 79 15 ef bc 3c ad 6c bd dd aa 20 bd
       0.023526102 -0.029185044 -0.057782397 -0.039225448
0000b0 e7 e0 ec 3c 5e 90 ff bc 73 f4 6b 3d d4 9e 69 3d
       0.028915836 -0.03119677 0.05760617 0.057036236
0000c0 d4 b9 46 bc 5a 62 0e 3d b2 1f 71 3d 40 12 94 3d
       -0.012129266 0.034761764 0.058868118 0.072300434
0000d0 a3 f0 49 bc 5e be 09 bc 40 c0 6e bd 5e a0 0b 3d
       -0.012325439 -0.0084072035 -0.058288813 0.034088485
0000e0 e4 22 26 3c 06 07 a9 bd e4 c1 b3 bb 84 f5 94 bd
       0.0101401545 -0.08253293 -0.00548576 -0.07273391
0000f0 81 43 61 3d e7 77 ad 3d c4 d4 b6 3d 13 b4 99 3d
       0.054996017 0.08470135 0.089273006 0.075050496
000100 45 c5 92 3d d5 a9 c6 3d cb 76 b9 bd ca 06 af bd
       0.071665324 0.09700362 -0.09055861 -0.08546217
000110 a4 c4 82 bd 84 56 aa 3d 96 78 76 bc 8d 84 80 bd
       -0.063851625 0.08317283 -0.015043398 -0.06275282
000120 ad 78 5d bd 9c 82 00 3d 8d 3d c3 3d ce 61 b2 3c
       -0.054070164 0.03137456 0.09533224 0.021775153
000130 7a 4e b9 bc ff 63 93 bc b4 df 87 3d 6f ee 2d bd
       -0.022620428 -0.017992018 0.06634465 -0.042463716
000140 41 89 48 3c 90 32 df bb cd 82 ba 3d 4c 03 03 bc
       0.012239755 -0.0068114474 0.091069795 -0.0079963915
000150 6e e4 07 3d 36 98 78 3d aa 15 9b bc f7 ff 2e 3c
       0.033176832 0.060692035 -0.018931229 0.010681144
000160 87 1f 85 bd 6f a0 85 bd a9 d7 b0 3d d6 ae 1a 3a
       -0.06500154 -0.06524741 0.08634884 0.00059006864
000170 57 2e 96 3c 75 2e 34 bc 62 f6 32 3c cd 8e 82 3d
       0.018332643 -0.010997404 0.010923 0.06374893
000180 aa a6 f1 bc 64 68 5b 3c 12 31 af bd e4 3a 7b bc
       -0.029498417 0.013391588 -0.08554281 -0.015333865
000190 0c 8f a7 3c a1 29 6e bd 42 c6 de bc 1d f3 69 bd
       0.020453952 -0.05814517 -0.027194146 -0.057116617
0001a0 6b 81 1f bd 27 84 09 3d ed b9 91 3d e4 06 bc 3d
       -0.038941782 0.033573296 0.07115541 0.09181002
0001b0 a2 7b 58 3c cf ed 73 bd 93 a6 44 bd 42 02 29 bd
       0.01321307 -0.059552964 -0.04801042 -0.04126192
0001c0 21 a1 46 3b 05 a3 cb 3c f4 6f dd 3c 1d 61 1f bc
       0.0030308443 0.024858007 0.027030922 -0.009727743
0001d0 15 84 ac bc 0a 1b 99 bd 40 aa 05 3d 1f b5 82 3c
       -0.021059075 -0.074758604 0.032633066 0.015955506
0001e0 5f ce ab 3d 27 28 d4 3d 8e 2f 85 bd f6 82 80 3b
       0.083889715 0.10359221 -0.06503211 0.0039218618
0001f0 6c d2 32 bd 4a cc ba bc c4 f4 a1 3d df 12 8c 3c
       -0.043657705 -0.02280249 0.079080135 0.017098842
