set_transformer/classification_model/deepset.pth (torch, 289333 bytes, 11 tensors)

embedding.weight f4 [198, 64]
00000000: 66ce 87be bdf8 193e 4c3d 3d3f 3c05 c3be
00000010: 919c 643e 8908 e4be 02aa 48bf d33f 723e
00000020: 3080 79bf de20 a5bd 3127 363f 77ec fabf
00000030: 7853 85bd 6138 2f3d 05c6 d2be 9796 a13f
00000040: cb62 9ebe e061 9bbf e94a a3bf 5485 e0bf
00000050: d43e 4b3f fe0f 68bf 4401 273f 622b 043f
00000060: 1149 1ebf 5ff4 5f3f 5ce1 a8bd d059 88bf
00000070: ccb7 81be be6f 4fbe 5b78 023f 339c bdbe
00000080: 9ba6 5f3e 8763 823f e0f3 903e 5f11 063e
00000090: dbca bcbe 0062 7a3e adb0 e43e e7e1 ebbe
000000a0: 533c 72bf 0186 16be e26f 033f 9868 f43e
000000b0: c891 2fbc 4a8d 9ebf 063b 6bbf 4067 83bf
000000c0: 299e 98be 9354 2ebe 7bec 3ebf 1c71 bb3f
000000d0: f5ac 9fbf 6c22 f53e 7606 d13e 7c38 99be
000000e0: 5ce9 923f 29da 91bf 2cc0 af3f 7c6a 01bf
000000f0: 2a73 0fbf 7d3d 4cbf be4e 9abf e17d 413f
00000100: 4e2b 4dbf f2ff ab3e a2bb 2cbf e382 31bf
00000110: 722d 773e 7d60 e2bf 8244 0cbf 96b0 53be
00000120: a182 93bf 1e78 27bf 72bd 0140 b84a e2be
00000130: b1d6 833f 00ed d3bd 7be2 88bf 464f a53d
00000140: b334 c0bf 0cdd 29be 024d 823f 8c82 593f
00000150: 38ae 4dbe aa8f 33be f89a f4be b2c3 e4be
00000160: 3401 0a40 ab18 0d40 cbdb 1b3e c230 3f3f
00000170: efed 9abf 3de3 603d c279 11bf dbca 0f3f
00000180: bb9c d83e a829 0dc0 a246 e83e 1d66 62bf
00000190: 0f14 b6bf b7f8 8a3e 3e75 8f3e eea8 89bf
000001a0: 1fae cf3e 5279 0bbf 7cbe 973e 4bd8 43bf
000001b0: 8130 84be 1e19 923e 1341 11bf 8bb4 7dbf
000001c0: 587e 7e3f ccf3 b53f fa65 d53e 426c 15bf
000001d0: 5397 213f b114 b03f 150a b6be a82c 00be
000001e0: 2ea8 0e3f 7cb1 11bf a2c8 ba3f 0f96 9a3f
000001f0: 279a 843f c829 66be 7d4f 2cbf ba82 bb3e
00000200: e973 183e 8b13 a8bf 7ee9 0a40 ed2e d93f
00000210: afb1 d33f d84e 843f 1709 51bf d063 86bf
00000220: 06c0 6c3f 76ec 6ebf 458a 873f 30af e53d
00000230: cdba 89be 8cd4 80bf 3eed 883e 5296 a7bf
00000240: 48b5 eb3e 01b4 dc3e a675 5dbe 05fa c23e
00000250: abe4 9b3f 2f50 723f 4f68 313f bab8 babe
00000260: c648 dabf 08fd a03e 1c2f 8abe 3f03 2dbf
00000270: b33a 24be 1bba 48bf 1fc5 38be 83d4 e8be
00000280: 8c9b eb3f 89f1 9dbf cc4b aabf 1d51 ae3e
00000290: c776 31bf be93 1b3f 290b 92bf 0973 843d
000002a0: fa1d 8bbe 66a0 edbf fbe5 793f 7970 2cbf
000002b0: 4d20 49bf c12f ef3e 7347 b83d 0c40 933f
000002c0: f6cf f0bd ad72 4a3f 743e 323f 1d43 913f
000002d0: 878b f33f 9953 b53e eb58 15bf bcc1 173e
000002e0: 6fcf 1b3f 1d4c 21bf ce03 bfbf 86b7 e63e
000002f0: b1ce 0abf f0ca 643e 990a 96bf e69b c73f
00000300: 4405 e03d 4943 bf3f 1d91 15be cdfe 94be
00000310: a2cb 4abf 02f8 883f c888 dc3f a9aa 91be
00000320: 51c4 fabf 28de 8cbf 946a ea3c 1268 d43f
00000330: 9cf0 27be 6de0 f2be 9483 23c0 bdc5 a83f
00000340: db9c fb3d 3011 713f 167f 803f 4b28 073f
00000350: a4fa 08bf 41ef 5f3e 325d 92bf 493d b83f
00000360: 5dcd ecbe 9b41 d5be 0b69 f2bd 8843 cbbe
00000370: 6dc9 4bc0 d2b2 d53e 1929 873f 293e 16c0
00000380: e176 45bf f1c1 cabf ad47 3e3f f23e 14c0
00000390: 544c 1fbf a4c1 fbbe ccca 70bd 5f45 9fbf
000003a0: effc 353d 2fde eb3e 775a 303f 6085 233f
000003b0: e466 183f b61a aabf 4d25 d2bf 9efb f73e
000003c0: 3fa2 59be db3c e3be d3ac d03f a74c 7b3f
000003d0: 99bc afbe 48c5 f43e 90b6 293e 408b 6ebf
000003e0: 3859 683f 44da c53e efdb ca3e 321b e1be
000003f0: b926 953e ee0f 8b3e 0597 6d3f 5c92 23bf
-0.26524657 0.15036292 0.73921657 -0.3808993 0.2232535 -0.44537762 -0.7838441 0.2365716
-0.97461224 -0.080629095 0.7115355 -1.9603413 -0.06510061 0.042778376 -0.41166702 1.2624081
-0.30934748 -1.2139244 -1.2757236 -1.7540689 0.79392743 -0.906494 0.65236306 0.51628697
-0.6183024 0.87482256 -0.08246109 -1.0652409 -0.25335538 -0.2025747 0.509649 -0.37033233
0.21840899 1.0186623 0.28311062 0.13092564 -0.36873516 0.24451447 0.44666043 -0.46070787
-0.946233 -0.14699556 0.51342595 0.4773605 -0.010715909 -1.2386868 -0.9188694 -1.0265884
-0.29808167 -0.1702445 -0.7457959 1.4643893 -1.2474657 0.47877824 0.40825242 -0.29925907
1.1477466 -1.1394702 1.3730521 -0.5055311 -0.560351 -0.79781324 -1.205528 0.755827
-0.801442 0.33593708 -0.67473805 -0.6934034 0.2413843 -1.7685696 -0.54792035 -0.20672831
-1.152424 -0.6541766 2.0271878 -0.4419763 1.0299894 -0.103479385 -1.0694116 0.08071761
-1.5016083 -0.16588229 1.0179751 0.84964824 -0.2008599 -0.17535272 -0.47774482 -0.44680554
2.1563234 2.2046306 0.15220563 0.74683774 -1.2103862 0.05490421 -0.5682641 0.5616891
0.42307076 -2.2056675 0.4536639 -0.8843706 -1.4224871 0.2714288 0.28019136 -1.0754678
0.4056253 -0.54481995 0.29637516 -0.7650191 -0.25818256 0.28534788 -0.5673992 -0.9910361
0.99411535 1.4215026 0.41679364 -0.58368313 0.6312153 1.3756315 -0.35554567 -0.12517035
0.5572537 -0.56911445 1.4592478 1.2077044 1.0359544 -0.22476876 -0.6730879 0.36623174
0.14887966 -1.3130964 2.1705012 1.6967446 1.65386 1.0336561 -0.81654495 -1.049921
0.92480505 -0.9332956 1.0589072 0.11215055 -0.2690033 -1.0064864 0.267435 -1.3092749
0.46036744 0.43106082 -0.2162691 0.38081375 1.2179159 0.946536 0.6929979 -0.3646906
-1.7053459 0.31443048 -0.26989067 -0.6758308 -0.16038017 -0.78408974 -0.18043946 -0.45474634
1.8406844 -1.2339336 -1.3304381 0.3404626 -0.69321865 0.6077231 -1.1409656 0.06467254
-0.27171308 -1.8564575 0.9761655 -0.6735912 -0.7856491 0.4671612 0.08998003 1.150392
-0.117584154 0.7908123 0.69626546 1.1348606 1.9026955 0.35415342 -0.58338803 0.14819998
0.60863394 -0.63006765 -1.4923036 0.45061892 -0.54221636 0.2234304 -1.1721984 1.5594451
0.10938504 1.4942409 -0.14606138 -0.29100648 -0.7921697 1.0700686 1.7229242 -0.28450516
-1.9591161 -1.1005297 0.028615274 1.659426 -0.16400379 -0.47436848 -2.554906 1.3185345
0.12285777 0.9416685 1.0038784 0.5279586 -0.5350745 0.21868612 -1.1434691 1.4393703
-0.4625043 -0.41651616 -0.118364416 -0.3969996 -3.184169 0.41737992 1.0559417 -2.347544
-0.7713452 -1.5840436 0.7432812 -2.3163419 -0.6222584 -0.49171174 -0.058787152 -1.2443045
0.04443067 0.4606795 0.6888804 0.6387539 0.59532 -1.3289402 -1.6417633 0.48434156
-0.21253298 -0.44382367 1.6302742 0.9816384 -0.34323576 0.47806764 0.16573548 -0.9318123
0.90761137 0.38643086 0.3962092 -0.4396606 0.29131106 0.2716059 0.9280856 -0.638952

encoder.0.weight f4 [128, 64]
00000000: ff52 23bd c3a4 f23d 9f5c cdbd 363c af3d
00000010: bf89 363e 2804 f63d 485c 0fbd 2f39 abbc
00000020: ea4c 043d 9291 abbd 0ce0 f63d 6142 813d
00000030: 475c 2b3d 3d1a b73c 163c e43d 4508 0b3e
00000040: 1cd7 293d 7362 ce3d 53fd 32bd 40c7 d83c
00000050: 4bd5 1abe fb77 04be efea 823d d0a3 133d
00000060: b9a7 2abd 9d48 19bd 9401 0f3d 2f1b 5f3d
00000070: afda 25be d322 573d 47f1 d53d f89b b73d
00000080: 6c4d 283e 4e9b a83d 694e 54bb bb00 a8bd
00000090: 3e9c 79bd 5d6a f0bd e4c5 a3bd 5038 85bb
000000a0: c39e 32bd 0429 a3bd 6410 88bd 7abc 0bbe
000000b0: 7817 10be c847 0e3d 5322 cbbd 65f6 133e
000000c0: f0e4 22bd ea9e cb3c a54e 813d 58a6 133e
000000d0: 0ddf 073e cbf6 6fbd 8c67 d93d 5f57 95bc
000000e0: 0f18 603d 51f4 27bc 15c7 49bd 3f81 adbd
000000f0: 8df2 cabc 0e69 d43d 4ebd 0ebd 1100 20be
00000100: d6fb d73c 4674 113c fa79 993d 5edf f3bd
00000110: 5687 e33d 2ee3 203d 22b7 cc3d 5952 87bd
00000120: 2887 8f3d a1bc 3abd d845 fdbd b3a1 883c
00000130: 9e5f 54bd 52e7 a63d 3f98 ab3d e9ba 2a3d
00000140: 8666 353e c61b ac3d eb27 293e 7db7 823d
00000150: eb0e 0439 568c 9a3c 5e39 abbc f5c5 e03d
00000160: 0fef de3d c901 bc3c fafb 333d bc61 77bc
00000170: ed88 0dbe 1aa0 833d 4f47 3fbd 4a49 893d
00000180: 1aed ccbd 6874 f2bc 01ca ed3d cf68 3c3c
00000190: 7d6d 07be 5eed 1cbe 45e5 8fbd 25f1 06be
000001a0: cba2 733c d49e 213d 1217 2e3e 4d3a f9bd
000001b0: fb91 aabd 1c7e 95bd 435a efbd c1b6 443d
000001c0: de61 0e3d 95a6 76bc 44e8 ca3d 520d c93c
000001d0: 25a5 c23d 7941 0cbe 82f7 9fbc 46b5 59bd
000001e0: 3977 243e 7d93 70bd f492 df3d f9c5 2ebd
000001f0: e954 31bc a5d9 b63d d0a0 a33c cd0f be3d
00000200: 5e9a ba3c e491 c53d ff16 cf3c 246d 9ebd
00000210: b58e ecbc a75f 253d c9b9 013d 3105 073e
00000220: 30ca 653d f6e6 d1bd de6d cc3d da60 54bc
00000230: 7f73 f73d 4acc 2f3d df06 753d 561e c53d
00000240: ff83 c53d aba9 a43c b7f3 aebd 9d39 c4bc
00000250: 404e 673d 4b79 26bc 871c ae3d 5a59 b4bd
00000260: 0f83 cbbc cdbe e6bd fbb8 ecbd 03e7 a83d
00000270: a174 05be 48d0 22bc a7af 76bd 54bf d5bd
00000280: bd1f d63d 220f e6bd b09c c9bd 99f9 7d3d
00000290: 5c4b a13c 3636 853d 9ef1 58bd 499d 16be
000002a0: f0a6 debd f0e8 c43b 4cf8 d13d 5e3d c93d
000002b0: 1917 ba3c 3806 0abe 3222 a53c 1deb a53c
000002c0: b10d 023e 8fe9 ec3c f34c bebd 7607 943d
000002d0: c158 793d 09c7 1fbd 4ba6 bcbd e02c cb3d
000002e0: d7ed c2bd 35c3 7dbd 09cd 0c3e bba8 d8bd
000002f0: 12f1 df3c 6985 973c 586f 903d 0002 803d
00000300: cbbd 083d 89de 653d 2bb6 793d b8f0 ae3d
00000310: c756 7bbc 38b8 063d 6245 aabc 8b56 06be
00000320: 54c6 173e f43a 64bd 882b 76bd 6056 d6bd
00000330: 9281 c93d 5954 d03d d671 8dbd 15d1 9a3d
00000340: 10d4 a7bd b761 cebc 2281 1d3e 3121 84bd
00000350: 7a4a cabb 2c5c e83c 454a 8f3c b44a 993d
00000360: e734 223c 9487 76bd 6c5b 7bbc 32dd e53d
00000370: 8e24 8dbd 725c 023e e943 95bd d6a2 113d
00000380: a094 cbbd 6daf b4bd 8708 eb3d 64b8 973d
00000390: d392 c3bd 6bad 0bbd 9bf2 8e3d 50b6 61bd
000003a0: ffbe 2fbd 75c4 f73d 3435 7abd 1794 db3b
000003b0: 1558 8bbc 475d 0dbe 85be cd3b 5a29 a83d
000003c0: cc29 41bd 3599 863d 38f8 9ebc ee32 1dbd
000003d0: ef3b b23d 467b 1bbd 4411 d3bd 2253 dc3d
000003e0: 7a85 3fbd ea50 d0bc 283a 003e dd21 00bc
000003f0: 8f0b a03c cec4 fe3c 965a 81bd a9b3 253b
-0.039874073 0.11847832 -0.10027432 0.08556406 0.17825983 0.120125115 -0.035000116 -0.02090129
0.032299913 -0.08377375 0.12054452 0.06311489 0.04183605 0.022351379 0.11144273 0.13577373
0.04146491 0.100773714 -0.04369862 0.026462197 -0.15120427 -0.12936394 0.06392466 0.036044896
-0.04166386 -0.037422765 0.034913614 0.054469284 -0.16196702 0.052523445 0.104464106 0.089652956
0.16435784 0.08232747 -0.003239537 -0.08203264 -0.06094002 -0.11739037 -0.07996729 -0.004065551
-0.04360844 -0.079668075 -0.06643751 -0.13646117 -0.14071453 0.034736425 -0.09918656 0.14449461
-0.039769113 0.02485605 0.063138284 0.14418924 0.13268681 -0.05858497 0.10615453 -0.018230138
0.054710444 -0.010251121 -0.049262125 -0.08471917 -0.02477386 0.103716 -0.034848504 -0.15625025
0.026365202 0.008877819 0.07493968 -0.11907838 0.11109798 0.039279155 0.09995867 -0.066075034
0.07008201 -0.045590047 -0.12366837 0.016678667 -0.051849 0.081495896 0.08378648 0.041682158
0.17714891 0.08403735 0.16519134 0.06382654 0.00012594058 0.018865746 -0.020901378 0.10975257
0.108854406 0.02295007 0.043941475 -0.015098985 -0.13821764 0.06427021 -0.046698865 0.06703432
-0.10006161 -0.029596522 0.11610795 0.011499598 -0.1322536 -0.15324923 -0.070261516 -0.13177927
0.014870356 0.03945811 0.17000988 -0.12169323 -0.08328625 -0.07299444 -0.11687138 0.04802585
0.034761302 -0.015054365 0.099075824 0.024542484 0.09504155 -0.13696851 -0.0195272 -0.05315139
0.16061105 -0.058734406 0.10916701 -0.04266927 -0.010823467 0.08928231 0.019974142 0.092803575
0.022778686 0.09646967 0.02527952 -0.07735661 -0.028876642 0.040374424 0.03167132 0.13185574
0.056101024 -0.102491304 0.09981893 -0.012962544 0.12082576 0.042919435 0.059821006 0.09624927
0.09644317 0.020100435 -0.08542579 -0.023953253 0.05647111 -0.010160754 0.08501535 -0.08806105
-0.024842767 -0.11266861 -0.1155872 0.08247187 -0.13032772 -0.009937353 -0.06022611 -0.104368836
0.10455272 -0.11233355 -0.09844339 0.062005613 0.019689254 0.065044805 -0.0529648 -0.14708437
-0.108716846 0.0060092136 0.10252437 0.09826158 0.022716092 -0.13478935 0.020157907 0.020253712
0.12700535 0.028919963 -0.09292021 0.072279856 0.060875658 -0.039008174 -0.09211405 0.099206686
-0.095180206 -0.061953742 0.1375009 -0.10579058 0.027336631 0.018496232 0.07052487 0.062503815
0.033384126 0.05612043 0.060964745 0.08542007 -0.015340514 0.03289053 -0.020785037 -0.13118951
0.1482175 -0.055720285 -0.06010011 -0.104656935 0.09839167 0.10172338 -0.06906478 0.075594105
-0.081947446 -0.025193078 0.15381292 -0.06451643 -0.006173429 0.028364263 0.01749147 0.074849516
0.009900308 -0.06018789 -0.015341621 0.1122383 -0.06891738 0.12730578 -0.072883435 0.035555683
-0.09940457 -0.08822522 0.11476236 0.074082166 -0.09549489 -0.03410093 0.06979867 -0.055105507
-0.042906757 0.12098018 -0.061085895 0.0067010033 -0.017009774 -0.13805114 0.006278815 0.08211012
-0.047159 0.06572191 -0.01940547 -0.03837865 0.08702838 -0.03795936 -0.103060275 0.10758044
-0.046758153 -0.025429208 0.12522185 -0.007820574 0.019536762 0.031099703 -0.06316106 0.0025284088

encoder.0.bias f4 [128]
00000000: 99c1 bf3d 15ff 87bc b0fc cebd db53 d4bd
00000010: 56dd 323d c7b5 3f3d 52b8 c63d f16d 62bc
00000020: 1212 a4bc 49df 76bd 058b b33d 27dd e23c
00000030: 9fbe 073e 20be adbc b43c ae3c e3cf 85bd
00000040: f66f ac3d 4a24 1f3d 103a 88bd dd24 91bd
00000050: 7c41 ad3d e051 88bd 9ea6 a1bb 57e5 f43d
00000060: 89b3 23bd 945f cbbd 9196 97bd 6668 05bd
00000070: 2a62 19bd ed20 c8bd 0499 87bd efb4 8c3d
00000080: d039 853d 9871 98bd cb14 d3bd 53b8 0cbe
00000090: 79fa a9bd 493d 343c 6c56 b4bd f7bc ecbd
000000a0: bf4d 693d 7e9c 38bd 4d89 ce3d 06cc 56bd
000000b0: 36b7 03bd 3e3d c1bd c006 943c 52ac c83d
000000c0: 0ff4 ddbc 7326 553c 4e43 88bd d1d6 a83d
000000d0: afcf c9bd bc5a 023e 6fb3 c9bd 38e9 7e3d
000000e0: 4000 4fbd 5bee 1abd bbd4 25bd 90d3 723c
000000f0: 47a6 c6bd a92c 383d 1a07 04bd a76c e13c
00000100: 5db6 fc3d 3e37 0d3d 3475 dd3d ce2c 9dbd
00000110: 0a35 6dbc c728 23bc 87c1 f53c 7093 d3bc
00000120: 8ec1 93bc 1715 43bd 19c7 a73d 615c db3d
00000130: 885c 89bd a641 83bd 4469 193d ce47 a9bd
00000140: 1e26 453c 5f89 a03d 6f9c b2bd 9bbe 19bb
00000150: 7814 dabd eefc 97bd 2bd4 e4bd 9961 1e3d
00000160: 560a c3bd 5b6d 06bd 312e 6abd 4e20 3d3d
00000170: 1bed 90bd 9198 c5bd 93cd 0abd 3b1c 4a3c
00000180: 8464 ca3d b167 3b3d 1598 89bd 1394 813d
00000190: fea7 163d f33b 64bd d4c5 dbbd 48d1 d9bd
000001a0: 9ee8 7abd 20a4 6abd e9fc d13d 33e0 5d3d
000001b0: 0071 5fbd c903 bebd 5825 bcbc 1278 0b3c
000001c0: a4e7 003e 9664 95bd 1f7f 71bd c73e 3bbc
000001d0: adcb 1ebd 2aa7 d5bc 7d91 703d a82d f73c
000001e0: 5258 0dbd 9de2 dbbd d6fe 663d b48a 883d
000001f0: 247b a5bd 6f92 0c3e 558a 1ebd 7fc9 7dbd
0.09363098 -0.016601125 -0.1010679 -0.10367557 0.043668114 0.046804216 0.09703125 -0.013820157
-0.020028148 -0.060271535 0.0876675 0.027693344 0.1325631 -0.021208823 0.02126918 -0.06533792
0.08419792 0.038852967 -0.066516995 -0.07087109 0.08459756 -0.066562414 -0.0049331924 0.119578056
-0.03996614 -0.099303395 -0.07401765 -0.032570265 -0.037447132 -0.09771905 -0.06620982 0.06870448
0.065051675 -0.07443541 -0.103067 -0.13742189 -0.08299727 0.01100094 -0.08805546 -0.1155948
0.05695891 -0.045071118 0.10084782 -0.052440666 -0.032157145 -0.09435509 0.018069625 0.097984925
-0.027093915 0.013009655 -0.06653462 0.08244098 -0.098540656 0.12729925 -0.09848677 0.062234133
-0.050537348 -0.03782497 -0.04048608 0.014820948 -0.09699684 0.044964466 -0.032233335 0.02751763
0.123394705 0.03447651 0.1081337 -0.076745614 -0.0144779775 -0.009958453 0.029999508 -0.02582714
-0.01803663 -0.047627535 0.08192272 0.10710979 -0.06707102 -0.06409006 0.037453905 -0.08265649
0.012033014 0.078387015 -0.087212436 -0.0023459557 -0.10648435 -0.074212894 -0.1117328 0.038667295
-0.09523456 -0.032819133 -0.057172958 0.046173386 -0.07076474 -0.0964824 -0.033887457 0.012335832
0.09882453 0.045753185 -0.067184605 0.06327071 0.036781304 -0.055721235 -0.10731092 -0.1063562
-0.061256997 -0.057285428 0.10253317 0.05416889 -0.054551125 -0.09278066 -0.022967026 0.008512514
0.12588364 -0.07294576 -0.058959123 -0.0114285415 -0.03876846 -0.026080687 0.0587325 0.030173138
-0.034508057 -0.107365824 0.056395374 0.066670805 -0.08080128 0.13727735 -0.038706142 -0.06195974

encoder.2.weight f4 [128, 128]
00000000: 7d3f bb3d 482f 303d 12a9 c53d 694f 8ebd
00000010: 10e0 b23d c244 1a3d a1bd a03c 5361 4fbc
00000020: df08 96bd 6670 5abd 8de9 a33d b1f3 103d
00000030: ef31 373d 2cb9 78bd 8c86 2cbd 163d 9ebc
00000040: 1bd0 503d a367 69ba 98ff 2ebd 7a41 ddbc
00000050: 4b08 e6bb 7dcc d53d b2b7 a03d 6da3 57bd
00000060: d26a 3f3d ed6f 6f3d e7f6 5d3b afda e43c
00000070: c1c8 0fbd a4c7 9d3d fc76 34bd c70f 813c
00000080: f4ed 62bd ac5c d73d 85d6 95bb 1eae 98bd
00000090: 0441 8dbc 92f8 923c 8b0a 413d 9789 96bd
000000a0: 1cc9 63bd 66a6 793d e08f 4e3d f59f 3b3d
000000b0: f310 6cbd cd07 c23d 7c88 b0bc 6ef0 8b3c
000000c0: e1e3 07bd ab92 8b3d 8115 0f3b 723e 71bd
000000d0: 5de3 75bd 9d87 e2bc d98b 3dbd 85f7 5f3d
000000e0: db5b acbd c1c8 98bd 05ca 5a3c d998 323d
000000f0: f785 343d b43a 6e3b b888 5c3c 0591 afbc
00000100: 4990 103d 6e94 8c3d b070 93bc dd8b a63c
00000110: 2a98 60bd 51d9 863c 7017 023d e471 79ba
00000120: a672 9bbd 7c17 cbbd b494 39bd dbcd ff3c
00000130: 6aa4 dd3d b7c9 f13c 8e6b 1e3c c929 3abd
00000140: 393e 983d 0431 723d ee84 0abc c291 7a3c
00000150: d57b fabc 314a a83d 2abc 403b 7c9f 4b3d
00000160: 262e ff3d e8e6 5d3d 27ac 553c 5e23 1cbd
00000170: efd5 29bd e2e3 1b3d d62d 0a3d 2637 4c3c
00000180: 5d46 a8bd 2c54 3d3d 4fca 44ba 05a0 6ebd
00000190: a601 3fbd 3342 18bd 52cd a63d c2f4 0c3d
000001a0: f968 2dbd 005b 30bc ef02 29ba 48b8 ac3b
000001b0: 2dfb 73bd 2d4e 4b3c 12dd 3cbd 47bd 513d
000001c0: 3ae3 95bc 1d16 14bb 0f3c 963d 006c 1b3d
000001d0: 2d58 393d 8a51 23bb d795 733c 39ac 39bd
000001e0: a430 d63c 6cf6 a0bc 7884 143c 426e 803d
000001f0: 7d61 103d f230 2abd 5ee8 c0bc be47 b7bd
00000200: 126c a73d 4852 71bd 7281 53bd a1f0 2f3d
00000210: df83 b53d 7f6a d33d 9988 9f3d b479 7c3d
00000220: 1db1 5fbd 9553 cf3c 50b2 823d c988 bf3d
00000230: d713 2b3d 10f2 d53d 9026 a73d 5c01 063d
00000240: edc0 493d e2f3 1cbd 126a c03c a826 b03d
00000250: 866d 8b3d c6a8 c23d 0688 ae3d c09f 83bd
00000260: 40a5 603d c56a b63d 12cf 41bd 688b 8abd
00000270: 4f60 1b3d 6348 8a3d dcd1 cb3d fb83 84bd
00000280: 95a8 85bd db20 663d ef62 803d 4d02 c83c
00000290: b947 003d 80c9 c63d bf8f 10bd d591 433d
000002a0: ba0e 8c3d 3a54 3a3d 36b0 243d d931 dcbd
000002b0: 88b5 4c3d d6b6 5d3d 2f03 493d ab71 383c
000002c0: ef0a 743d 8ae5 95bd 8012 85bd 408e bbbc
000002d0: cd29 783d 3e80 733d a667 303c 3aac 3bbd
000002e0: 2c18 90bd fc28 853d 5c1b 7c3d 22b0 89bc
000002f0: b01f 48bb f571 1ebd 2a6c f73d 8ad6 bf3b
00000300: 7a52 d93c 4b87 01bd a886 a93d 1975 b4bd
00000310: cd19 223d bdd2 d53d 7671 553d 4275 853d
00000320: a5ca aabd 39aa b4bc 648e 7fba cc37 8ebd
00000330: d566 913c 03a2 a63d 61b9 643d b135 e73b
00000340: e18c 21bd c987 e43c ada1 483d cd9d e33c
00000350: 8e7a 88bd 7d54 43bd 724d bebb be19 0fbb
00000360: 36a1 f1bc 308a 27bd a998 b33d b51f 80bc
00000370: 7383 6fbc 5a97 bdbc fad6 6cbc 9016 883d
00000380: 14cf 083d 45c3 31bd b385 49bc c08d f03c
00000390: a5f9 b0bc 8b8f 9ebd 1cb1 1dbc 6c09 7ebd
000003a0: 5e3c acbd ba75 b83d a57c 00bc 4f86 493d
000003b0: d89e 4abd d565 bcbc bafd 0ebd fb88 1fbd
000003c0: e4be 89bd 0dcd a1bc a1dc 313c e99b 3c3b
000003d0: 922a e63c 92f9 08bd b042 8e3d 2dde 2eb9
000003e0: 4072 803d 6b0f 283d 1459 3dbb 48c4 dbbb
000003f0: fc31 71bd 8831 08bd 43bd b73d 5944 86bd
0.09142969 0.04301384 0.09651388 -0.0694874 0.08734143 0.03766323 0.019621672 -0.012657481
-0.07325911 -0.053329848 0.08003531 0.035388652 0.044725355 -0.06072347 -0.0421205 -0.019316237
0.050979715 -0.00089036877 -0.042724222 -0.02700876 -0.0070200316 0.10439394 0.07847537 -0.05264609
0.04673273 0.05845635 0.003386909 0.027936308 -0.035103563 0.07704094 -0.044058785 0.015754594
-0.05540271 0.10515723 -0.004572692 -0.07455085 -0.017242916 0.017940793 0.047129195 -0.07350462
-0.055611715 0.060949706 0.05043018 0.045806844 -0.05763335 0.09474144 -0.021549456 0.01708242
-0.033176307 0.06815084 0.0021832886 -0.058897443 -0.060031284 -0.027652556 -0.046275947 0.054679412
-0.084159575 -0.07460166 0.013353829 0.043602798 0.04407307 0.0036350908 0.013460331 -0.021431455
0.03529385 0.06864248 -0.01799807 0.020330364 -0.054832615 0.016461046 0.031760633 -0.0009515567
-0.07590227 -0.09916589 -0.04530783 0.03122609 0.10822375 0.02951513 0.009669198 -0.045450006
0.07433743 0.059128776 -0.0084545445 0.01529354 -0.030576626 0.08217276 0.002940903 0.049712643
0.12459974 0.054175287 0.013041533 -0.038119666 -0.04146379 0.038059123 0.03373512 0.01246432
-0.08216546 0.04622285 -0.0007506953 -0.058258075 -0.04663243 -0.037172507 0.081446305 0.034413107
-0.042336438 -0.010763884 -0.00064472755 0.0052709915 -0.05956571 0.012408775 -0.046109267 0.0512059
-0.018296827 -0.0022596188 0.07335674 0.037944794 0.045250107 -0.0024920427 0.014867268 -0.04533026
0.02614624 -0.019648753 0.009064786 0.0627103 0.035249222 -0.041550584 -0.023548301 -0.089492306
0.0817491 -0.05891636 -0.05163712 0.04295409 0.08863043 0.10323047 0.07789726 0.061639503
-0.054612268 0.02530841 0.06381667 0.093522616 0.041766968 0.104465604 0.08161652 0.03271614
0.049256254 -0.038318522 0.023488078 0.08601123 0.06807999 0.09504847 0.08522038 -0.06426954
0.054845095 0.089070834 -0.04731662 -0.06764871 0.037933644 0.06752088 0.09952137 -0.06470486
-0.06526295 0.056183677 0.0626887 0.02441516 0.0313184 0.09706402 -0.035293337 0.0477465
0.06838746 0.04549048 0.04020711 -0.10751695 0.04997781 0.054129444 0.0490753 0.011257569
0.05958074 -0.07319172 -0.06497669 -0.022894979 0.06058674 0.059448473 0.010766899 -0.045818545
-0.070358604 0.06501958 0.06154953 -0.01680762 -0.0030536465 -0.038682897 0.120811775 0.0058544325
0.026528586 -0.031623166 0.08277637 -0.08811397 0.039575387 0.10440586 0.052110158 0.06516506
-0.083394326 -0.022053825 -0.0009748696 -0.06944236 0.01774923 0.0813637 0.055840854 0.007055961
-0.039440993 0.027896779 0.04898231 0.027785206 -0.066640005 -0.047687996 -0.005807572 -0.0021835412
-0.029495817 -0.04090327 0.08769352 -0.01564012 -0.014618742 -0.02314346 -0.014455551 0.066449285
0.03340061 -0.043399114 -0.012299943 0.029364467 -0.021603415 -0.077422224 -0.009624746 -0.062020704
-0.084099516 0.090068296 -0.007842218 0.049200352 -0.04946789 -0.022997776 -0.03490994 -0.038948994
-0.067258626 -0.019751096 0.010855825 0.0028779453 0.028096471 -0.033441134 0.069463134 -0.000166767
0.062717915 0.04103033 -0.0028892206 -0.006706748 -0.05888556 -0.03325036 0.08971646 -0.06556005

encoder.2.bias f4 [128]
00000000: d71e 743c c210 35bd c751 a83d b785 8bbd
00000010: 65e2 3f3d 275c fd3c a601 c8bc 3489 9dbd
00000020: 0822 053b 5261 99bd 6b25 2e3c b103 7b3d
00000030: 54d9 133c bc2f 98bd 1cf3 3ebd 75d9 77bc
00000040: a106 473d 577a 363d 22bc dabb 8ff6 d93c
00000050: 64ec 1a3d b4aa 4bbd bc43 793d 8b10 183d
00000060: 0ec4 5c3c 4fc3 55bd fe40 a9bc daee b7bc
00000070: 9b9b a8bd e944 0d3d fbf9 63bd 72a5 9dbd
00000080: 1d85 983d fd7d 3f3c 8f41 7d3d 0bbf 84bd
00000090: 349d 78bd db5c 0fbc f8a6 e2bc 4fed 74bd
000000a0: b4e4 f13c 47e9 593d 633f 6e3d f059 b03d
000000b0: 92ac c0bc 33f8 c6bc 46ac 773c cf30 ae3d
000000c0: 9539 5f3d 6990 5c3d 7898 bb3a 58b1 96bd
000000d0: 5139 9a3d 08f0 c73c 41ee 0d3d bf9d 3c3d
000000e0: 526a 9f3d 1d9d 7abc c6ad b43c 5438 85bd
000000f0: f097 83bd da60 483d 8992 6cbd de1f 05bc
00000100: 0b93 703d 4ca4 8a3d 0e6f 7abd d9ad 8ebd
00000110: 1fa6 bebc 4ea6 77bd 190e 823d f139 e73b
00000120: 3284 12bd f565 953d 76fd 863d 27fc 20bd
00000130: 0121 16bd c32e 003d d7a3 75bd 8116 983d
00000140: ec02 183d 179d 983c a57c 7bbd e46b 1cbd
00000150: 1fe4 463c a7e6 263d 685c 0f3c 5eb4 853d
00000160: 6a40 4bbd 18e9 e8bb beda 023c b87c d73c
00000170: db9e 7fbd 7866 49bd e284 4cbd 3c9b 99bd
00000180: 68b2 afbb 0599 b53d e6fe 473d 15fc 1b3d
00000190: be3a d83c 1cb1 c43d ed8c 83bd 3293 803d
000001a0: 59b0 32bc eb97 3a3c 1f6f 2f3d e10e 383d
000001b0: 094a 3dbd c76a b53c 3a65 8abd 5f52 c23d
000001c0: 408f 80bd 08f1 423b 8ed6 723d f206 8ebd
000001d0: 773d 883d 77e0 b33d 46da 2f3d d3c7 563d
000001e0: e26b 44bd 824f 13bd 6a08 cdbc fdfa 8c3d
000001f0: a122 c9bc 7f5c b33d 84d1 a63d aa1d 7ebc
0.014899931 -0.044205435 0.08218723 -0.068126135 0.046846766 0.03092773 -0.024414849 -0.07692185
0.0020314474 -0.074892655 0.010629038 0.061282817 0.009023983 -0.074309796 -0.046618566 -0.015127529
0.048590306 0.044550266 -0.006675259 0.026606826 0.037823096 -0.049723342 0.060855612 0.03712515
0.013474477 -0.052188214 -0.020660874 -0.02245276 -0.082328044 0.034489546 -0.05565832 -0.07697572
0.07447264 0.011687753 0.0618301 -0.06481751 -0.060696796 -0.008750166 -0.027667508 -0.059796628
0.029528 0.053200986 0.05816592 0.08610904 -0.023519788 -0.024288272 0.015116757 0.08505403
0.054498274 0.053848658 0.0014312407 -0.073580444 0.075304635 0.024406448 0.034651045 0.046048876
0.07783951 -0.015296248 0.022055518 -0.06504884 -0.06425464 0.04892049 -0.057756934 -0.0081252735
0.05873398 0.067696184 -0.061141066 -0.069667526 -0.023272572 -0.060461335 0.06350345 0.0070564677
-0.035770603 0.072948374 0.065913126 -0.03930297 -0.03665257 0.031294595 -0.059970703 0.07426167
0.03711216 0.018629594 -0.061398167 -0.03818883 0.012139349 0.04074731 0.008750059 0.06528543
-0.049621977 -0.007107865 0.0079867225 0.026304588 -0.062407356 -0.049169987 -0.049931414 -0.07500312
-0.005361844 0.08867077 0.048827074 0.0380822 0.026395198 0.096040934 -0.06423364 0.06278075
-0.010906302 0.011388759 0.042830583 0.044936065 -0.046213184 0.022145642 -0.06757589 0.09488367
-0.06277323 0.0029745717 0.059286647 -0.069349185 0.066523485 0.08783048 0.04293277 0.05243666
-0.047954448 -0.035964496 -0.025028426 0.0688381 -0.024552645 0.087578766 0.08145431 -0.015510002

encoder.4.weight f4 [128, 128]
00000000: 9115 bc3c c776 a43d eaa2 82bc 3b2b b93b
00000010: ef50 143d 2a1d 53bd feac 1dbc 5beb f13d
00000020: a817 7cbd 24b8 0bbd 4142 38bc fa8e 8dbd
00000030: 70d6 f23d 6e07 2abd 8b09 d4bd aa38 9cbd
00000040: 40d6 ddbc cc1d 593d 4eb6 9b3d 04b1 00bc
00000050: e856 89bc 5e5d 503d 973a 5a3d dc2f 93bd
00000060: c02f 2bbc 3b2e 9b3d b419 36bd f7b1 2cbc
00000070: f951 883d 50c8 c03c bff6 0abc ad41 d73d
00000080: 0e3a 8d3d 5d16 f33d 66a3 45bd 08f5 ebba
00000090: 9f65 4dbd 7358 a43d 810a 233d 1f8e 89bb
000000a0: a638 873d 07b3 463d 1058 3ebd aaf6 d0bb
000000b0: 0bcf 183c cfb3 fcbc f072 1fbd f242 393d
000000c0: ae0c debc ffd5 86bb 4a77 abbd 8219 993d
000000d0: 775f 6cbd 1908 92bd b8bd bbba 3fa4 75bc
000000e0: 0a45 ae3c 8296 c73d 5b7d d9bc 42df 5d3d
000000f0: b1a2 86bc 5d1c d53c 8a00 953d ba81 19bd
00000100: 360a d23c a439 e5bc 4f70 0ebd b588 9fbd
00000110: b90c 4a3c 99a9 813d 21a9 8a3d 1521 9e3b
00000120: 4c7d f03d 3f57 973b 6123 37bd 21e7 6b3c
00000130: 8a2c b83d c3bd 3e3d 2bc6 d3bd c9e9 8fbb
00000140: 069e 8ebc 849e f73c 6e97 93bd 2a77 bdbc
00000150: ee1b 583c e50c 00bd f68e b93d b577 7e3d
00000160: c861 4fbc bba0 dc3d 0fd1 c7bd a61e 713c
00000170: 33c6 fa3d 5c33 01bd b8e2 0c3c ccc7 ec3c
00000180: 4562 d2bb 6d39 9ebd 11b0 0e3d c2c6 5f3d
00000190: 4438 89bd de3f 88bd 702e f83c 8177 49bc
000001a0: a2f1 cdbd fffd f03d f360 c2bd 44ba da3c
000001b0: 7870 ce3d 7598 adbc 47b8 4c3c edcd e3bd
000001c0: 5670 ac3d 8830 793c 1f7b 673d a33a e03c
000001d0: 3f6c adbc 845f c0bc e7ca a13d 91cb 9ebd
000001e0: 9371 fa3d c381 79bd fdd6 e9bb 88af 5abd
000001f0: 43a7 293c 7a00 8ebc ec24 013c 75ae cebd
00000200: e0ac 14bc 258a 97bc a93f bc3c 74cd 2d3d
00000210: 3c81 313d ce59 1a3d 9564 883d 54d8 053e
00000220: 24d1 47ba 27e7 e4bc cf50 e73d 4ee9 853d
00000230: ccb3 dc3d 22bc 2b3d a110 9abd 4e4d 6e3d
00000240: c1fc 41bc 33ea 1cbd 58c9 413b 3264 c23d
00000250: 9061 b43d 1e1b 993d e322 3bbd ad1d 25bc
00000260: 3e40 113d d48b a43d 5b97 db3d a57c f33d
00000270: 8331 33bd 1ff0 f33c 0796 2fbc 7d2f b2ba
00000280: b440 233d 21cb f43d 1eed 72bd d5bc e63d
00000290: cba9 e83d 6352 00bd f860 81bc 4b97 15bd
000002a0: b038 bf3c c8af dcbc c353 c83d ec3b 0bbd
000002b0: e1fb c43d 5361 cd3b d8da f13d 2ef9 d5bb
000002c0: f12a 113e 6671 903d 4ea8 a23c 7dc0 babc
000002d0: 977c 513d 19b9 423d e13f 173b d613 303d
000002e0: 8225 cc3c 8450 c73d 1496 e0bc 11e6 2cbd
000002f0: 04ce fb3d e9a1 a8bd aa1f ebbb 1856 14bd
00000300: c9c9 a33d d9bf 723d 6393 0a3d 6a0d 8abb
00000310: 8ddf 9f3d 29f0 ee3d 0f84 a13d 5cb7 493d
00000320: fb36 07bd 4a64 ba3d 90b9 863d d5c4 0cbd
00000330: 9118 953d 0163 24bd 368f 9f3d ba04 883c
00000340: 3c24 dbbc 5dc2 8f3d 998c a8bc c755 85bd
00000350: 2385 0abc d049 c33c 6a19 a9bc cc24 21bd
00000360: f1c2 7abd 611f b13c e0c1 173d f768 57bd
00000370: afa7 a33d 081c ee3d 5c44 b53d 7942 cdbc
00000380: e2f7 98bb 3009 183d 290a bc3d 3267 ff3d
00000390: 84c8 a43d 65e8 803d f47a 863d 5568 233d
000003a0: 3b53 dfbc db10 d33c 354c 593c 4a7b 2a3a
000003b0: 10be f33d e88f 523d 89dc 62bc 9339 8fbd
000003c0: 6032 fb3c 8e35 bc3d 6c79 a73d 62c7 acbd
000003d0: af29 ca3d a8f3 3d3d 251e 7a3b 2cde 33bc
000003e0: d1f0 973d 1f1d c7bc 0edc 763d 7889 85bc
000003f0: b42a c33b e565 08bd 467b 863d 2da4 443d
0.022959502 0.080304675 -0.015946824 0.0056509054 0.036209997 -0.051541485 -0.009623764 0.118124686
-0.061545998 -0.034111157 -0.011246265 -0.06912036 0.11857307 -0.04151099 -0.10353383 -0.07627995
-0.027079701 0.053006932 0.07603131 -0.007854704 -0.016765073 0.050870292 0.053278532 -0.07186863
-0.010448396 0.07577177 -0.044458106 -0.010540477 0.0665626 0.023533016 -0.00848168 0.105105735
0.06895839 0.118695 -0.048251532 -0.0018002102 -0.05014574 0.08024683 0.03980494 -0.0041978504
0.06602602 0.048510578 -0.0464707 -0.006377061 0.009326707 -0.030847458 -0.038927972 0.04522986
-0.027105656 -0.004114866 -0.08372362 0.07475568 -0.05770823 -0.07130451 -0.0014323508 -0.014992773
0.021273155 0.09745504 -0.026549032 0.054167993 -0.016435 0.026014501 0.072754934 -0.037477233
0.025639635 -0.027981587 -0.034775075 -0.07789747 0.012332135 0.06331176 0.0677054 0.004825721
0.117426485 0.004618555 -0.044711474 0.014398367 0.0899287 0.04656769 -0.10340532 -0.004391883
-0.017409336 0.030226953 -0.07206617 -0.02312811 0.013190253 -0.031262297 0.09060471 0.06212588
-0.01265759 0.107728444 -0.09756672 0.01471678 0.12244835 -0.03154312 0.008598976 0.028903864
-0.006420406 -0.07725797 0.03483588 0.05463291 -0.06700185 -0.06652807 0.03029558 -0.012296558
-0.100558534 0.11767196 -0.09491148 0.026700146 0.100800455 -0.021190861 0.012495107 -0.111232616
0.08419864 0.015209325 0.0565139 0.02737171 -0.02116978 -0.023483045 0.07900029 -0.07753671
0.12228694 -0.060914766 -0.0071362243 -0.053390056 0.01035482 -0.017334212 0.007882338 -0.10091869
-0.00907442 -0.01849849 0.022979574 0.042432263 0.043336138 0.0376833 0.066598095 0.13070804
-0.0007622412 -0.027942253 0.1129471 0.0653864 0.10776481 0.041927464 -0.07522703 0.058179192
-0.011840046 -0.038309287 0.0029569473 0.09491767 0.08807671 0.07475875 -0.045687567 -0.010077876
0.035461657 0.080344826 0.10722228 0.118890084 -0.04374839 0.029777585 -0.010716922 -0.0013594475
0.039856628 0.11952806 -0.059308164 0.112664856 0.113605104 -0.03132857 -0.015793309 -0.036521237
0.02334246 -0.026939288 0.09781601 -0.033992693 0.096183546 0.0062677055 0.11809319 -0.0065299487
0.14176537 0.07052879 0.019855645 -0.022796864 0.05114421 0.047539804 0.0023078846 0.042987667
0.024920229 0.09732154 -0.027415313 -0.042211596 0.12295154 -0.08234007 -0.0071754055 -0.036214918
0.07997472 0.05926499 0.033831965 -0.004213025 0.07806311 0.11666901 0.07886516 0.04924713
-0.033011418 0.0910116 0.06578362 -0.0343674 0.07280076 -0.04013348 0.07790987 0.016603816
-0.026750676 0.07019494 -0.020574855 -0.06510501 -0.008454594 0.023838907 -0.020642001 -0.039341733
-0.061221067 0.021621408 0.037050128 -0.052590337 0.079909675 0.1162644 0.08850929 -0.02505611
-0.004668222 0.037118137 0.091816254 0.12470855 0.08046058 0.06294326 0.0656642 0.03989442
-0.027261367 0.025764873 0.013262798 0.0006503357 0.11901486 0.05140677 -0.013846525 -0.06993403
0.03066367 0.09189902 0.08177456 -0.08436467 0.09871232 0.046374947 0.003816494 -0.010978263
0.07418979 -0.024305878 0.060268454 -0.016300902 0.0059560183 -0.0333003 0.06566481 0.048008133

encoder.4.bias f4 [128]
00000000: 3fcb 103c 8366 cb3d 7372 493d 768e 3abc
00000010: aa86 3ebd 2a17 873d be46 c2bd a473 4e3d
00000020: b784 6ebd e660 dcbc 0be2 82bd 21a6 2cbd
00000030: 8e3b 043d 0a1c a5bd bece 85bd bccf 6a3d
00000040: 5ae6 54bd 3496 1bbd 3916 96bd b5be 393c
00000050: bc4f fa3c 1268 a6bd 0f86 efbb 0d72 1a3d
00000060: ebb2 8dbd 24e5 ab3d 2fe0 923d 13da 513d
00000070: 0121 9ebd dee8 933b cad7 8cbd 31ff fbbc
00000080: 396e 883c eb3a 14bd b080 49bd 18de 973c
00000090: 4610 b63c f668 753d a5ee 273d 8507 c53d
000000a0: 1c6e 223d e09d 5f3d 961d ca3c 829e 09bd
000000b0: 8bca 483d b7a6 5abd a6ab 663d 345b 9b3d
000000c0: e07b fe3c a59b bbbd 1d36 43bd 9aa6 8d3d
000000d0: e1a9 ad3d 320f 1c3c 9250 96bd 68ca 2ebd
000000e0: 9a6b a23d e20f 723d 0e54 703d ff5e 283b
000000f0: a950 1e3d f92b af3b 89b0 5d3d 0894 ae3d
00000100: c056 9fbd dd57 58bd 8c23 8d3d 0fa8 72bd
00000110: 6758 9abd f494 a33d 4a8b 7f3c ad3e d9bc
00000120: f674 b53d 5037 a9bc 84b4 a23d 1e27 56bd
00000130: b891 4b3d c892 703d 3bd0 8bbd 26f4 b3bc
00000140: 570a 2fbd e081 863c 0a6c 88bd dd17 b7bd
00000150: 802c 953d db9b b63d 6aa8 9abd 827a a93c
00000160: 38c2 263d 9a24 c53d 104c 183d 07c4 403d
00000170: dacd 8cbc 7e1d 9d3c 8196 ff3c 7e75 aabd
00000180: c259 80bd 287a fcbc c156 a4bd e46d 07bd
00000190: b294 3ebd b739 453d 6812 b6bd a326 f9bc
000001a0: 9e6d 8bbd 23e3 dabd 89bf 483d 2100 863d
000001b0: ca6c b83d 8474 c6bc 6187 0d3a d621 6d3d
000001c0: 5a61 793d 3d6f cdbc c8b8 eebb 44d2 923d
000001d0: fe67 b4bd 8cfc babc f0b6 98bd 4d6f 85bc
000001e0: dd84 13bc 390b 403c 96be 963d cc49 813d
000001f0: 59c1 973d c3ee bf3c e95f 8b3d 037f 3abd
0.00883752 0.09931662 0.049181413 -0.011386504 -0.046515144 0.06596215 -0.09486149 0.050403252
-0.058232035 -0.026901674 -0.063907705 -0.04215062 0.03228336 -0.08061989 -0.065335736 0.057327017
-0.051977493 -0.03798504 -0.073284574 0.011336972 0.030555598 -0.081253186 -0.007309682 0.037706424
-0.069188915 0.083933145 0.07171666 0.051233362 -0.07721139 0.004513844 -0.06877096 -0.030761333
0.01665412 -0.036189 -0.04919499 0.01853852 0.022224557 0.05991455 0.040999074 0.09620575
0.03965579 0.05459392 0.02467231 -0.03359843 0.049021285 -0.053381648 0.05631604 0.07585755
0.031064928 -0.09160546 -0.04765903 0.06916542 0.084796675 0.009525107 -0.07339586 -0.0426735
0.079306796 0.05909718 0.05867391 0.0025691388 0.038651142 0.005345818 0.054123435 0.085243285
-0.07780218 -0.052818168 0.06891546 -0.059242304 -0.07536393 0.07987395 0.015597174 -0.026519144
0.08860199 -0.020656258 0.07944587 -0.0522834 0.049699515 0.05873373 -0.06826826 -0.021967005
-0.04273447 0.016419351 -0.06661232 -0.089400984 0.07283878 0.08916446 -0.07551654 0.0206883
0.040712565 0.09626122 0.037181914 0.047061946 -0.017188001 0.019179102 0.031199696 -0.08323191
-0.0626712 -0.030819967 -0.080243595 -0.033063784 -0.046528526 0.048150744 -0.088902295 -0.030413931
-0.06808017 -0.10687854 0.049010787 0.06542993 0.09005125 -0.02422548 0.0005398896 0.057893597
0.060883857 -0.025077457 -0.0072852112 0.07169011 -0.088088974 -0.022825502 -0.074567676 -0.016288424
-0.009003845 0.011721426 0.0736057 0.06312904 0.07409925 0.02342928 0.06805403 -0.045531284

decoder.0.weight f4 [128, 128]
00000000: 7471 07bd 8407 423d 593d c2bb 64f0 de3d
00000010: 3702 03bd cb41 b1bd e1aa 6bbd 881c b7bd
00000020: adeb b2bd fc12 d73d 607e 583d 2038 2ebd
00000030: 1367 83bd d985 193d 7924 5e3d 35a8 f7bc
00000040: 81c7 5f3c 7d83 a4bd b975 97ba c00b d2bd
00000050: 8315 923d ee82 31bc a48d a8bd 07e4 0ebd
00000060: 8f44 c43b be32 a53d 643f 05bd d169 013d
00000070: fdea 0ebd 8d6f 473d a962 193c dd70 d33b
00000080: 040a 8d3d 2a2b 9ebc 139a 7dbd ae15 be3d
00000090: c632 01bd 0e6e e93d 4cca bcbb 40a3 d5bc
000000a0: 84a7 133c 17a7 b43c 65dd a3bc 26d5 e7bb
000000b0: 8ccf c1bd 6cd6 3abb 6c06 943c fc0d 223d
000000c0: 46d2 09bd 4fcc 8e3d 2526 03bd 8e28 51bd
000000d0: aad3 aebc 8e6f a1bd c818 083e 2fcd a6bd
000000e0: 1a33 1f3d e4c7 7abd 8395 cdbb cc89 9b3c
000000f0: 134d debd 9122 70bd 7205 db3d 4452 27bd
00000100: 9243 a73d 87f9 72bd 3823 34bc 65d3 543d
00000110: 2762 30bb 2446 77bc b5d9 a7bd 276b 92bc
00000120: 4664 1a3c 0bf1 633d ad41 b2bc 7793 6abd
00000130: 9c37 1bbd caa9 23bd a157 eeb9 6678 3abd
00000140: 32cc 023d 4318 27bd 56e8 a3bd 63ae 77bb
00000150: ac17 8dbd 92c2 8b3d 6abb adbd 5840 6ebc
00000160: 969b e0bc 26f4 2e3d a29a aabd dea2 fabd
00000170: f8b0 3dbd 4c03 57bd 5d88 13bd cef3 e73c
00000180: 08dd a7bd 92fd 073d af43 ddbd 0700 abbd
00000190: 7a48 b5bd eb8b adbd 7c39 853d d07e 9fbd
000001a0: cb37 96bd 4b3e 973b d623 0cbc 7263 3c3c
000001b0: b479 453d 36b4 3abd e5be 07be 018d 773d
000001c0: bd7c 11bd 4458 81ba 897f c0bd f19d b23d
000001d0: 3c03 4fbd 718f 653d 4ad5 f03b 7ab6 bdbc
000001e0: 52d6 3abd 34d9 433d 9b67 373c c3d1 673c
000001f0: 2f6c 033e 1136 643d e0bc 36bd e7c3 8a3d
00000200: 1e65 58bd 64ea ec3c 1dc2 06bc fdac 20bd
00000210: bb83 ac3d de62 02bc 3270 57bd b293 f33c
00000220: e707 c4ba 6955 043d 4e1b 9a3d dd61 2f3d
00000230: 7e4a 59bd 5037 ddbc 98bf 3a3d 11ab fabc
00000240: 4078 a43d a12f 8bbd 52e7 653c f5f0 7c3d
00000250: dd8c 4abd 5154 a0bd efdd a8bd ae19 60bc
00000260: 36aa 57bc 2f67 a83d 0446 72bd 345c 70bd
00000270: ec9c 9d3d c741 17bb be29 213c 06b2 aa3a
00000280: 7c31 a03d 2d0b a6bd 45e5 b63d 86ff 0a3d
00000290: d1cb af3d 5e7e 3abd 0e8b 303b 1cbd 69bd
000002a0: 4b0c 5b3d ce2a c93c 55af bfbc ce73 823d
000002b0: 6945 96bd 1346 ae3d 3ad4 42ba a0db 8a3d
000002c0: 3033 ab3b 7e46 f1bc 7371 543d 4ed9 a43d
000002d0: b0dc 87bd 7cd6 a93d 4fd8 4b3d efd5 20bc
000002e0: 816d a13d 2988 343d 19cb 98bc c543 1fbd
000002f0: 223c 16bd 87ab b1bd 1156 4bbd 5c58 8f3d
00000300: 75a4 4cbd aa0c 7f3d b8f0 e13c 22d5 25bd
00000310: e47f b43a 7d7e 2c3b d21d 34bd 61a9 933d
00000320: 01f1 0c3d 9c0a 90bd 5e0b 8bbd 4003 fe3c
00000330: 2e81 303d 284f 833c 8cb3 873c 75de 803d
00000340: e95c 4bbd 0b17 96bd 0d76 1fbb e268 2ebd
00000350: 3789 823d f2fe 90bd d84e 05bc d285 18bb
00000360: 0381 7dbd 3f1c e7bc cbdd adbd 71fd 983d
00000370: 5203 a93d 9a20 463b 0860 7abc ea24 953c
00000380: ed08 eebc b1e0 2abc 5e0a aebd f01a 22bc
00000390: 8a89 1e3d 7da4 6e3d 9d7b 023d f540 f93c
000003a0: 9956 c43c d209 903b 4445 b3bd 43a4 b9bb
000003b0: 56f0 c2bc 779e 1f3c bedc 36bd b195 09bd
000003c0: fa2e 16bd 54db a53d 7ba2 89bd 3e03 63bd
000003d0: d960 9b3d c075 a63d 7d61 cebc 8962 753d
000003e0: 55e4 59bb e668 9fbc 8c94 7abd 7fb1 4ebc
000003f0: cc8e 80bc af83 a0bd 55fe 6e3c 0370 943c
-0.03306718 0.04737045 -0.0059277234 0.108856946 -0.031984534 -0.08655127 -0.05753601 -0.08940989
-0.08736358 0.10501668 0.052854896 -0.042533994 -0.06416144 0.037481163 0.054234 -0.030231575
0.013658405 -0.08032892 -0.001155547 -0.102561474 0.07133009 -0.010834439 -0.08230141 -0.034885433
0.005989618 0.08066319 -0.032531157 0.031595055 -0.03489207 0.048690367 0.009361901 0.0064526633
0.06886676 -0.019307692 -0.061914515 0.09281479 -0.031542562 0.113979444 -0.0057614204 -0.02607882
0.009012107 0.02205233 -0.02000303 -0.00707497 -0.094634145 -0.0028509153 0.018069468 0.039564118
-0.033647798 0.069725625 -0.0320188 -0.051064067 -0.021341164 -0.078826055 0.13290703 -0.081446044
0.038867094 -0.061225787 -0.0062739267 0.018986605 -0.108545445 -0.058626715 0.10694398 -0.04084994
0.08167185 -0.05932 -0.010994725 0.051959414 -0.0026913972 -0.015092406 -0.08195821 -0.01787336
0.009423321 0.0556498 -0.021759832 -0.05726954 -0.03789483 -0.039956845 -0.00045460186 -0.045524977
0.031933017 -0.040794622 -0.08003299 -0.0037793152 -0.06889281 0.06824221 -0.08483012 -0.014541708
-0.02741794 0.042713307 -0.08330275 -0.12238096 -0.04631135 -0.05249338 -0.036018718 0.028314497
-0.08196455 0.033200808 -0.10803925 -0.083496146 -0.088517144 -0.08473953 0.06505105 -0.077878594
-0.073348604 0.00461558 -0.008553466 0.011498319 0.04821177 -0.04558202 -0.13256414 0.060437206
-0.03551935 -0.0009868224 -0.093993254 0.08721531 -0.050540194 0.056045 0.007349645 -0.0231583
-0.045614548 0.047814563 0.011194135 0.014149132 0.12834238 0.055715624 -0.04461372 0.06775647
-0.052830808 0.02892036 -0.008224991 -0.039227474 0.08423563 -0.007958142 -0.052597232 0.029733513
-0.0014955968 0.032308016 0.07524739 0.04281794 -0.053049557 -0.027003914 0.045592874 -0.030599149
0.08030748 -0.06796194 0.014032202 0.061753232 -0.049450744 -0.07828582 -0.082454555 -0.0136779975
-0.01316314 0.08222806 -0.059148803 -0.05868168 0.07695946 -0.0023079978 0.009836612 0.0013023026
0.078219384 -0.081076 0.089304484 0.033935092 0.08583797 -0.04553067 0.0026938352 -0.057065114
0.05347852 0.024556544 -0.023399035 0.06369744 -0.07337458 0.08509459 -0.0007432137 0.067801714
0.005224608 -0.029452559 0.051866006 0.0804926 -0.0663389 0.08292863 0.049766835 -0.009816631
0.07882214 0.044075165 -0.018651532 -0.03888299 -0.03667844 -0.08675294 -0.049642626 0.06999275
-0.049961526 0.062267937 0.027580604 -0.040486462 0.0013771025 0.002632051 -0.04397375 0.07210041
0.034409527 -0.070332736 -0.067892775 0.03100741 0.043091945 0.016028956 0.016565107 0.0629243
-0.049649153 -0.07328614 -0.0024331838 -0.042580493 0.06373828 -0.07079877 -0.008136474 -0.0023273122
-0.061890613 -0.028211711 -0.08489569 0.07470215 0.082525864 0.0030231834 -0.015281685 0.018206079
-0.02905699 -0.010429547 -0.08498071 -0.009894118 0.038705386 0.058262337 0.031856168 0.030426482
0.023967074 0.004395702 -0.08753446 -0.0056653335 -0.023796242 0.009742371 -0.04464411 -0.033590022
-0.036665894 0.08098474 -0.06720444 -0.055423014 0.075868316 0.08127928 -0.02519297 0.059908424
-0.0033247669 -0.0194592 -0.06117682 -0.012615561 -0.01569309 -0.07837617 0.014587005 0.018119818

decoder.0.bias f4 [128]
00000000: 07af 2cbd c0e6 a7bd f65f 7fbd 83f4 2f3d
00000010: 20ad 88bc b0c1 96bd e2b8 e3bc 64e7 f53b
00000020: 1871 3f3d d138 1c3d 87fe e73c 2491 a9bd
00000030: 501b 0fbd 80c1 523b 8a90 4abc 9aed c13d
00000040: 907b 3cbd 0ca3 0e3d ecb8 973d 052c a5bd
00000050: 1ae0 a53b 1c06 5bbc 2b4f 953c caec a6bd
00000060: d33a 5ebd 7157 88bd d888 6f3d 37cb 58bc
00000070: abfc 5abd 9877 8bbd 6f55 64bd 8888 973c
00000080: 2468 50bd 661c 413d 4023 c7bc 1b12 d3bc
00000090: fd80 9abd ca72 a83d 3155 4e3d 8edb 223d
000000a0: cc1c 21bd b117 babc 4b5f b53d b0a9 8dbc
000000b0: 2d62 ddbc 7a68 673d 22e7 eebc c8d0 5d3d
000000c0: 6479 8f3c b473 413d 2e9f 923d a27e 49bc
000000d0: 0c70 9fbd eb11 85bc 6329 283c 6981 48bd
000000e0: 7979 af3d 0d25 61bd 26af 57bd faff 5f3d
000000f0: f475 a93d 9a31 653d 5f0f 91bd 0d1e 07bd
00000100: 98ef 2d3d 2630 ae3c 20f2 b43d 3705 363d
00000110: ce4d 723d 4ff8 fabc 9e1c 923c 3995 28bd
00000120: 2b67 1c3d cb40 6dbd b2d7 4bbd 086b 45bd
00000130: 511f ca3b 1c08 743d 7f56 a9bd 4a44 933d
00000140: 4bec 9aba dfe1 b23c 1061 413d d55a 483d
00000150: ceb2 80bd fa1c 2d3c 51b2 38bd 01db a93d
00000160: 7412 a73d a224 673d 6508 18bd 3212 66bc
00000170: 05ee 9d3d 2aa5 f93c 987a 1fbc 1e87 be3d
00000180: da7d 953d 00b8 4abb e1d7 afbc c28e 543d
00000190: 5bbb b7bd 54a6 cd3d d114 eabb 8808 35bc
000001a0: a026 b63c 7602 da3c b32b 18bd 666d 2fbc
000001b0: dc7e a43d 67b6 95bd 432a 853c 821f b9bc
000001c0: 04f0 4d3d fb60 bdbd 11e0 3d3c c38e 7fbd
000001d0: c2b6 293d eb96 16bc a81e a73d fe25 9fbc
000001e0: 4ae6 123d 0b92 613c 57d0 48bd 423b ddbc
000001f0: 5dc1 a03d 9bca 95bd 1a7d aebd ae57 69bd
-0.042159107 -0.08198309 -0.062347375 0.042957794 -0.016684115 -0.07361162 -0.02779812 0.0075043906
0.046738714 0.03814012 0.02831961 -0.082796365 -0.034938157 0.0032158792 -0.012363562 0.09469147
-0.046016276 0.034823462 0.07408318 -0.08065037 0.0050621154 -0.013368156 0.018226227 -0.08150633
-0.054255318 -0.06657303 0.058480114 -0.013232044 -0.05346362 -0.0680992 -0.05574554 0.01849772
-0.050880566 0.047146223 -0.0243088 -0.02576547 -0.07544134 0.08225019 0.050374214 0.039760165
-0.039334103 -0.022716375 0.08856066 -0.017292827 -0.027024353 0.05649612 -0.029162947 0.054154187
0.017513938 0.047229484 0.07159267 -0.012298258 -0.07785043 -0.016243896 0.010263774 -0.04895154
0.08568091 -0.054966975 -0.05265727 0.054687478 0.08274451 0.055955507 -0.0708301 -0.032987643
0.042464823 0.021263193 0.08835244 0.044438567 0.05915623 -0.03063598 0.017835911 -0.041157935
0.038184326 -0.05792312 -0.04976625 -0.048197776 0.006168284 0.059578046 -0.08268451 0.071907595
-0.0011819688 0.02183622 0.047211707 0.04891475 -0.06284104 0.010565991 -0.04509193 0.08293725
0.081578165 0.05643142 -0.03711738 -0.014042424 0.07711414 0.030474264 -0.0097338185 0.09303115
0.07299395 -0.0030932426 -0.021465244 0.051893957 -0.08971282 0.1004149 -0.007143595 -0.011049397
0.022235215 0.026612502 -0.03715105 -0.010707235 0.08032009 -0.07310181 0.016255504 -0.022598032
0.050277725 -0.09247013 0.011589066 -0.062392008 0.041434057 -0.009191255 0.08160144 -0.019427296
0.035864152 0.0137677295 -0.049026813 -0.027005795 0.07849381 -0.073140346 -0.08519955 -0.056968383

decoder.2.weight f4 [7, 128]
00000000: 76fc e2bd 8eec 84bd e171 823d d567 aebd
00000010: 86e0 a0bd 00ba c2b9 fbb6 a43d 98b8 8b3d
00000020: 33a1 1bbe fc61 a6bd ad66 c9bd 1240 643d
00000030: ff4f 49bd a856 a03d abaa b63d 9226 fe3d
00000040: 4e17 8bbd b289 bfbd d609 a0bd eb69 c9bc
00000050: b2ac 1b3d fa59 c23d 8aa1 0abd bf60 873c
00000060: d1e8 6ebd e2dc ca3d 43d8 86bc ccf0 1ebc
00000070: e00d cdbb 0fd4 b6ba c86d e03d d539 19be
00000080: 8664 8ebd 104b 933d 5778 bcbd c36b 3fbe
00000090: 4274 dabc 5dd1 bebd 9917 b8bc e3df a4bd
000000a0: a7e6 a13d 8b9c e43d f136 fe3c 0620 bdbc
000000b0: 9b40 2fbd 19c6 53bc bce9 04bc 36d3 a3bc
000000c0: 3af1 813d 2bd6 16be dae4 18be fde4 233d
000000d0: 5ff1 9dbd 6fc6 203d d840 96bd 332a 76bd
000000e0: b5a2 09bd e059 9cbb 6403 ec3c e084 4a3c
000000f0: 3318 07bd 8606 a43d 1d40 bb3d 4335 1ebe
00000100: 4801 a53c 418e 963d e8a7 0ebd 2fdb 873d
00000110: e9ff e2bc 4bcb c23d bab8 783d 43d4 b53d
00000120: 2f7a 6b3d 161a b13c 8080 77bd 68ea 00bc
00000130: d36a 4cbc 2efc c2bd 0345 d73c d7b9 72bb
00000140: 17f5 533c ce5c e3bd ec7f 333d 4124 5ebd
00000150: a265 8dbd f803 a5bd 4e6a 44bd 648c 19be
00000160: 22d9 fdbd 8e1f bf3d b295 0e3c 1a25 753d
00000170: 6ebe 883d 8961 cd3d bf5e a83d 7580 813d
00000180: 45ad 9e3d 302b 203c 0983 883c 1cc3 dc3d
00000190: 431c 483c feca 00be 5261 02be 5d7c 8fbd
000001a0: 8566 4b3d 786f 7dbd 26ac e53c 5efa c1bd
000001b0: 7ba4 d43d e088 003c 7a74 91bd c78d 363c
000001c0: c4f9 11be d0fa 0bbd e481 d13d 6733 bf3d
000001d0: 3555 47bd 672b 81bb 1375 fc3d a5d6 27be
000001e0: 283e 50bd b11c b63d 49a8 2bbe 053c f93d
000001f0: 483b 793d 48ce 9abd 6ae1 3c3d 146a 2e3d
00000200: 2e62 0dbe dfc3 06bb b442 34bd 04cb ccbd
00000210: 71f5 5ebc 7ed1 94bd 0972 71bd cd60 b83d
00000220: 783e 00bd 9d93 d1bc 7eec 8cbd 80f2 49bd
00000230: 286e f73c a524 0bbd e17c f83b 0e6e 7e3d
00000240: 2762 a8bc 05a1 b0bd 6022 13bd 990d 333d
00000250: da80 2ebd 77aa c43d 5285 96bd 33eb afbc
00000260: 7465 b33d 0620 29bc 77b7 2bbd 901d d63d
00000270: 976e 07be 4cf0 a33d 75ec 2ebc 986e eebd
00000280: cc77 883d 46ba f83d f2d2 0bbe f124 36bd
00000290: 4924 abbb 78b6 dabd 7366 84bd 8b43 b4bc
000002a0: 11f2 963d 2f6c d53d 7c5b 923d 8db0 243d
000002b0: 1486 663d e964 e4bc e211 1abd 3a16 883d
000002c0: 4a80 183b d765 c53b f274 6e3c 6e73 99bc
000002d0: 935a 463d 44b4 f13d 918e ca3c d33b f1bc
000002e0: b2d2 21be e5a5 223c 3dd9 dc3d e27b 36bd
000002f0: 5814 b0bd 1b6c acbd f777 963b 5d5a db3b
00000300: 6de0 cfbd 2760 093d 84da b7bc e179 193d
00000310: 5bff 82bd 440b d73d ae5b ae3d acff 823b
00000320: 3e20 a33d a074 833c 61ad 803c 3d8d 3dbd
00000330: 9316 8bbd 1597 8bbd cd97 14bc 325b c33d
00000340: 7c38 923d 410c 06bd b3f2 a7bc 5506 6fbd
00000350: 424c 7e3d 287d 93bd ccee f2b9 1796 643d
00000360: 33ae 8e3c bbe2 dabb 474c fdbc 84f8 0dbd
00000370: 3877 3f3d 4d25 aabc 981b 6c3d ef00 5c3b
00000380: a1c4 b73c 5699 a5bd 73e6 00be 7f82 8cbc
00000390: 0ca2 62bd ed33 93bd 02f9 e63c 726f 203d
000003a0: 2a04 36bd d57c 0fbc 4064 d33d f61c 003d
000003b0: 5f84 373d e7ac a73d 9739 d5bd 8ad3 32bd
000003c0: 1e15 81bd 0170 d1bc 6111 5c3d 866b 58bd
000003d0: 09fc a83d b083 b23c e634 073d d506 13be
000003e0: 64d2 e83c cb38 a33d aedb acbd 20d0 b6bc
000003f0: ea92 4fbd bf47 91bd c00f 863b 129b bebc
-0.11083309 -0.06490432 0.06369377 -0.08515898 -0.078553244 -0.00037141144 0.08042713 0.06822318
-0.15198211 -0.08124158 -0.09834037 0.055725165 -0.049148556 0.07829028 0.08919271 0.124097005
-0.067915544 -0.09352435 -0.07814376 -0.024586638 0.038006492 0.09489818 -0.033845462 0.016525624
-0.0583275 0.09905411 -0.016460543 -0.009700965 -0.0062577575 -0.0013948696 0.10958439 -0.14963467
-0.06952767 0.071920514 -0.092026405 -0.18693452 -0.026666764 -0.093172766 -0.02247219 -0.080505155
0.079053216 0.11162671 0.031032057 -0.023086559 -0.042786222 -0.012925648 -0.008112367 -0.019998174
0.063448384 -0.14730136 -0.1493105 0.040013302 -0.077120535 0.03925174 -0.07336587 -0.060098838
-0.033602435 -0.004771456 0.02881021 0.012360781 -0.032982063 0.08009057 0.09143088 -0.15450005
0.020142213 0.073513515 -0.034828097 0.06633603 -0.027709918 0.09511431 0.060723044 0.08878376
0.05748957 0.021618884 -0.06042528 -0.007868387 -0.012476641 -0.09520756 0.026278025 -0.0037037039
0.012936852 -0.111016855 0.043823168 -0.054233793 -0.069041505 -0.080573976 -0.047952943 -0.14994961
-0.123949304 0.093321905 0.008702682 0.059849836 0.066769466 0.10028369 0.082211964 0.06323329
0.07747892 0.009775922 0.016664045 0.10779402 0.012213769 -0.12577435 -0.12732437 -0.07006142
0.049658317 -0.061873883 0.028036188 -0.09471582 0.10382935 0.007845134 -0.07102294 0.011142201
-0.14255434 -0.03417474 0.10229853 0.09335976 -0.048665244 -0.0039419415 0.12327018 -0.16390474
-0.050840527 0.08892191 -0.16763414 0.12169651 0.06084755 -0.07558876 0.04611341 0.042581633
-0.13806984 -0.0020563526 -0.044008926 -0.0999966 -0.0136083225 -0.0726652 -0.058946643 0.09002838
-0.031309575 -0.025583083 -0.06881045 -0.04930353 0.030203894 -0.033970494 0.007583246 0.062116675
-0.020554615 -0.08624462 -0.035921454 0.04371414 -0.04260335 0.09602826 -0.073496476 -0.021474456
0.08759585 -0.010322576 -0.041923013 0.10454857 -0.1322578 0.08004817 -0.010676493 -0.11642188
0.066634744 0.12144904 -0.13654688 -0.044468824 -0.0052228314 -0.106793344 -0.06464853 -0.022004863
0.07370389 0.10421025 0.071463555 0.040207434 0.05628021 -0.027880149 -0.03761471 0.066448644
0.0023269826 0.006024103 0.014554249 -0.018731799 0.048426222 0.11801961 0.024726184 -0.029447472
-0.1580303 0.009927248 0.107836224 -0.044551738 -0.0859763 -0.08419057 0.0045919376 0.0066941218
-0.10150228 0.033538964 -0.022443064 0.03746975 -0.063963614 0.105001956 0.0851358 0.0039977636
0.07965134 0.016046822 0.015707674 -0.046277273 -0.06791415 -0.06815926 -0.009069395 0.095388785
0.0713968 -0.03272653 -0.02050147 -0.058355648 0.062084444 -0.07201606 -0.00046335754 0.0558072
0.017417049 -0.0066798604 -0.030920161 -0.03466083 0.046744555 -0.02076974 0.057643503 0.0033569892
0.022432627 -0.08085887 -0.1258791 -0.01715207 -0.05533032 -0.071876384 0.028194908 0.039168783
-0.044437565 -0.00875779 0.103218555 0.03127762 0.044803973 0.081872754 -0.10411375 -0.04365877
-0.06302856 -0.025566103 0.05372751 -0.052836917 0.08251197 0.02179131 0.033009432 -0.14358075
0.028420635 0.07969817 -0.08440338 -0.022316039 -0.050677218 -0.070937626 0.004091233 -0.023267303
