set_transformer/regression_model/deepset_moonboard.pth (torch, 235972 bytes, 9 tensors)

encoder.0.weight f4 [128, 64]
00000000: 1f7f 833b ed42 ed3c 130d aa3d 5f69 c1bd
00000010: 2d49 f5bc e02c 62bd c732 ca3d 9448 1b3d
00000020: da75 6f3c a548 babd fcb2 233c 5bd3 b6bd
00000030: 369a f83c 92e0 b6bd ecf9 c1bd a8d9 ccbd
00000040: 907c d0bd 2aa2 ce3d db28 e1bd b8a2 b1bd
00000050: e2a9 073e 6413 893d d1a9 02bd 422b f33d
00000060: 0c4d 77bc 0418 e4bb 8206 e63d 6a23 67bd
00000070: 9979 9abc 7ae6 8b3d 47ac 2e3d 77db ff3c
00000080: 231d b1bc dacd 9c3d 0680 f3bd 8f6a ccbd
00000090: 8279 88bd 8de5 203e 3d1b cf3d 36a2 09be
000000a0: 9a30 44bd d914 073d da16 80bc 9f79 83bd
000000b0: 0e51 a63d 9845 c6bd e33a d6bc 8eb5 463c
000000c0: 6ec8 453d 5018 aebd 23da 5a3c c375 4b3d
000000d0: d30d e1bd 596f 743c b361 bfbd 4b83 d1bc
000000e0: e5d0 863c a4bf 723d 4bb7 933d 25d8 e0bd
000000f0: 8c5d 863d 3c11 c8bd e134 e13c ee8c 1e3d
00000100: 38e8 e73d b7cb e33c 9c1e e63d 7dea b4bd
00000110: 61c7 df3d 4db3 71bd f5cc 32bd 0740 a33d
00000120: 75b6 04be f067 e9bd 2481 c2bd ac6a 543d
00000130: f856 5cbd 562c c83d 72e8 c23d ecae 92bd
00000140: c1f3 f4bc ef75 8f3d 1de5 52bc 9475 b13d
00000150: 49ce cb3d 6be8 d73b 1c00 d8bd b0fb 383d
00000160: e149 b8bc 9073 57bd 2c2b f0bd f978 00bd
00000170: acc0 c2bd cb07 b23d a28f 75bd a56f 083e
00000180: f5c5 13bd 9aa5 37be 70ac 093e bdc7 f4bc
00000190: cdc3 cd3d dcbc 05be 8c29 1e3d 1525 11bc
000001a0: af93 f9bc 076e 72bd ade5 913c cc17 f5bc
000001b0: 11e8 ac3d 8253 29bc 799f bdbc 90cf 913b
000001c0: df1c c4bd c755 503c 6905 d53d 7624 cebd
000001d0: 6c24 123e bdf9 d43d 8835 debc 1294 073d
000001e0: 47b7 24bd a939 d7bd b593 bf3d 1a97 cbbd
000001f0: 9952 afbc a2c3 02bd 98d8 da3c b255 4a3b
00000200: 4c8b f8bd c4cd 753d 38dc 363d e357 023e
00000210: f56f d53d b25b 753c 35bf 98bc 61b1 e4bd
00000220: 5f0d 013e 8564 f43d 5e8e 1bbb 8d9c 23bd
00000230: 03c0 f63c d19f 8fbc ed25 b6bd 0798 b33d
00000240: 3ce7 70bd ba38 dcbd fb37 5fb9 c773 7a3d
00000250: 8f69 3a3d dae3 c13d 0d39 fdbd b8ed 6a3d
00000260: 59aa 12bd 5c16 8f3c ab69 b8bd 14ac 03bd
00000270: 6a70 bb3c 1cf5 c5bc 5539 043d 79cf b93c
00000280: e64e 1fbd 830a 8c3d 038e 07bd f5a7 8ebd
00000290: 217c 18bd b7f9 dfbd 5427 a7bd 1934 e73d
000002a0: 20ac 5a3d 8fe7 c3bd 20cd 6dbd 6a1f 283d
000002b0: 513a 623d 8104 0dbe cd73 823d aa43 53bc
000002c0: 427b 14bd 9e1b 333d 00a6 cfbc 6be0 c8ba
000002d0: 4aeb f83d a055 503d dd47 3f3d b8ce 703d
000002e0: c525 cd3d 2f81 7dbd 7b5d babd 4fbc 5b3d
000002f0: 568b 5fbc 0252 d63d 6b67 b7bc 7053 16bd
00000300: 7327 4d3d 1f4a 57ba f291 ce3d b854 0c3d
00000310: 3f7a 773c 0404 9b3c 8164 60bd 4e3f 10be
00000320: bda9 c43d bf14 94bd 99c1 84bd ef09 04bd
00000330: 4739 b9bc b32a 4f3d 34e9 64bd 5228 193d
00000340: c223 f93d d70f 7b3d f84b 633d 8fee a6bd
00000350: fc6b 1b3d fd49 c83b f253 a13d 0582 2a3b
00000360: 1cf4 233c cb25 193e 3b7c 93bd 162f b33b
00000370: d81a 0a3e 39a3 de3c 07d9 fbbc 29a5 92bc
00000380: 3dc9 6c3d eaf6 7abd aa19 e6bd 6b4f b2bd
00000390: 27bb 993d d878 95bd 3d60 a3b9 2f27 18be
000003a0: 3963 123c f15a 43bd aec4 d1bd 2e61 1dbd
000003b0: f978 9e3d 169b cf3d 12d5 eebd 0f76 9e3d
000003c0: a988 013e 741b b7bd 185e a7bd 09bf 3ebd
000003d0: 5a5e 1c3e 41d8 3abd 4ad6 22be d543 71bd
000003e0: cc41 823d 1413 093e 732c 9e3c 5eee b83d
000003f0: 8c44 58bd 911c a63d 8fe4 acbb a5dd 8b3d
0.0040129567 0.028962577 0.08303275 -0.09443926 -0.02994212 -0.055218577 0.09872966 0.037911013
0.0146155 -0.09095887 0.009991404 -0.089270316 0.030346971 -0.08929552 -0.09471497 -0.10002452
-0.101800084 0.10089524 -0.10994121 -0.08673614 0.13248399 0.066931516 -0.03190023 0.11873485
-0.015094053 -0.0069608707 0.1123171 -0.056430258 -0.01885681 0.06831069 0.042644765 0.031232579
-0.021620339 0.076564506 -0.11889653 -0.09981262 -0.06663801 0.15712567 0.10112617 -0.13440785
-0.047897913 0.032978866 -0.015635896 -0.06419682 0.08120929 -0.09681243 -0.026151126 0.012128247
0.048286848 -0.08500731 0.013357672 0.049672853 -0.10988965 0.0149191255 -0.093448065 -0.0255753
0.01645703 0.059264794 0.07212695 -0.10978726 0.065608114 -0.09768912 0.027491035 0.03870862
0.11323589 0.0278071 0.11236307 -0.088337876 0.109267004 -0.059008885 -0.043652494 0.079711966
-0.12960227 -0.11396778 -0.09497288 0.051859543 -0.053793877 0.097740814 0.09516992 -0.0716227
-0.029901387 0.07004916 -0.012872008 0.086650044 0.09951455 0.0065889857 -0.10546896 0.045161903
-0.022496166 -0.052600443 -0.117269844 -0.03136537 -0.095094055 0.08692893 -0.059951432 0.13323839
-0.03607746 -0.17934266 0.13444686 -0.029880399 0.10047112 -0.13060325 0.03861384 -0.008858939
-0.030465929 -0.05918696 0.017809713 -0.029918574 0.08442701 -0.010334851 -0.023147332 0.004449792
-0.09575819 0.012715763 0.104014225 -0.10065548 0.14271706 0.10399196 -0.027125135 0.033100195
-0.04021385 -0.10509045 0.09354345 -0.0994093 -0.02140169 -0.03192485 0.026714608 0.0030873832
-0.12135944 0.060010687 0.04464361 0.12728839 0.10421745 0.014975475 -0.018645862 -0.11166645
0.12602757 0.11933235 -0.002373598 -0.03994422 0.030120855 -0.017532261 -0.088939525 0.08769231
-0.058814272 -0.10753007 -0.00021287792 0.06114557 0.045510825 0.09467287 -0.12364397 0.057355613
-0.035806987 0.017466716 -0.090045296 -0.03214653 0.022880752 -0.024164729 0.03228124 0.022681938
-0.038893603 0.068379425 -0.033094417 -0.06965629 -0.037227754 -0.10936301 -0.08161798 0.11289234
0.053386807 -0.09565651 -0.05805695 0.041045584 0.055231396 -0.1377125 0.063697435 -0.01289455
-0.03625036 0.04372751 -0.02534771 -0.0015325671 0.12154253 0.05086291 0.046699394 0.058790892
0.100169696 -0.061890777 -0.09099861 0.053646382 -0.01364406 0.104648605 -0.02238818 -0.036700666
0.05008645 -0.0008212644 0.100864306 0.03426048 0.015104829 0.018922813 -0.054783348 -0.14086649
0.096026875 -0.072305195 -0.06482238 -0.032236036 -0.02261032 0.05057783 -0.055886462 0.037391968
0.121650234 0.061294403 0.05549237 -0.0815097 0.03794478 0.0061123357 0.078773394 0.002601744
0.010006931 0.14955823 -0.072014295 0.0054682596 0.13486803 0.02717744 -0.030743135 -0.01790102
0.057809103 -0.06127063 -0.11235364 -0.08706554 0.075063996 -0.0729844 -0.00031161486 -0.14858697
0.008934789 -0.04769415 -0.10242592 -0.038422756 0.077379175 0.10137002 -0.11661734 0.07737362
0.12649788 -0.08940783 -0.08172244 -0.046568904 0.15270367 -0.045616392 -0.15902057 -0.05890258
0.06360206 0.13386184 0.019308304 0.0902984 -0.052799746 0.08110917 -0.0052762697 0.06829385

encoder.0.bias f4 [128]
00000000: c52a f2bd 6489 65bd 6171 fa3c 0f30 bfbd
00000010: 26a2 453d 5b9b 89bd 23b1 a63c 725e a83d
00000020: 59c1 8cbd 3bb8 eb3d 5401 bb3d aaab d93d
00000030: aeef 1f3d dcb0 f43d 2c89 68bd b836 9e3d
00000040: be4a b3bd 1004 243d 1a36 e6bd 0606 bfbc
00000050: 981c 423d c2ff b1bc 3713 a23d f0b9 743c
00000060: e53f 84bb f2c1 6fbd b188 613d 7e7f c1bd
00000070: 04d8 9d3c 97a3 e53c 7063 e5bd 351d c63c
00000080: eab7 b53d 0e78 d53c 7d98 263d d846 513d
00000090: 999c 723d f922 ffbd 8f11 eb3d 7463 933c
000000a0: 2489 db3d 47f9 75bd a242 1e3d 77fc 983c
000000b0: 9b6d 8d3d 543e 15bd 22d4 a8bd bc8a d43d
000000c0: a83a 93bd 2e2f 6ebd f4fc b1bd 989f bfbc
000000d0: 27f5 f5bd fe9f 17bd e3f7 21bd a548 a2bc
000000e0: 694a adbd d618 103d 860c ce3c 59a8 593c
000000f0: cddc 94bd c77a 0abd 3b82 413d 38ab 93bd
00000100: 0010 823d c1a8 243c 94f5 8abd 6851 d53d
00000110: b344 c5bb dc4a 8cbd 72e6 8abb 9fe7 dd3d
00000120: bc36 77bd e8f3 a23d 6e53 dbbc e369 f0bd
00000130: 53d3 3f3d ad5a 4e3d 75e8 98bb 14c6 d9bb
00000140: 43fb 8f3d e70e ec3d 2fbf 673d e32d c8bd
00000150: d8f4 a7bc 87ed d13c 7349 dbbd 868d 18bd
00000160: c733 d1bd f3fd be3d 5d7d 6a3c 71be 72bd
00000170: fb72 963a 23f4 9dbd 7a97 3e3d e5c1 9c3d
00000180: 53b3 b53d f355 423d c9e9 d6ba 98e8 9cbd
00000190: 6765 84bd 05e7 bfbd e75b debd 67e5 a13d
000001a0: b78f 643d e83c 51bd 1957 6b3d 5af5 dabd
000001b0: 8229 e2ba 322a b23d d1f4 d03d d25d 0b3d
000001c0: 25fe 14bd 29df 18bd d16f 783c 4794 6fbd
000001d0: 8df9 f6bd 6160 f4bd 83c5 a83d 66ea 31bc
000001e0: d0b8 fe3b e527 e9bc 8a71 0cbe dbd4 0f3d
000001f0: 5235 aabd 1a92 db3d f925 81bd 7552 b53d
-0.11824564 -0.05603923 0.030571641 -0.09335338 0.04825034 -0.06719085 0.020348137 0.08221139
-0.06872816 0.115097485 0.09131113 0.106284454 0.039046936 0.11947796 -0.056771442 0.077252805
-0.0875449 0.040042937 -0.11240788 -0.023318302 0.04739055 -0.0217284 0.07913821 0.014936909
-0.004035937 -0.05853457 0.055062 -0.09448145 0.019268043 0.028032107 -0.11200607 0.024183849
0.088729694 0.026058223 0.040672768 0.051092952 0.059231374 -0.124578424 0.114779584 0.017991759
0.10719517 -0.060052183 0.038637765 0.018675072 0.06905671 -0.036436394 -0.08243586 0.10378024
-0.07188922 -0.058150463 -0.08690825 -0.02339153 -0.1200965 -0.037017815 -0.039543044 -0.01981003
-0.08461458 0.035179935 0.025152456 0.013284766 -0.07268677 -0.033808496 0.047243338 -0.07210392
0.06350708 0.01005 -0.067851216 0.10415918 -0.0060201525 -0.06850216 -0.004238897 0.10835194
-0.060354933 0.07956678 -0.02677318 -0.11738946 0.046832394 0.050379444 -0.004666383 -0.006645927
0.07030346 0.1152628 0.05657881 -0.09774377 -0.020502493 0.025625957 -0.10707369 -0.037244342
-0.10214954 0.09325781 0.0143121155 -0.05926365 0.0011478359 -0.07712581 0.046531178 0.0765417
0.08872094 0.04744525 -0.0016396578 -0.07661551 -0.064646535 -0.09370235 -0.10857373 0.07905083
0.05580112 -0.051083475 0.05745611 -0.10691328 -0.0017254802 0.08699454 0.10202945 0.03402502
-0.036375184 -0.037322197 0.015163378 -0.058491018 -0.12059317 -0.11932445 0.08240797 -0.010859108
0.007773496 -0.028461406 -0.13715187 0.035115104 -0.08310951 0.10721226 -0.06306071 0.08853618

encoder.2.weight f4 [128, 128]
00000000: b528 493c fbe4 953d f689 91bd 1ed5 013d
00000010: cf1c 8f3d 8d55 5ebd e3ed b63c 0bd3 aa3c
00000020: 05fa 8b3d 19d0 313d 00fc 6b3d 824c dbbc
00000030: 2ea1 8cbb d60d 283c ed7a 8fbd c2ba 8fbd
00000040: 8016 8c3d 34f5 20bd 1620 533d e115 babc
00000050: 2108 0abd d189 2b3d f354 39bd 0414 08bd
00000060: c17a a03d f00b b5bc 4c5e d3bc ae1a 933d
00000070: d8f5 b93d 16ca c63a 0c34 153d 0ea5 d5bc
00000080: 8d65 a73d c046 11bd df5f 8c3c 3c12 4c3b
00000090: 3e4c 38bd b91b a63c 5f7b 93bc 91fb 603d
000000a0: 2b5b 91bd f9b4 5bbd 8cc9 b23d 4540 8c3c
000000b0: 21b2 9d3d 187e 5b3c 7511 6e3c ca1c c53c
000000c0: 14b6 433d b0e9 e13b 1a06 b13d bb46 6ebc
000000d0: c208 9ebb ece2 b3bd 7ad9 99bb ac46 cebb
000000e0: 98ec 34bc d1f0 1fbd 1777 8d3d 2cd5 51ba
000000f0: 6a82 a53c c6e8 c83c 35b8 a2bd dea9 9ebd
00000100: 024d 6dbd dcb1 5b3d c7f3 d33c 7605 893d
00000110: 5572 2abc fc2a c43d 3184 eebc 8138 99bd
00000120: 374b 9bbd 1db0 63bd 1a4c c8bc 44b4 a53d
00000130: ae56 20bd 2064 093c 6e87 9f3d 0ae2 a5bc
00000140: 4e66 10bd d0c0 6b3c ae69 aabc 5077 043d
00000150: 7407 3ebd 38a4 7b3d 874d c03d 4e65 26bd
00000160: 094b e8bd f53b 153d 0316 95bb 7be9 b03d
00000170: ff5f 863a 9c1a a33b ba23 b8bd e4e3 bb3a
00000180: 6036 b73d 803d e3bc febb 223c 0f66 283d
00000190: ec51 2ebd d33f 533d eef3 ce3d 68ef 0abd
000001a0: f130 ac3c 4609 a3bd 42cc bc3d da72 66bd
000001b0: 0395 233d f1d2 0d3d 8cce 8e3c 406b f93c
000001c0: c7e2 f33c 99d0 4ebd 8747 8a3d 803f 7bbd
000001d0: b788 8e3d fbe4 df3c a4f9 ee3c 0364 8e3d
000001e0: 8900 23bc 1e9c 773d 9a94 7f3d f921 f3bc
000001f0: 35cd ef3c f691 05bb e642 883d b0e2 933b
00000200: 0a0f 0f3c af76 b33b b9d4 2abc 9248 203d
00000210: 8870 bf3d 4601 673d d9c3 48bd 9168 643b
00000220: 5bcf acbd c097 083d 6226 90bc c1c4 25bd
00000230: b9ce e6bb 8411 c93c 99f1 4c3d 5cc2 fabb
00000240: 9bf7 a9bd b36f 38bd a807 9c3b 69dd b7bc
00000250: 7697 86bd 50aa d43b 7574 46bd 22d9 c33d
00000260: c9ca b1bd 9caf 96bd 3b8c 86bc 12ee 433d
00000270: d869 c4bc 4cf1 5bbd 6770 04bd ff07 8f3c
00000280: e183 813d 1b79 093d d7ae 013d c0f9 b93c
00000290: 6512 76bc 0326 1dbd c1fe c73c 8189 783d
000002a0: 27f5 b03d 1f86 45bd c383 ab3c ef46 833d
000002b0: 42af 273d aad5 7ebd 3d3a 223c 360e 77bd
000002c0: 7d26 4c3d 32d0 0a3d 9060 913d 9d45 9b3d
000002d0: 551b af3d 07b2 a0bd 8f3c 8d3d b451 983d
000002e0: 5724 273b c9bc 393d 0cf4 8abd 7eb7 a53d
000002f0: d1ad c23c 8d96 a5bc 9bf5 153c ed80 cfbd
00000300: 0c9c 0f3c 2327 9a3d 243d 743d e3e0 a4bd
00000310: 0b57 b7bd 9c67 a73d 480b 0cbd a3a8 c9bc
00000320: d3f9 833d 6ff4 b13c d618 81bd 56fc ad3d
00000330: 08a6 fdbb 496e c0bd 0ed6 f33c 9803 723a
00000340: 5b56 413b 8267 ad3d 1e73 0ebd 916f a4bd
00000350: 3ff5 1dbd e1ca bdbd 13b5 c03d 029c 3dbd
00000360: c4e8 16bc 57e2 7a3c 4b19 c63c 6acd 8b3c
00000370: 772c 44bc 80ff abbc aeed 08bb 4e8d d73c
00000380: 61b9 993c 1f6b 053c 2d4f ccbc d773 213d
00000390: 1f8c 153d 7464 7f3c bf99 a53b 10ab c73b
000003a0: 2026 34bd 9567 81bd ba5a e43c 2815 34bd
000003b0: 90a9 adbb 83a8 69bd 3e42 04bd e881 323c
000003c0: 8271 22bc 6f3c 9dbc e4c4 f23c 5872 e1bb
000003d0: ac8f 6c3d 32fe b33d 8417 b23c 208a 453d
000003e0: 1a90 7e3d db2d bbbd 126a 1e3d d833 acbd
000003f0: 2484 83bd 1afe 0fbd 4fe4 993d dbb7 95bd
0.012277772 0.07319065 -0.07106392 0.031697385 0.06987917 -0.054280806 0.02233023 0.020852586
0.06834797 0.043411348 0.057613373 -0.02676988 -0.004291675 0.010257205 -0.07005868 -0.07018043
0.06840229 -0.039296344 0.05154427 -0.02271551 -0.03369916 0.04187948 -0.04524703 -0.033222213
0.078359134 -0.022100419 -0.0258018 0.07182823 0.09080094 0.0015166427 0.03642659 -0.02607968
0.08173666 -0.035467863 0.017135559 0.0031138798 -0.044994585 0.020276891 -0.018003164 0.054927412
-0.07097467 -0.053639386 0.08729848 0.01712049 0.07699991 0.013396762 0.014530529 0.02406158
0.047781065 0.006894313 0.08643742 -0.014543231 -0.0048228214 -0.08783516 -0.0046951147 -0.006295046
-0.0110427365 -0.03904802 0.0690748 -0.00080044824 0.020203788 0.024525058 -0.07945291 -0.07747243
-0.05793477 0.053636417 0.025873078 0.06690495 -0.010403235 0.09578511 -0.029115768 -0.074814804
-0.075827055 -0.055587877 -0.02445035 0.080910236 -0.039145164 0.008385688 0.07789503 -0.020249385
-0.035253815 0.014389232 -0.020802345 0.032340348 -0.046393827 0.061435908 0.09389787 -0.040623955
-0.11342437 0.036434133 -0.004549743 0.08638283 0.0010251998 0.0049775373 -0.08991189 0.0014334884
0.08945918 -0.027739286 0.009932516 0.041112956 -0.042558596 0.05157454 0.1010512 -0.03391972
0.02101943 -0.07960753 0.092186466 -0.056261875 0.03993703 0.034624998 0.017432474 0.030446649
0.029771222 -0.050491903 0.06751924 -0.061339855 0.0695967 0.027330866 0.029171772 0.069526695
-0.009948858 0.06045162 0.062397577 -0.029679285 0.029272655 -0.002038119 0.06653385 0.0045131072
0.008731613 0.0054767947 -0.010426694 0.03913171 0.093476355 0.0563977 -0.0490149 0.0034852365
-0.084379874 0.033347845 -0.017596427 -0.040470842 -0.007043686 0.024544485 0.050035093 -0.007652564
-0.0829918 -0.0450284 0.004761655 -0.022444444 -0.06571858 0.0064900294 -0.048450906 0.09562899
-0.08681256 -0.073577136 -0.016424289 0.047834463 -0.023976251 -0.053696916 -0.032333758 0.017459868
0.06323982 0.03356276 0.03166088 0.022702098 -0.015019034 -0.03836633 0.024413468 0.06067801
0.08640509 -0.04822361 0.020936852 0.06410014 0.040938623 -0.062215485 0.00990158 -0.060316287
0.049841393 0.033889957 0.07098496 0.07581637 0.08550135 -0.07846456 0.06896316 0.07437459
0.0025503838 0.045346055 -0.067848295 0.08091639 0.023764523 -0.02021339 0.009152795 -0.101320125
0.008765232 0.07526996 0.05962862 -0.08050706 -0.08952149 0.08174059 -0.034190446 -0.024616545
0.064441346 0.021723 -0.06303565 0.08495395 -0.0077407397 -0.09396035 0.029765155 0.0009232103
0.0029500935 0.08467008 -0.034777753 -0.08029092 -0.038563963 -0.09267212 0.09409537 -0.04629136
-0.009210769 0.015312753 0.024181983 0.017065722 -0.011973492 -0.020995855 -0.0020893621 0.026312497
0.018765153 0.008143215 -0.024940098 0.039417114 0.036510583 0.015587915 0.0050537284 0.0060933903
-0.04398167 -0.06318585 0.027875293 -0.04396549 -0.0052997544 -0.05704547 -0.032289736 0.01089523
-0.009914758 -0.019193856 0.0296349 -0.006880086 0.057754204 0.08788718 0.021739729 0.04822743
0.062149145 -0.091396056 0.038675375 -0.08408326 -0.06421688 -0.03515444 0.075142495 -0.07310458

encoder.2.bias f4 [128]
00000000: 10ee 5c3d 34b1 4f3c f718 653c d93e eebc
00000010: 2b34 b4bd dea7 88bc 70df 70bc 053d 9a3d
00000020: e3f8 3cbd 4936 84bd cb6a 5cbc 9153 b33d
00000030: a1fd 7dbd 1b6d 883d 755b 6d3d 5b5c 903d
00000040: 0daa a53d 14bf 5ebd 577a 6fbd d27e 823d
00000050: d971 a43d e4af 9c3d bf8c c1bc e9cf 88bd
00000060: 5a63 efbc 1fe8 1b3d ea8d 15bd c546 333d
00000070: 314c 063d dd0a 723d 6e64 25bc 2607 7739
00000080: 0c87 733c 1d1b 21bd 9144 033d 3bba debc
00000090: e71c 5a3c d3f2 fbbc b773 3dbd 1ba5 7a3d
000000a0: b884 8d3d d982 e73c 1fcc 7f3d 7b1d 423d
000000b0: 0ca7 453d b740 18bc 9d1b 2ebd b023 af3d
000000c0: fae6 1b3d ee8d b03d 43ac 0ebb e713 98bd
000000d0: 46dc 52bd a6a0 9dbd 18f7 38bd debf 563c
000000e0: f356 84bd 43b0 3e3d fb1a 153c b844 0fbc
000000f0: b0dd 343d 53de 12bd ecc4 c03d ae86 86bd
00000100: 844a 8bbd a3cd 0a3d 4892 ac3d 2340 4fbc
00000110: f224 0abc c536 cfbd b33f a83c ce03 9d3d
00000120: 2f15 92bd 051e 41bd 0d79 743c 1f54 593c
00000130: 5621 493d 7390 873d 7eef 9e3d ec9c 0ebd
00000140: 4398 c03c 8ada 9fbd e473 57bc 1358 2e3d
00000150: 98d8 f03c 23d7 343d c713 833d 50b0 23bd
00000160: 7915 82bd 08d7 4dbd 9390 cabc 5c61 9dbc
00000170: 2b83 343d bed8 783d 9e25 da3b c20b d03c
00000180: b3a4 f6bc f580 693d 5111 5dbd 0bc7 7abd
00000190: 59cf c7bc 67a2 aebd ff2d 443c e912 6a3d
000001a0: 2961 acbc 1fc1 413d 15f8 943d 8482 f6bb
000001b0: 1284 703d a8f8 c43c 0a21 e53c 8056 373b
000001c0: 9b69 883d 0b89 303d d0b5 73bc 5db9 2c3d
000001d0: 3055 38bc 0aa2 0c3d a118 043d 7990 76bd
000001e0: 011c 2c3c 76c6 833d f63e 373d d8c0 97bd
000001f0: e3e2 14bd c8a9 8d3c e3b5 1ebd f1d3 b13c
0.05393797 0.012676526 0.013983003 -0.029082702 -0.08799013 -0.016681608 -0.014701709 0.0753117
-0.046135794 -0.064556666 -0.013453196 0.087561734 -0.062009457 0.06661435 0.05794855 0.070488654
0.08089075 -0.054381445 -0.05846628 0.06371845 0.08029527 0.07650736 -0.023626683 -0.06680281
-0.02922218 0.038063165 -0.036512293 0.043768663 0.032787506 0.05909239 -0.010094745 0.00023558419
0.014863741 -0.039332498 0.032047812 -0.027188411 0.013312555 -0.030755436 -0.046252932 0.061192613
0.0691008 0.028260635 0.062450524 0.047391396 0.04825501 -0.009292773 -0.042506803 0.08551729
0.038062073 0.08620821 -0.0021770156 -0.07425671 -0.0514796 -0.07696657 -0.045157522 0.013107268
-0.06461897 0.046554815 0.009100671 -0.008744411 0.04415673 -0.035856556 0.0941256 -0.06568657
-0.06801322 0.033887517 0.084263384 -0.012649569 -0.00843166 -0.10117868 0.020538187 0.07666741
-0.07132947 -0.04714777 0.014921439 0.013264685 0.049104057 0.066193484 0.07760523 -0.03481762
0.023510104 -0.07805355 -0.013150189 0.042564463 0.029400155 0.044150483 0.064002566 -0.039963067
-0.06351752 -0.050253898 -0.024727141 -0.019211464 0.044070404 0.060753576 0.0066573163 0.025396232
-0.030107832 0.05700775 -0.053971592 -0.06122498 -0.024390863 -0.085270695 0.011973857 0.05714694
-0.021042423 0.047303315 0.072738804 -0.007522883 0.058719702 0.02404435 0.027969856 0.0027975142
0.06660768 0.043099444 -0.01487489 0.042168964 -0.011250779 0.03433422 0.03225005 -0.060196374
0.0105047235 0.06434338 0.04473778 -0.07409829 -0.03634919 0.017292872 -0.03874768 0.021707507

encoder.4.weight f4 [128, 128]
00000000: 933a aa3d bc40 24bd 741a b4bb ef59 403b
00000010: 930d 313d b616 9b3d b2be a4bd aafb ad3d
00000020: dc45 78bc 5d51 3bbd 406e 31bc 06ac 0a3d
00000030: 87ba 60bd c421 60bd 6b26 ae3d 7ad2 a43d
00000040: e133 c2bd 7be6 bfbc 5b68 07bc e078 b83d
00000050: de6a 3f3c 1c99 47bc 142f aa3d 1643 8a3c
00000060: 4e5b 803c 577b 86bc ed1d ddbd 55af a53c
00000070: 5274 1d3c 1745 01bd 528a 25bd c8b1 2d3c
00000080: 1c49 d93c 3edd 443d 3c26 ebbd 66be f3bb
00000090: eb2c 6dbd 4615 55bd ccfd 0b3c 4d68 7cbd
000000a0: 731b ae3d 5a45 923d 7fd4 9c3b d078 9cbc
000000b0: e5a5 883c 8b6d e03d 64af d83c af02 4c3d
000000c0: 0738 da3c 9da7 ff3c 54c4 ae3d fd4d 253d
000000d0: 35c2 43bc 2d0a 983b 6643 c2bb ee58 13bd
000000e0: 8c89 75bd 16da 833d a07e 77bd 1cfe ad3d
000000f0: 03c0 293d 7f2e 6e3c a392 7ebd 3ac9 953d
00000100: d416 51bd 8ee7 d8bd 8732 bb3d 70a4 253c
00000110: c486 8b3c 7ecd 08bd 3ac0 3b3d 83ee 933d
00000120: a4ce 923d 3041 2f3c 6817 753d 7a98 cf3d
00000130: d7a4 6c3d f43e 71bd bbf3 ad3c 53c6 abbb
00000140: 674e 8c3a 10ae 2d3d be18 6abc 4acc a83d
00000150: 44d7 afbd 51a2 2f3c 0777 a2bd 279b 2cbc
00000160: e6a2 3bbd c084 8ebc 2b11 023c a0eb 18bd
00000170: 88c6 cdbd 8448 00bd 71b1 c4bc 8357 5ebd
00000180: a0e7 4cbd 8cd6 29bd 0e75 d9bd 01ea 473c
00000190: f3eb 3ebd 68b6 da3b b4b9 0cbd 676d 813d
000001a0: 53f6 d3bd eebd 0a3c 7c9d 803d dd85 b4bc
000001b0: bbee 0bbe 445c 05bd 3eb3 743c 365a 123b
000001c0: 516a 9c3b e634 cf3c 6ea2 50bd be8b 353d
000001d0: c7ce 5abc 7b92 8d3d 7a05 d7bd 598a 6dbb
000001e0: 5d0b b93d c465 593d ebef ed3b 3b1c c83d
000001f0: aaaa 873d dcff 173c c2ee d1bb fef3 123c
00000200: cd8d 9d3d b7d7 e43c 5afd 15bd a697 953d
00000210: 2f8b 8d3d 48c4 e4bb 67f0 073d 8f9b 1e3d
00000220: e488 8a3c f06b 99bc 3ee2 b93d 4502 aa3c
00000230: 95ef ec3c 79d7 913d 7188 09bd 5985 31bd
00000240: 4220 a6bd 40ec 82bc 9a00 8c3d 6f73 efbc
00000250: 882e 7e3d edb7 eebc 88d0 d13c e2a9 333d
00000260: b15b 15bd 79ef 7e3d 6232 7a3c 170e 90bc
00000270: 70a6 79bd 9b17 0b3d f6ff 87bd 5ce6 9e3d
00000280: b8b6 9dbd a661 d2bb 9906 4dbc d631 343d
00000290: c5ba 5ebd 2abf 733d 7d02 333d f394 353d
000002a0: 044f 8c3d f3f9 0a3d 5417 08bd 9c5b c1bd
000002b0: 84be 46bd 6bfb 8b3b 8045 1a3d c171 ae3d
000002c0: 791b c63d 19ba 2ebc 03e0 163d fedd 0f3c
000002d0: a4c5 a83d f783 39bd d1e5 933d ef93 60bd
000002e0: 7b5a 973d 03e6 8e3c 7dac 58bc cf06 053c
000002f0: d329 5a3d f91d 3bbd adba a8bd 9223 963b
00000300: 9a17 4e3d a7f8 acbd c1d8 83bd f0bd 983d
00000310: 027e 353c a76d 0cbd a05b 76bd 0403 49bd
00000320: a91b 893c e1ef 1b3d 2627 1c3d 1a3b 8b3d
00000330: 03b0 4a3d 30ed 8c3d 8130 dcbc 751e b33d
00000340: 53e1 86bd dbae a93d 3f01 92bd f294 223d
00000350: 0114 b3bd 65d8 8abd 7bdc 603d 8fa6 7cbd
00000360: 0f5d c8bc 26c5 163d ab29 4b3d 34d3 243d
00000370: c4ce a7bd 47ca 0dbd 61e6 9fbc 8415 af3c
00000380: b267 503d 656a acbd 56a6 a8bd ac41 2fbc
00000390: 8bb4 97bd 0f53 6abd 19b9 88bc 1d30 923c
000003a0: 55a3 0b3c 7005 d03d f27b 033d e828 8039
000003b0: bafc 9fbd 2d98 c5bd 903b 943d d8e7 74bd
000003c0: 8dfa cb3c 8605 323d 8313 8abc ef4f 17bd
000003d0: b663 923d 26fd a53d c4a2 46bd d9a0 da3d
000003e0: a1c1 763c ea5a af3d 9e62 e1bd b315 bb3d
000003f0: 37a6 af3d d67a 26bb b32a fd3c f1d8 553d
0.083119534 -0.040100798 -0.0054963175 0.002935048 0.043225836 0.07572691 -0.08044185 0.08495267
-0.0151533745 -0.04573189 -0.010829508 0.03385546 -0.054865386 -0.0547197 0.085034214 0.08047958
-0.09482551 -0.023425331 -0.008264626 0.0900743 0.011683194 -0.0121825 0.08309761 0.016877692
0.015668537 -0.016416235 -0.107967235 0.020225206 0.009610252 -0.03156003 -0.040415116 0.010601468
0.02652412 0.048062555 -0.11481902 -0.0074384687 -0.057904165 -0.05202224 0.008544397 -0.061622906
0.08501329 0.07142134 0.0047860737 -0.019100577 0.016680667 0.10958394 0.02645082 0.049807247
0.026638044 0.031207854 0.0853354 0.04035758 -0.011948158 0.004639885 -0.0059284447 -0.03597348
-0.059945628 0.06438081 -0.060423493 0.08495733 0.041442882 0.014537453 -0.062151562 0.073137715
-0.05104716 -0.105910406 0.09140497 0.010110006 0.017032035 -0.033399098 0.04583762 0.07223227
0.0716832 0.010696694 0.059836775 0.101365045 0.05777439 -0.058897927 0.021234384 -0.005242148
0.0010704518 0.042402327 -0.014288126 0.0824209 -0.085859805 0.010719852 -0.07932859 -0.010535038
-0.04580965 -0.017397285 0.0079386635 -0.037334085 -0.100476325 -0.031319156 -0.024010392 -0.054282676
-0.050025582 -0.041464373 -0.106180295 0.012201787 -0.046611737 0.0066745766 -0.034356788 0.06319695
-0.10349717 0.008468134 0.06280038 -0.022036487 -0.13665287 -0.032558694 0.014935313 0.0022331602
0.004773416 0.025293779 -0.050936155 0.04432272 -0.013354964 0.069127046 -0.104990914 -0.0036245792
0.090353705 0.053075567 0.0072612665 0.097710095 0.066243485 0.00927731 -0.006406636 0.008969305
0.07693062 0.027934892 -0.036618568 0.07304315 0.06911313 -0.0069814064 0.03318825 0.03872257
0.016910978 -0.018728226 0.090763554 0.020753035 0.028922835 0.07121176 -0.033577386 -0.04334006
-0.081116214 -0.015981793 0.06836052 -0.029229848 0.062056094 -0.029140437 0.02561213 0.043863185
-0.036464397 0.062240098 0.015270801 -0.017584844 -0.060949743 0.03395806 -0.066406175 0.07758781
-0.077008665 -0.006420332 -0.01251378 0.04399284 -0.054377336 0.05950848 0.043703545 0.044331502
0.068510085 0.033929776 -0.033225372 -0.09441301 -0.048521534 0.0042719147 0.037663937 0.085177906
0.09673209 -0.010664486 0.036834728 0.008780954 0.08240822 -0.045291867 0.072215684 -0.05482858
0.07390305 0.017443663 -0.013224718 0.008119299 0.053262543 -0.04568288 -0.082387306 0.004581877
0.050315477 -0.08445864 -0.06437827 0.07458103 0.011077406 -0.03428426 -0.060145974 -0.04907514
0.016736822 0.038070563 0.038123272 0.06798382 0.049484264 0.068811774 -0.026878597 0.087460436
-0.06585946 0.08285304 -0.07129144 0.039692827 -0.0874405 -0.06779555 0.054897767 -0.06168228
-0.024458436 0.03680911 0.049600285 0.04024048 -0.08193734 -0.034616735 -0.019519033 0.021372564
0.05088014 -0.08418731 -0.08234851 -0.01069681 -0.07407483 -0.057208117 -0.016689824 0.017845208
0.008522828 0.10157287 0.032100625 0.0002444454 -0.07811876 -0.09648166 0.07237923 -0.059791416
0.024899745 0.0434623 -0.016855007 -0.036941465 0.071479246 0.08104925 -0.04849507 0.106752105
0.015060813 0.08562262 -0.11005138 0.09134998 0.08576625 -0.0025402806 0.03090415 0.052208845

encoder.4.bias f4 [128]
00000000: da01 aebd 381d 04bd 4f2e 0abc f8de 923d
00000010: 1d18 83bd 0d1c e43c 2e27 c13a a07c c53c
00000020: 9531 173d d6c6 99bd 9d47 25bd e489 2d3d
00000030: 3277 b8bd fdd7 a3bc 622a 023d e658 0f3c
00000040: 1b3c 47bd 840a 53bc 51d4 cbbd b9a4 f33c
00000050: 47fb bbbd d4cf 85ba dda9 edbc 548b 9b3d
00000060: b82f af3d d0d6 29bd 32a0 aa3b 89f3 b4bd
00000070: 9f1b e0bc 9a56 2abd 26eb 1b3c 791c 32bc
00000080: cde2 9fbd 53d4 853d c838 353d b918 74bd
00000090: 5a24 12bd b506 8a3b 7607 7bbd 6cb4 2ebd
000000a0: d8f3 4dbd 65ee 823d a3fc fa3b 7256 573b
000000b0: 3b9c a3bd fdce 19bc f2dd 8dbd 547e 0e3d
000000c0: 1d56 be3d a74f 21bd 4b59 9abd 7c58 27bd
000000d0: f101 95bd 21ab c53d df7b c33d a504 b83d
000000e0: 393e cbbc 1fec 8f3d 1bd9 333d ed3c 8c3d
000000f0: e99d f83c c269 95bd 83f2 64bd 800d b8bd
00000100: 8004 1a3d a8a6 973d 4edf 6dbc 0e46 f63c
00000110: d692 b7bd c742 963d bf9e cc3c ce71 313d
00000120: b2ab a03d 8dba 883c 4e68 2d3b a313 84bd
00000130: 9948 b23d 7ec1 803d 2a2f 5f3d 5646 763d
00000140: ab4a 3d3d e30f f73c f275 a93c 9d00 e63c
00000150: a2a0 16bd 65e8 61bd 354a 5fbd 6990 bf3d
00000160: 4b03 233d c09e bf3b e013 37bd 26bd c5bd
00000170: efbd 32bd dce6 9bbc a040 bebd 4644 aabd
00000180: bf78 b73d 3915 b6bd 73d3 143d 33f4 903c
00000190: abc3 9abd af67 a5bd 7f82 1ebd 5dfe 98bd
000001a0: 68d5 923b 2f2c a63d a21f bbbb 7dad 87bd
000001b0: cc50 56bd 4892 963d b55f bbbc 2c31 b63c
000001c0: c2c3 aebd d471 2b3d 0396 8e3d 379c 4abb
000001d0: 11ed 833d 1d14 bf3d 90c9 c93d d26d 2f3d
000001e0: 6e0a cd3d 43b5 293d 1913 8bbd d337 1dbd
000001f0: f654 bc3d ea8e ca3d 2ed0 193d aec1 d1bc
-0.08496447 -0.032254428 -0.008433892 0.07171434 -0.064010836 0.027845407 0.0014736408 0.024107277
0.03691252 -0.07508628 -0.0403515 0.04236783 -0.0900711 -0.020000452 0.0317787 0.008749222
-0.048641305 -0.012880925 -0.099526055 0.029741632 -0.09178787 -0.0010209032 -0.029011661 0.07594934
0.085540235 -0.041464627 0.005207085 -0.08835513 -0.02735692 -0.041586496 0.009516513 -0.010871046
-0.07806931 0.06534638 0.044243604 -0.05959389 -0.0356792 0.0042122253 -0.061286412 -0.042652532
-0.050281376 0.063931264 0.007659511 0.0032857922 -0.07988783 -0.009387729 -0.06927098 0.034788445
0.092937686 -0.039382603 -0.075365625 -0.04085587 -0.07275761 0.09651781 0.09545111 0.08985261
-0.024809944 0.070274584 0.04390822 0.06847558 0.030348735 -0.07295562 -0.05589534 -0.0898695
0.037601948 0.07404834 -0.014518572 0.030062702 -0.089635536 0.073369555 0.02497804 0.043321423
0.07845248 0.016690517 0.0026459876 -0.06449058 0.08705253 0.06286906 0.05448834 0.06012567
0.046213787 0.030158943 0.020686124 0.028076464 -0.036774285 -0.05515327 -0.05451413 0.09353716
0.039798062 0.005847782 -0.04469669 -0.09655218 -0.043638166 -0.01903098 -0.0928967 -0.083138034
0.08958577 -0.08890767 0.036334466 0.017694568 -0.07556852 -0.08076417 -0.03869867 -0.07470391
0.0044810064 0.08113896 -0.005710558 -0.06624887 -0.052323148 0.0735212 -0.022872785 0.022240244
-0.085334316 0.0418566 0.06962206 -0.0030915865 0.06441701 0.09330008 0.09852898 0.042829342
0.10011755 0.04143263 -0.06790752 -0.038383316 0.091958925 0.0989054 0.03755205 -0.025605049

decoder.0.weight f4 [128, 128]
00000000: 67e8 cfbd afb0 f8bd 2c22 4bbc a30c b8bc
00000010: 06d4 96bc 66df 18bd 0264 bcbd 60ff 94bd
00000020: 381f 533d f272 c1bd c43c 3d3c c849 02bd
00000030: 8808 4fbb 84dd 893d 68f5 513b a101 d83b
00000040: e620 d63c a8ba 503c 616b 0fbd b8a0 e23d
00000050: a0e8 143d 304a 9bbc 4864 b23c ed5b 4abd
00000060: 955f 053d 4384 4cbd 9a82 da3d b15c 6a3c
00000070: bd59 4fbc 4b9b 5abc dd3a c2bd 53ad 85bc
00000080: e80a 1bbe 0d5b 2b3d 8124 70bb 4d9c 4bbc
00000090: 1b69 80bd 4948 d1bd 6784 37bd ce68 18bd
000000a0: 61a5 48bd 6be9 acbd 8c8f b63d 58c3 ee3b
000000b0: b2c9 af3a 67d9 ac3d fc38 d23c a1ba 043d
000000c0: b9ca c33a bb29 c53c 9d54 24be a004 cbbc
000000d0: 6e3e e2bd 9d45 41bc 4b93 ba3d e394 073e
000000e0: 0f05 c1bd b952 dc3b 718f 213c b77c a03c
000000f0: 7f1f 563d 722d 8fbc cb03 a4bd edb7 4dbc
00000100: cde5 d63d 95f4 c73d 012a 05ba 1554 5bbd
00000110: f7ae 3b3d 57cb ac3c e0a8 93bd b5c1 8cbd
00000120: 50d9 fa3d 5725 20bd ddba 363d 4b33 22be
00000130: 2f52 b63d bf36 c93d 4c4f b13b 614b 89bd
00000140: e3ba f9bb aaec e73c 826b 6d3a 7b6c 66bc
00000150: 0fd3 c8bd 4d9c 82bd c349 ec3c 4baf a53b
00000160: b06c 1a3c d457 0a3d c701 423d 8518 88bd
00000170: 2f6d 59bd d5f1 a13c 853a a1bd 9d9e efbd
00000180: e447 a43d 1544 65bd 0f05 8e3d 97eb 823c
00000190: ca23 f8bd 329b 15be 3530 0c3d adc7 43bd
000001a0: 37b3 803d f486 923d 8a82 233d 991e 79bd
000001b0: 5cd6 27bd e948 fe3d 7946 673d 20b6 b53d
000001c0: 95f3 28bd ba01 8e3d 68eb 9b3d 79cc ea3c
000001d0: bfe3 643d b118 b53d 5cd0 ddbb e03d babc
000001e0: 88fd 10bd 941f a4bd 80a3 23be 393c 2d3d
000001f0: 16d0 043d 07a0 e03c 2f1f 3e3d b685 2cbd
00000200: 9662 79bd e6af 713d 2731 523d f604 0a3b
00000210: fe55 80bd 0d1c cb3d c9db d0bd 9d63 693d
00000220: 4c84 cc3c 8d21 c0bb 0b6e bfbc 2ea0 fe3c
00000230: f552 1abc a3e1 f53c 569f d63c 01eb 5a3d
00000240: 188a c73c b564 c5bd 68d2 91bd 65e0 a8bd
00000250: dbb8 0d3d 85f0 093d 66d4 bdbd f3fc 7dbc
00000260: d0aa e7bc 0d1b 953d 71f6 b8bd 9904 fe3d
00000270: bb30 1d3c 96e5 aa3d 4700 8b3d 9b26 053d
00000280: 99f2 d5bb 69dd d53b 35ae 8f3d 97be ad3d
00000290: c46c f83d d9e9 503d af17 913d 8d3a b3bd
000002a0: 6f5f 85bd 3587 903d 0627 453b 398c 61bc
000002b0: b5fb a5bd 9138 b6bd 68ab 32bc 0992 bf3c
000002c0: 430c 58bb a145 5dbd bde5 a53d d304 5b3d
000002d0: 2a0c ee3c 89ca 63bd 1c03 59bd fe74 64bd
000002e0: 5ed2 96bd a85a d03c b67d d5bd d684 223d
000002f0: 2746 c13d 6b65 263d fb8b c73b 629f 8cbd
00000300: 7ba3 7b3d de3c f73d 2025 b4bd c85e 883d
00000310: b8b1 0d3d 62a5 eabd e1a6 653c 4c5b 643c
00000320: adb2 b5bd d39a 8c3d 9eea d53d 81f9 bc3d
00000330: 8499 013d 6b70 8abc bd34 813d 5974 063d
00000340: 4235 7e3d 126e d63c 4c16 383d a803 1d3d
00000350: f8ce d2bd 1c7f db3d e2df 8ebd a840 a93d
00000360: cbb3 8cbc 8b64 b93d 6b9e d4bd a58a 96bb
00000370: f36a cabd 78bd 5ebd 78db ec3c 6c6e 8e3d
00000380: 23aa 9cbd bbb0 a4bc 6b69 f53c 72e4 983d
00000390: 739b 2f3c 8c37 a83d a57c a33c 3a4e 82bd
000003a0: 648a 19bd f5c8 efbd 98b6 623d a8f8 b5bd
000003b0: 22b6 433d 03f2 01bd 9224 73bd 5e42 a9bd
000003c0: 8793 5c3d 8ef5 c8bd 921c 51bd 6677 72bd
000003d0: 1a8a 02bd 0a7d 4d3d eeb5 c2bd 7bfb 7cbd
000003e0: 068c 81bc d40e 553d c694 8d3c 030c 73bd
000003f0: b566 45bd 1acc 753d e75c 0ebd 14c3 7d3d
-0.10151749 -0.12143075 -0.012398284 -0.022466963 -0.018411648 -0.037322424 -0.091987625 -0.072752714
0.051543444 -0.09445752 0.011550132 -0.031808645 -0.0031590778 0.06731704 0.0032037143 0.006591991
0.026138734 0.012739815 -0.035014514 0.11065811 0.03635466 -0.018956274 0.021776333 -0.049404074
0.032561857 -0.049930822 0.106694415 0.014304326 -0.012655673 -0.013342689 -0.094838835 -0.016317999
-0.15140879 0.04183488 -0.0036642852 -0.012427402 -0.06270047 -0.102188654 -0.044804003 -0.037209325
-0.048985843 -0.084429584 0.08914098 0.0072864704 0.001341155 0.08439904 0.025661938 0.032404546
0.0014937735 0.02406775 -0.16047902 -0.024782479 -0.11047064 -0.011796382 0.09110125 0.1324039
-0.09424793 0.0067237285 0.009860859 0.019590719 0.05227613 -0.017477725 -0.08008536 -0.012556058
0.1049305 0.09763447 -0.00050798064 -0.053546984 0.045821156 0.021093054 -0.07209945 -0.06872884
0.1224848 -0.03909811 0.0446118 -0.15839879 0.08902394 0.09824895 0.0054110643 -0.067038305
-0.0076211556 0.028311092 0.00090568524 -0.01406395 -0.09805881 -0.06377468 0.028843766 0.005056297
0.009425327 0.033775166 0.047364976 -0.06645302 -0.05308264 0.019768635 -0.0787249 -0.11700175
0.080215245 -0.05597313 0.069345586 0.015981479 -0.12116201 -0.14609984 0.03422566 -0.047797848
0.062841825 0.071546465 0.039919414 -0.060820196 -0.040975913 0.1241625 0.056463692 0.08872628
-0.041247923 0.06933923 0.076132596 0.028661953 0.055881258 0.088426 -0.006769223 -0.022734582
-0.035398036 -0.080138355 -0.15980339 0.04229376 0.03242501 0.027420057 0.046416458 -0.042119704
-0.060885035 0.05900564 0.051316407 0.0021060086 -0.06266402 0.0991746 -0.10198171 0.056979764
0.024965428 -0.0058633746 -0.023367902 0.031082239 -0.009419193 0.030014819 0.026199024 0.053446773
0.02435784 -0.09638349 -0.0712021 -0.08245925 0.03460012 0.033676643 -0.092690274 -0.015502202
-0.028279692 0.0728055 -0.0903138 0.12403221 0.009594138 0.08344571 0.06787162 0.03250752
-0.006529164 0.0065266383 0.07015649 0.08483618 0.121301204 0.051004265 0.070845954 -0.08751402
-0.06512343 0.07057039 0.0030083074 -0.013766342 -0.0810465 -0.08897508 -0.010905124 0.023385065
-0.0032966293 -0.05402148 0.0810046 0.053471398 0.029058535 -0.055613074 -0.05298148 -0.055775635
-0.07364343 0.025433853 -0.10424368 0.039677463 0.094372086 0.040624063 0.006089685 -0.06866337
0.061435204 0.12072156 -0.087961435 0.06658703 0.034593314 -0.114573255 0.014016838 0.0139377825
-0.0887197 0.06865468 0.1044514 0.092272766 0.031640545 -0.016899308 0.06308887 0.0328258
0.06206251 0.026175532 0.04494314 0.038333565 -0.102933824 0.107176036 -0.06976296 0.08264285
-0.017175576 0.0905238 -0.10381778 -0.0045941644 -0.0988368 -0.05437991 0.028913245 0.06954655
-0.076496385 -0.020103803 0.029957494 0.074654475 0.010718214 0.0821372 0.019956896 -0.06362577
-0.037485495 -0.117082514 0.055349916 -0.08885318 0.047781117 -0.03172494 -0.059361048 -0.08264612
0.05385163 -0.09812461 -0.051052637 -0.0591959 -0.031869985 0.050168075 -0.095073566 -0.061763268
-0.015813839 0.052016094 0.017282855 -0.059337627 -0.048193652 0.0600091 -0.034756567 0.06195362

decoder.0.bias f4 [128]
00000000: 4588 713d 0865 a93d 6029 86bd 8258 993d
00000010: 1d97 263d d3e3 9b3d 0a6f a6bd 750b 26bd
00000020: 0659 fc3c 3824 973c bdbb 59bd 4705 873d
00000030: 89a6 72bd 6ffe 963d d88b 1cbd 6cd3 96bd
00000040: fba4 6d3d fe58 38bd e16f 04bd a4a3 7a3d
00000050: 5eb8 883d 7d71 ba3c fbf0 a83d 5ce9 bd3d
00000060: c8f9 a5bd 75f1 05bd 3219 9d3d a8e9 4cbd
00000070: d49e 2fbd ae1c 54bd 0770 213c ad19 c23d
00000080: 6689 963d 1d5b e73c d6b6 573d 5449 a9bd
00000090: 2e71 933d 7ae1 893d 6e86 16bd c6f3 b23d
000000a0: 477b 333c f177 6dbd 429d 923d 7d9a e9bb
000000b0: 4f60 c0bc 3f3b 903d e49e 88bd 30ce f9bc
000000c0: 2c16 ba3c bf47 663d e478 493d d479 c53d
000000d0: 90e6 e23c 02ac 993d 38fc 993b 062b 93bc
000000e0: df7d 5f3d 3adc b83d 49fc 80bd 1a14 7b3d
000000f0: 81a2 96bc ecf9 acbd 3651 b73d c24d 28bd
00000100: 021f 49bd add8 963d 0dd8 793d 798b 03bd
00000110: f686 27bc aa23 dbbc 0bc1 b23d 5ded 6e3d
00000120: ed0b fdbc 5d1d 8c3d 6a71 b53d 938c 7b3b
00000130: 3252 02bd 0116 8a3d e1e5 40bd 15b2 49bd
00000140: 5381 813c c336 86bd 2e48 03bd de1c 5c3c
00000150: e9f5 9ebd 615c 0cbd f836 05bc c381 50bd
00000160: 9e7e 37bd 9988 663d f153 4639 d990 b3bd
00000170: cec0 a03d f326 ce3c 30fc 783d 4b19 b9ba
00000180: 4870 4b3d 3626 aabd 8783 9a3d 96eb f23c
00000190: 8f38 b6bc e462 6dbc daa8 a23d 8241 48bd
000001a0: 57b8 1bbd 23c5 b4bd 7b34 a23d f92b 603d
000001b0: adc0 51bd 0335 45bd 97e2 4f3b 8654 f2bc
000001c0: d324 64bd d35a 0f3d c6ac 8b3d 11fc b0ba
000001d0: aa59 75bd 0f03 4cbd db85 81bd 74ce d53c
000001e0: 0273 bc3d e8c9 8dbd 9b8d 82bd 0afc 3abc
000001f0: d094 c83d d9f3 af3d 378d c83d 61f5 a93c
0.058967847 0.08271223 -0.065508604 0.07487585 0.040671457 0.076118134 -0.08126648 -0.04053827
0.030804168 0.018449888 -0.053157557 0.065928034 -0.05924085 0.07372748 -0.038219303 -0.07364544
0.058018666 -0.045006745 -0.03233326 0.061191216 0.0667579 0.022759194 0.082490884 0.092730254
-0.081042826 -0.032700974 0.07670821 -0.05002752 -0.04287608 -0.051785164 0.00985337 0.094775535
0.073504254 0.028241688 0.0526646 -0.08265939 0.07199322 0.06732459 -0.036749296 0.08737902
0.010954685 -0.057975713 0.07158901 -0.007129012 -0.023483424 0.0704255 -0.06670931 -0.030493826
0.02271565 0.056220766 0.049187556 0.096423775 0.027697831 0.07503511 0.0046992563 -0.017964851
0.0545634 0.0902638 -0.062981196 0.061298467 -0.018388035 -0.08446106 0.08951037 -0.04108978
-0.049101837 0.073655464 0.060997058 -0.032115433 -0.010225048 -0.026750404 0.08728226 0.058331836
-0.030889476 0.06841538 0.08859523 0.003838335 -0.03181667 0.06742478 -0.04709423 -0.049242098
0.015808737 -0.06553414 -0.032051258 0.013434617 -0.077617474 -0.034267787 -0.008130781 -0.050905
-0.044798486 0.056282613 0.00018914022 -0.08767862 0.078492746 0.025165057 0.06078738 -0.0014121918
0.049667627 -0.083080694 0.07544618 0.029653352 -0.022243766 -0.014488909 0.07942362 -0.048890598
-0.038017597 -0.08826663 0.07920166 0.054729436 -0.05120914 -0.04814626 0.0031720751 -0.02958132
-0.05569918 0.034998726 0.06820063 -0.0013502856 -0.059899963 -0.049807604 -0.06324359 0.026099421
0.092016235 -0.06923276 -0.06374665 -0.01141263 0.09794009 0.08591432 0.097925596 0.020746889

decoder.2.weight f4 [1, 128]
00000000: 2e7c 8e3d 02b8 04bd 0e31 b2b9 1f4f afbd
00000010: b2f5 49bd 5831 3abd 7356 65bd ec3a db3d
00000020: 130e 14bd 569a a9bd 3dce 513c 8e34 9b3d
00000030: b22d 3abd bf4c cabd 267b eb3d a7b9 613d
00000040: 9c33 82bd f7f2 bcbd 9300 cb3d 646a d33d
00000050: 9a0f afbd 1dd7 fc3d 5c2d aa3d 3bee bfbd
00000060: d97c adbd 9049 8bbc f94f 54bd dd65 8a3d
00000070: ae15 99bd 7cf8 e63d 254e 19bd 634b 5abd
00000080: 483f 6ebd f915 9c3d a654 dabd fc70 f7bc
00000090: 3419 c73d e44c 973d 9f02 8abd 4902 b53d
000000a0: 55ce 853d 49f3 5abd 992d 0dbd 1a8e 783b
000000b0: 27fe 09bd 9a2a a43d ea2c 4abd 2a8f 9dbd
000000c0: 2e5e a23d 9199 1dbd e0d2 063e acfa bf3d
000000d0: 34b9 b0bd cbab 40bd 2664 c3bd 0690 febc
000000e0: b497 b6bd fcdc e23d aa30 44bd 5e33 853d
000000f0: 7a9b 7a3d 4818 4dbc bb53 d33d 7382 4dbd
00000100: ac83 64bd 215b ea3d eb42 8fbd 654b 803d
00000110: e34b 233d fc87 413d 28aa e93d 4c1d 833d
00000120: 5991 863d daab a4bd ae63 833d 2ffb 963d
00000130: f79f abbd d4e5 cebd 9721 c93d 2fc9 9dbd
00000140: 5b79 9bbd 8877 fcbd f8b9 913d 3436 babd
00000150: 83c5 eb3c 1110 7ebd ae25 17bd 447a 893d
00000160: a9bf 9c3d b1c7 4d3d 527d a23d 0e49 793d
00000170: 0c8a 49bd 8689 a83d ba46 c63d 7b75 a0bd
00000180: 25d0 7abd e1be 84bd f0ba d5bd b820 7dbd
00000190: 6983 f23d b91b de3d 8ea3 54bd 2421 523c
000001a0: 5b78 1fbd 8e91 17bd 1924 8b3d fef4 a33d
000001b0: 70c4 c0bd ffc7 c2bd 3723 243d 9b3c aebd
000001c0: 4ea4 adbc 082f 993d d10c a53d 426d 1abd
000001d0: 9474 a23d 94df e13d 3a9e f9bd 7763 06bd
000001e0: 2b96 49bd 89f3 99bd d3fc d3bc 3fd7 ec3c
000001f0: 2da6 a73d a0c9 b8bd 2568 a13d cf57 703d
0.06957279 -0.032402046 -0.00033987354 -0.08560013 -0.04930658 -0.045457214 -0.055990648 0.10704598
-0.036146235 -0.0828139 0.012805519 0.075783834 -0.045453735 -0.098779194 0.11498098 0.055108692
-0.063575 -0.09226029 0.09912219 0.10323027 -0.08547898 0.12345717 0.08309433 -0.09371611
-0.084710784 -0.01700285 -0.05183408 0.0675771 -0.07474838 0.112778634 -0.03742804 -0.05329455
-0.05816582 0.076213785 -0.10660677 -0.030205242 0.09721604 0.073877126 -0.06738781 0.088383265
0.06533495 -0.05345467 -0.034467313 0.0037926496 -0.033689644 0.08015938 -0.04935924 -0.07693322
0.079281196 -0.03847653 0.1316638 0.09373984 -0.08629075 -0.047038835 -0.09540586 -0.031074535
-0.08915654 0.11077306 -0.047897972 0.06503938 0.06118343 -0.012517996 0.10318705 -0.050173234
-0.055789635 0.11443163 -0.069951855 0.0626438 0.039867293 0.047248825 0.11409408 0.06402072
0.065706916 -0.080405906 0.06415497 0.07372128 -0.0838012 -0.1010243 0.0982086 -0.07704388
-0.07591506 -0.12327486 0.07115549 -0.0909237 0.028780704 -0.06202704 -0.03690117 0.067127734
0.07653744 0.05023927 0.07934059 0.060860686 -0.049203917 0.082293555 0.09681459 -0.078349076
-0.06123366 -0.0648172 -0.10436046 -0.06179878 0.11841471 0.108451314 -0.05191379 0.012825284
-0.03893314 -0.037004046 0.067939945 0.08005713 -0.094124675 -0.095108025 0.040072646 -0.08507653
-0.02119651 0.074796736 0.08059085 -0.037701853 0.07932392 0.11028972 -0.121883824 -0.0328097
-0.049215477 -0.07517154 -0.025877392 0.028911231 0.081859924 -0.09022832 0.07881192 0.05867749
