set_transformer/regression_model/deepset_moonboard_rated.pth (torch, 236120 bytes, 9 tensors)

encoder.0.weight f4 [128, 64]
000000 5f 16 a0 bd 29 32 d9 3d 87 32 a7 3d 9b 01 49 3d
       -0.07816767 0.106052704 0.08163934 0.049073797
000010 9b 70 66 bb 39 7b 2b bc b4 7d 9e bb 3c d1 b0 bc
       -0.0035162333 -0.01046639 -0.0048367623 -0.021584146
000020 f1 cb ce bd 62 37 03 3e 66 ed a5 bd 01 3b da bd
       -0.100974925 0.12814096 -0.08101921 -0.10655785
000030 5d a9 02 3e 61 80 02 3e b7 b2 00 3d e9 44 a1 bd
       0.1275992 0.12744285 0.031420436 -0.07874472
000040 98 c2 bb bd 7e 8b 05 3e b1 92 0a 3e 63 1b 91 3d
       -0.09167975 0.13041493 0.13532521 0.07085302
000050 ed 62 15 3e c8 51 eb bd e7 33 9f 3d 7d 9f 82 bc
       0.14588518 -0.11490208 0.077735715 -0.01594519
000060 7e 6a 42 bd ab b3 e8 bd 6e 20 12 bd be 43 3a 3d
       -0.04746484 -0.11362394 -0.03567546 0.04547476
000070 78 b4 95 3a 9f 96 02 3e ac e7 f3 3b b4 97 82 3c
       0.0011421582 0.1275277 0.007443389 0.015941478
000080 c9 73 d1 3d b6 92 36 3d af 4d d5 bd a5 44 19 3d
       0.102271624 0.04457351 -0.104152076 0.03741898
000090 1d a4 c5 3d 9b c8 cb 3d 25 84 c2 3d 72 69 6c 3d
       0.09650443 0.09950372 0.09497861 0.057717748
0000a0 87 1e a9 3d 71 94 94 bd 06 29 b2 3d 34 e0 6a 3d
       0.08257776 -0.072548755 0.08699231 0.057342723
0000b0 73 ac 0c 3e 7c 99 ea bd fc a4 2b bd a8 6d 73 bd
       0.13737659 -0.11455056 -0.04190539 -0.05943075
0000c0 c6 e6 a3 bd 3f ff a0 3d c5 ba d4 3c 33 76 97 bb
       -0.08003001 0.07861184 0.025967965 -0.0046222447
0000d0 86 be d5 bb 92 b2 3d 3d d2 1e 8f 3d 74 63 b2 3d
       -0.0065229563 0.046312876 0.069883004 0.087103754
0000e0 88 55 d2 bd 68 73 a6 bb ea 5c a4 bd c1 26 ad 3d
       -0.1027022 -0.0050796755 -0.080255345 0.08454657
0000f0 4f 1c 91 3d 9e 94 8a 3c 55 e8 d2 bd 7a ba cd bd
       0.070854776 0.01691657 -0.1029822 -0.10045333
000100 6b 37 07 3e 91 5a e0 3c a0 4b 0a 3e 29 d0 92 3d
       0.13204734 0.027386935 0.13505411 0.0716861
000110 e9 6b 05 3e 46 d1 64 bd 4f b8 ef bb e2 dd 33 3d
       0.13029446 -0.05586364 -0.0073156725 0.043912776
000120 d7 6c 0d be 60 24 f9 3d 76 33 73 bd 5a 25 bb bd
       -0.1381105 0.12165141 -0.05937525 -0.091379836
000130 2a 0c 35 b9 ec 77 bc bd 42 3e 9c bd a4 67 07 3d
       -0.00017266037 -0.09202561 -0.07629062 0.033057824
000140 60 0f f5 3b 52 9d 67 bd 01 05 5d bc 57 40 c1 bd
       0.0074786395 -0.056546517 -0.013489963 -0.094361
000150 b3 41 5a bc 6f 5f f2 bd d2 7e 2d be 85 19 d2 bc
       -0.013321328 -0.11834609 -0.1694291 -0.025646934
000160 2c a8 d7 3d e1 57 d4 bd 91 fe 99 bd 73 ef 14 bc
       0.10530123 -0.10368324 -0.07519258 -0.009090292
000170 8c 53 8f 3d a0 7e da bc 0e c3 bd ba f7 2d 83 bd
       0.06998357 -0.026671708 -0.0014477686 -0.064052515
000180 62 22 75 bd 7c 04 67 bd 48 b0 e9 3d 3f c5 cf 3c
       -0.059847243 -0.05640076 0.11410576 0.025362609
000190 30 a9 5b 3d d8 89 92 3d 76 13 77 bc 6f 2e f3 3d
       0.053628147 0.07155198 -0.015080323 0.11874091
0001a0 82 72 8a bc 09 27 5d bd c3 f8 fe bc f5 0d 07 bd
       -0.016900305 -0.053992305 -0.031124478 -0.032972295
0001b0 58 5e d9 bd 89 2d a1 bb 47 21 e4 bb 6a d7 de bc
       -0.10613698 -0.0049187583 -0.006961975 -0.027202327
0001c0 9d 13 87 3d bd da ba bd d4 91 5c 3c a8 39 ec bd
       0.06595538 -0.09123752 0.0134625025 -0.115344346
0001d0 52 a5 b6 bb 27 05 77 3b 45 73 ad bd 3d 67 09 be
       -0.005573907 0.003769228 -0.084692515 -0.13418289
0001e0 53 8f 18 be 11 33 bd 3d 39 12 a9 3d 61 24 c2 bc
       -0.14898424 0.09238256 0.08255429 -0.023698987
0001f0 a2 49 9c 3d 8a 75 01 bb 97 b7 af bd bb 04 ee bc
       0.07631232 -0.0019753897 -0.08579939 -0.02905499
000200 49 a7 03 be 7c e0 c3 3d e6 a6 f5 bb 7d 97 67 bb
       -0.12856783 0.09564301 -0.0074967025 -0.0035338097
000210 24 29 0d be 5b 97 a0 bc 46 e8 73 bc 10 5c 3f 3c
       -0.13785225 -0.019603422 -0.014886921 0.011679664
000220 e0 7f 35 bd 60 99 4c 3d dc c8 3f bc a0 18 f8 3d
       -0.044311404 0.049950957 -0.011705603 0.12114072
000230 ec b3 57 bd fd 9a d0 3d 8e 61 6a bc b0 1f da 3c
       -0.05266182 0.10185812 -0.014305485 0.026626438
000240 c1 19 0b bd b2 2e ab 3d a2 9f 37 3d de b7 e3 bc
       -0.033960108 0.08358516 0.044829972 -0.027797636
000250 b6 42 00 be e3 f5 32 bd 6a 02 db bd 25 1b 09 3d
       -0.12525448 -0.043691527 -0.1069382 0.033473153
000260 ff dc c6 bc 7a f8 90 bd 9f d9 63 bd 2c b4 99 3d
       -0.024275301 -0.07078643 -0.05562746 0.07505068
000270 f4 95 16 3e af 9a c0 3d 26 a6 ef bd 1f c2 b0 3d
       0.1470564 0.094045036 -0.11701612 0.08630776
000280 a8 eb f4 bd 4b a3 86 3d 9d 0f 9c 3d d2 b8 46 bd
       -0.1195901 0.065741144 0.076201655 -0.048516102
000290 67 e3 98 bc 0f 0a 03 be ad 9c 9a bd 91 a1 d8 bd
       -0.018663121 -0.12796806 -0.07549415 -0.10577691
0002a0 b7 dc f0 ba 61 d1 c2 bc c1 99 01 bd 37 75 a8 3d
       -0.0018376325 -0.02378148 -0.03164077 0.08225482
0002b0 bc 8f 03 be 41 09 05 3e 08 ad db bd 8d 4a 87 3a
       -0.12847799 0.12991811 -0.107263625 0.00103219
0002c0 eb f2 b6 3c ff 5c 9d bd 6e c5 df 3c a6 fe 53 3d
       0.02233263 -0.07683753 0.027315821 0.051756524
0002d0 da 0a c0 bd eb cf 29 bb 74 1e 09 be 38 19 03 3e
       -0.0937707 -0.0025911282 -0.13390523 0.12802589
0002e0 01 ce 08 be 19 7b 4f bc 67 c2 26 3d c2 5b 60 bd
       -0.13359834 -0.012663626 0.04071274 -0.054775007
0002f0 3e 61 33 bd bc 0d be bb 7d ac f4 bd 41 ac 7e bd
       -0.04379391 -0.005799977 -0.11946962 -0.062175993
000300 9e 0d e4 3d 32 b6 83 3d ce 99 9b bd e2 fe 66 bd
       0.1113541 0.064312354 -0.07597695 -0.05639542
000310 86 f5 bc bd c1 fb 99 3d ac cb 98 3d 80 d1 9e 3c
       -0.092265174 0.07518721 0.07460722 0.019387007
000320 aa 8b 61 3d 3c 06 66 bd 3a 44 14 bd 99 17 8e 3d
       0.055064835 -0.05615829 -0.03619788 0.06938095
000330 a1 56 ea bd 55 2d a3 bd 95 d5 0a 3d ec d0 f2 bd
       -0.114423044 -0.07967631 0.033895094 -0.11856255
000340 16 be 02 be b4 cb 4c 3d 32 ff fd 3d dd 46 cf 3d
       -0.12767825 0.049998954 0.1240219 0.10120938
000350 16 9c f0 bd 00 43 c3 bd cb 28 13 bd 5d ef c8 3d
       -0.11748521 -0.095342636 -0.035927575 0.0981128
000360 a4 1e ac bd 8d 0c 1a 3c 6a ee 0e bd 01 fc 01 3d
       -0.08404282 0.009402406 -0.034895338 0.03173447
000370 67 83 aa bd 14 43 f1 bd 3e 81 bf bd 7f eb dc bd
       -0.08325844 -0.11780372 -0.09350823 -0.10787105
000380 c8 c4 b4 bd e0 41 d1 bd 44 04 7f bd 51 c7 88 bd
       -0.088265955 -0.10217643 -0.062259927 -0.066786416
000390 54 44 f0 3b 5e d6 00 3d 46 8a d3 3d 7f ef 05 be
       0.007332364 0.031454436 0.10329108 -0.13079642
0003a0 97 e1 d9 3a 23 c5 cb bc fd 5d d5 3b 52 25 b5 bd
       0.0016623017 -0.024874276 0.0065114484 -0.08845009
0003b0 dc 73 d4 3c da 40 96 3d 86 68 fd bd f6 62 5a bd
       0.025934152 0.07336588 -0.12373452 -0.053317033
0003c0 e2 cc 97 bc 6d 68 60 3d 54 03 05 3e 34 12 a5 bd
       -0.018530313 0.05478709 0.12989551 -0.080601126
0003d0 bb 7f a9 bd a8 69 97 bd 7d 27 20 3b dd f9 b5 3d
       -0.08276316 -0.07393199 0.00244376 0.08885548
0003e0 d7 b1 d9 3d 87 10 b1 bd 0a 15 d5 3c ec 0c 04 3d
       0.106296234 -0.086457305 0.026011009 0.032238886
0003f0 b0 4d d6 bc 0b b9 9b bd eb 50 d5 bd 67 b2 a8 3d
       -0.026160091 -0.076036535 -0.104158245 0.082371525

encoder.0.bias f4 [128]
000000 29 85 7f bc 7b 38 d3 3d e8 db 17 bd 40 0b c0 bd
       -0.015595713 0.10313507 -0.037074953 -0.09377146
000010 29 9d 3c 3d 18 0c d3 bd 78 97 8a bd 58 9a 15 3d
       0.046048317 -0.10305041 -0.067671716 0.036524147
000020 85 36 b1 3d 02 4b f3 bd 87 f3 84 3c 2b 7d e1 bc
       0.08652977 -0.11879541 0.016229404 -0.027525505
000030 9e 53 55 3d 1c 3b c5 bd 77 a8 a7 3d 3d e2 d0 bd
       0.052081697 -0.09630415 0.08186429 -0.101994015
000040 a5 2c d0 bd f5 a5 fd 3c 9a 67 a0 bd 88 f7 ab 3b
       -0.10164765 0.030962924 -0.078322604 0.005248014
000050 a6 e0 f8 bd c0 ff 6d bb c5 3d 2e 3d 85 5c a9 bd
       -0.12152223 -0.003631577 0.042539377 -0.082696
000060 cb 6b 86 bd 63 62 46 bc b0 b4 3f bc 03 41 a7 bd
       -0.065635286 -0.012108418 -0.011700794 -0.08166697
000070 14 6f b7 bc 78 47 8e bd 06 13 ae bc 31 15 10 bc
       -0.022391833 -0.06947225 -0.021249305 -0.008794115
000080 97 56 ee bc d5 7d 84 3d 76 62 8a 3d 46 56 aa 3d
       -0.029094024 0.06469313 0.06757061 0.083172366
000090 40 d8 01 3e d5 a9 ac bc 71 07 77 3d 94 e3 8f bd
       0.12680149 -0.021077076 0.06030983 -0.07025829
0000a0 b3 54 a3 3d 00 d5 95 3d fa 6e 3b bd 69 7a 45 3c
       0.079751395 0.07316017 -0.045760132 0.012053111
0000b0 fd e9 b6 3d e1 83 a3 bd 15 43 e2 bc 7b 9f 33 bd
       0.089313485 -0.07984138 -0.027619878 -0.043853264
0000c0 37 ff e9 bd 04 ac 8e bd 40 f1 7b ba 07 c1 ef ba
       -0.114256315 -0.06966403 -0.0009610839 -0.001829178
0000d0 f3 f5 bb 3d ad 74 e9 3d 71 a1 67 bb f3 98 cd 3c
       0.091777705 0.11399207 -0.003534403 0.025097346
0000e0 b6 15 09 bd 7a 49 56 bb d8 51 08 bd b3 67 e6 bd
       -0.03346797 -0.0032697604 -0.033281177 -0.11250248
0000f0 22 9c c0 bd 95 ce 02 be 4b 04 00 3c 28 ea 02 3e
       -0.0940478 -0.12774117 0.0078135235 0.12784636
000100 c2 31 62 3d f5 d9 f2 3b f4 66 d5 3d 0d 6f 2a bd
       0.055223234 0.0074112364 0.104200274 -0.041609813
000110 2c 4a c4 3d c7 a4 b4 3d 2f 4c 07 3d eb ae 47 bb
       0.0958446 0.08820491 0.03303164 -0.003046925
000120 a7 aa 58 3d 09 57 0d bb 3f 41 29 3c 45 93 0c 3d
       0.05289712 -0.002156677 0.010330497 0.034320135
000130 b2 b3 97 bd 98 b9 65 3d 68 32 f1 bc 99 b9 b2 bd
       -0.07407321 0.0560852 -0.02944298 -0.08726806
000140 a5 eb 9e 3d f4 13 d4 bd 22 07 67 3d db e4 41 3d
       0.077597894 -0.10355368 0.056403287 0.047337394
000150 39 91 7d bd 6a 07 9c 3c d2 ec be bd 95 1a f8 3c
       -0.061906073 0.019046504 -0.09322514 0.030286113
000160 e7 9d 53 3c 8c a5 cd bd 31 25 ef bc 18 3a 83 3d
       0.012916065 -0.10041341 -0.029192539 0.06407565
000170 0f 11 b6 bd f2 30 35 3c 26 03 7a 3d a4 3f dd 3d
       -0.088899724 0.011059033 0.06103816 0.10803154
000180 e7 aa 1e 3d b9 38 7d 3d fc 0e b0 bd 21 04 d8 3d
       0.038737204 0.061821673 -0.08596608 0.105476625
000190 e9 be 9f bd f0 f8 88 3d 41 19 59 bb d6 3f 12 3d
       -0.07800085 0.06688106 -0.0033126625 0.03570541
0001a0 02 d4 33 bd 3c 5f 04 bd 0a f6 8e bd 1f 72 9c 3d
       -0.04390336 -0.032317385 -0.06980522 0.07638954
0001b0 09 8c 8f bb 8d 0f d0 3d c7 73 b1 3d 63 52 00 3b
       -0.004380707 0.10159216 0.08664661 0.0019580356
0001c0 2d a1 0a 3d 92 24 c3 bd 17 48 da bd 08 64 bd 3d
       0.033845115 -0.095284596 -0.10658281 0.09247595
0001d0 8a 82 a4 bc d1 6f b3 bd fb 68 a2 bd 9b 8e 77 3d
       -0.020081777 -0.08761562 -0.0793018 0.060438734
0001e0 36 1c 83 3d 1a 8d da bc 1c cd dc 3d 6b 4f 57 3d
       0.06401865 -0.02667861 0.10781309 0.052565973
0001f0 dc f6 71 bd 99 be d6 bd 96 d2 e6 3d 0e ee be 3d
       -0.059073314 -0.10485572 0.11270635 0.09322749

encoder.2.weight f4 [128, 128]
000000 e3 04 13 bd 5d 70 e0 3d c3 c6 a4 bd 0b 8a cf 3c
       -0.035893332 0.109589316 -0.08045723 0.025334379
000010 af f0 3b 3d 9d 28 e4 3d 31 a2 b8 bd 92 eb 73 3d
       0.04588383 0.11140559 -0.090153106 0.05955083
000020 92 d2 3d bd 0f 2f 5c bd 0e 48 86 bc ae d9 06 3d
       -0.046343394 -0.053755816 -0.01639178 0.03292244
000030 df ca 72 3a 27 8d 8f bd 34 f5 2b 3b 86 8a 1f bd
       0.00092617975 -0.070093445 0.0026238682 -0.038950466
000040 e3 ac 54 3d 6b e2 1a 3c 92 8d 8e 3d d9 d3 eb 3c
       0.05192269 0.009453396 0.06960596 0.02878754
000050 00 7c 58 38 17 6c 42 bc 70 5b 09 3d c7 8b ba 3c
       5.1613897e-05 -0.011866591 0.033534467 0.02277173
000060 a0 bd 93 3d cc cd bb 3b 6d ba 41 bc 58 c8 98 3d
       0.072139025 0.00573132 -0.0118242325 0.074600875
000070 52 68 ad 3d 32 55 78 3d ff 79 93 3d 1e 9b 4e bd
       0.08467163 0.060628124 0.07201003 -0.0504409
000080 fd e5 1f 3c d4 d2 a8 bd d9 f4 f4 3c c3 55 7a 3d
       0.009759423 -0.08243337 0.029901909 0.061116945
000090 9f 9f 8a 3d 9f 26 f2 3d 12 4f 10 bd f2 93 f2 3c
       0.067687266 0.11823773 -0.035231657 0.029611561
0000a0 46 b1 cd 3a ba 4d c5 bc 4a 71 cd bc a3 0c 2f bd
       0.001569309 -0.024084914 -0.025078434 -0.04273666
0000b0 4d 37 d6 3c 64 a2 04 3e a9 ca 96 bd e5 9d c5 3c
       0.026149416 0.12952572 -0.07362873 0.024123142
0000c0 bc 22 6b 3d 75 15 e4 3d 48 98 42 3d aa 03 62 3b
       0.057406172 0.11136905 0.047508508 0.0034487047
0000d0 57 c6 60 3b 40 7f 96 3d 63 44 96 3d 98 d6 9a bc
       0.0034297907 0.0734849 0.073372625 -0.018901154
0000e0 24 d2 be bc e4 28 d2 3d 7c f0 a0 3d a0 fd 66 3c
       -0.023293562 0.102617055 0.07858369 0.014098555
0000f0 e4 20 a7 bd 82 8e 2f bc 7d 76 3e 3d 82 09 d8 3d
       -0.0816057 -0.010715129 0.046499718 0.105486885
000100 72 be a7 bc d5 c0 7b bd 32 e9 32 bd 2c 42 1f 3d
       -0.020476554 -0.061463196 -0.043679424 0.038881466
000110 2b 5a 18 bd 21 11 60 bd cd 38 1c 3c a4 24 83 3d
       -0.037195366 -0.054703835 0.009535027 0.06403473
000120 b6 5c 11 bd 49 c7 93 3d 6c 32 1a bd 9d 55 82 bd
       -0.035488807 0.07215745 -0.037645742 -0.06363986
000130 63 33 86 3d 3b 3c 5f bd ee f7 5a 3c b2 6f f7 bc
       0.0655277 -0.0545008 0.013364775 -0.030204628
000140 f7 55 1f bd 91 f7 bc bd b8 f0 46 3c 07 b0 0c bd
       -0.03890034 -0.09226907 0.012142353 -0.03434756
000150 eb cb 7d 3d 45 68 14 bd 21 09 c1 3c a0 5d 0c bd
       0.06196205 -0.03623225 0.023563923 -0.034268975
000160 c8 13 9c 3c 6d 7e 88 bc 57 c6 ca 3c 9e 8b 80 bd
       0.019052401 -0.016661847 0.024752779 -0.0627663
000170 13 c7 45 bd 7f 90 d4 bc 33 de b8 3d 8e ff 34 3c
       -0.048285555 -0.025947807 0.09026756 0.011047257
000180 e5 52 d4 3d 75 0f 4e 3d 18 da 58 3d f4 e0 2e bb
       0.103673734 0.05030771 0.052942365 -0.0026684375
000190 97 64 45 3c c2 ce 26 bd d1 9a 11 3b ec ed 21 3d
       0.012047908 -0.040724523 0.0022217522 0.03953354
0001a0 6d 6a 9c 3d 85 57 73 3d af de 99 bd 13 a2 64 bd
       0.076374866 0.059409637 -0.07513177 -0.05581863
0001b0 8e b4 d6 3d 0c 43 f1 bc 1d 30 91 bd 58 91 e2 3c
       0.10483657 -0.029450916 -0.07089255 0.027657196
0001c0 53 a3 b5 bc 18 24 00 bd 02 f4 a2 bd 58 97 46 bd
       -0.022172606 -0.03128442 -0.07956697 -0.048484176
0001d0 18 0f 34 bd c1 ca b4 3d c9 47 a9 bc 34 82 21 bd
       -0.043959707 0.08827735 -0.020664113 -0.039430812
0001e0 88 b6 b6 3c 46 1d a8 bb 07 52 98 3d b5 59 95 3d
       0.022303835 -0.005130443 0.074375205 0.07292501
0001f0 4d 9c ad 3c c7 06 da bb e3 b6 fe bb ab d2 af 3d
       0.021192694 -0.00665364 -0.0077732666 0.085851036
000200 83 40 a8 3c 6e 67 00 3d 65 80 fc 3a e3 9d 4b bd
       0.020538574 0.03134864 0.0019264339 -0.04971112
000210 f5 e4 40 bd f2 0e 99 bd 8f e5 45 bd ab 82 bc bd
       -0.04709335 -0.07473554 -0.048314627 -0.092046104
000220 bc e0 e6 3c ec ec c1 3d bf 42 7d bd 25 90 13 3d
       0.028183334 0.094690174 -0.061831232 0.03602614
000230 1d 5d e7 bc a1 d4 af bb 1e 58 29 bc 19 47 e0 bc
       -0.028242642 -0.0053659235 -0.01033595 -0.027377652
000240 60 ac 3d bd e8 cd 99 bd fd 66 37 3d 69 a5 10 3c
       -0.046306968 -0.075099766 0.04477595 0.008828499
000250 6b 4e 32 3d 91 54 32 bd 1f 18 2f bd 04 bf 35 3d
       0.043531816 -0.04353768 -0.042747613 0.04437162
000260 33 70 8d 3d 6b a1 cb 3c 7c f4 ad bd f8 9d ea bb
       0.06906166 0.024857244 -0.08493897 -0.0071599446
000270 71 10 41 3d ad 69 e6 3b 37 42 9f 3d d4 86 9d bd
       0.04713482 0.0070316405 0.07776301 -0.07691732
000280 32 45 99 3b 5e 7e ba 3c 5c 9c e7 3c da ba a3 bd
       0.004677438 0.022765335 0.0282728 -0.079946235
000290 ba 54 3c 3d b6 58 87 bd 83 07 01 bd d9 c4 60 3d
       0.04597924 -0.06608717 -0.031501304 0.05487523
0002a0 94 3d 76 b9 32 87 91 3d 63 8e 1f bc d9 b3 40 3c
       -0.00023483328 0.071058646 -0.0097385375 0.011761629
0002b0 44 f8 5d bd 11 fa 83 bd d8 bb ed bc 12 c0 74 bc
       -0.054191843 -0.06444181 -0.029020235 -0.014938371
0002c0 4d 04 08 bd bd a2 79 bb f3 e3 7e 3d 1c ae 2f 3d
       -0.033207227 -0.0038091384 0.062229108 0.042890653
0002d0 cc d8 ed 3c 1f 62 8a 3c 00 57 03 bd 58 7b 95 3a
       0.02903404 0.01689249 -0.03206539 0.0011404557
0002e0 03 30 f0 3c a9 f1 50 3c f7 8b 32 bd 17 fc 64 bd
       0.029319769 0.012752929 -0.043590512 -0.055904474
0002f0 e0 19 0e bc b2 4c 66 bd a0 dc 94 bd fe 86 da 3c
       -0.008673161 -0.056225486 -0.072686434 0.026675697
000300 bd c9 0b 3d 8d de 87 bc 97 48 82 3d c6 12 31 3d
       0.03412794 -0.016585613 0.06361502 0.043230794
000310 ba 30 5e bd 88 6c 62 bd 15 18 66 bd df 89 5b bd
       -0.054245688 -0.055279285 -0.05617531 -0.05359828
000320 65 66 96 bd 9d 65 93 bd b6 4f 64 bd be 4e ac bd
       -0.07343749 -0.071971156 -0.05574008 -0.084134564
000330 6e d5 02 3d 9f 63 95 3d 79 12 b8 3c 68 99 3a 3d
       0.031941824 0.07294392 0.022469746 0.045556456
000340 9d 27 a4 bd 9b 85 cd 3c 21 57 b0 3c a7 de 67 3b
       -0.08015368 0.025088122 0.021525921 0.0035380514
000350 b0 a6 0b 3d 47 c4 8a 3d 49 07 a4 3d 30 93 df 3c
       0.034094512 0.06775718 0.08009202 0.027291864
000360 92 0f a7 bc 63 2a 0a 3d 9f ad 7e 3d d5 9f 3f 3d
       -0.020393167 0.03373183 0.062177297 0.046783287
000370 cf 49 73 bc 67 07 49 bd 4b f0 1c bd 12 49 9a 3c
       -0.01484914 -0.049079325 -0.0383151 0.01883367
000380 a5 4a 5e 3d 01 6a 3e bd 78 66 2a 3d fa 6a a3 3d
       0.054270405 -0.046487812 0.041601628 0.079793885
000390 27 47 89 bd 76 89 42 3d cb a1 8d bd ab 3e 9e bc
       -0.06703024 0.047494374 -0.06915625 -0.019316992
0003a0 0e ce bd bd 4b b3 ac bd e4 f6 9b 3d af b0 86 3d
       -0.092678174 -0.08432635 0.0761545 0.065766685
0003b0 40 83 87 bd 55 23 79 3d 65 3b 8c bc 69 39 16 3d
       -0.06616831 0.06082471 -0.017118165 0.036675844
0003c0 ed cf a2 3c 30 cc 8d bd 79 cc 98 bd 20 a1 4d 3d
       0.019874537 -0.06923711 -0.07460875 0.05020249
0003d0 99 e3 f6 3c b8 c2 8b 3c 95 bd 69 bd 3d db a8 bc
       0.030137824 0.017060623 -0.057065565 -0.020612353
0003e0 fa 63 65 3d 20 f4 22 bd 2e dc 46 3d e0 49 3d 3c
       0.05600355 -0.039783597 0.048549823 0.011553258
0003f0 fd b9 9b 3d 30 dd 53 3d 0a 2d 6d bd a3 2e 09 3d
       0.07603834 0.051724613 -0.05790428 0.033491742

encoder.2.bias f4 [128]
000000 9e 56 2d 3d f0 f2 f2 3c 17 a4 95 bd 4d 83 ad bc
       0.042318933 0.029656857 -0.07306688 -0.021180773
000010 6d f4 8a 3b d6 bc 4c bc 24 26 65 3d 5d fc 0a bc
       0.0042405636 -0.012496194 0.055944577 -0.00848302
000020 1c 4f 93 bd 6c 56 dd 3d 1e 92 9d 3d d1 8b 53 bd
       -0.07192823 0.10807499 0.07693885 -0.05164701
000030 dd 8c 56 bc a7 f6 37 3d d6 db 92 bd f1 b9 85 bd
       -0.013095108 0.04491296 -0.07170837 -0.06529606
000040 a4 92 9f 3d ae 3b 71 3b 73 e7 36 bc bc 9c 88 3d
       0.07791641 0.0036809254 -0.01116358 0.0667052
000050 2f dc 54 ba 53 85 00 bd 36 29 5f 3d e2 55 86 bd
       -0.0008119968 -0.031377148 0.05448266 -0.065593496
000060 ca 2b 52 3c 37 11 b8 bd 43 a5 8b 3d 74 0b 8d 3c
       0.012827823 -0.089876585 0.068186305 0.017217375
000070 c5 b6 97 bd 80 39 cd 3b d0 68 7d 3d 37 95 1f bd
       -0.074079074 0.006262958 0.061867535 -0.03896066
000080 95 ad 4f 3d 1e b9 a6 bc d7 13 85 bd 6c 5b 49 3c
       0.05070265 -0.020351943 -0.06497925 0.012289863
000090 3e 93 4a bd 21 f7 12 3d 3c 38 98 3d 66 29 90 3d
       -0.049456827 0.03588021 0.07432601 0.07039146
0000a0 14 89 48 bd a7 b2 af bc da 96 be 3d 6f bc cc 3c
       -0.048958853 -0.021447493 0.093061164 0.024992196
0000b0 bd a2 6d 3d 78 88 1d 3c 55 96 c2 3d 5f 63 a5 bb
       0.058016527 0.009615056 0.0950133 -0.0050472463
0000c0 5e 2f 61 bd 18 fa a8 bd 95 fa 8d bb 30 33 8a bd
       -0.054976813 -0.082508266 -0.00433285 -0.067480445
0000d0 50 74 45 bd 22 78 34 bc c2 a4 41 3c 6f 06 52 bd
       -0.048206627 -0.01101497 0.0118190665 -0.051275667
0000e0 30 1a 87 bd 21 a6 11 ba 1b 9c a1 bd ab d4 98 bd
       -0.06596792 -0.0005556066 -0.07891103 -0.07462438
0000f0 45 6b b4 bd b3 1c 2e 3c c5 7c 97 bc d5 b5 16 bd
       -0.088095225 0.01062696 -0.018492112 -0.036794502
000100 27 df 49 3d 1a 73 36 bd c7 58 18 bd 0d 87 5f bd
       0.04928508 -0.044543363 -0.03719404 -0.054572154
000110 ef 63 c1 bc 4d b4 31 bd aa 35 2b 3c 85 0f 9b bd
       -0.023607222 -0.04338484 0.010449806 -0.075713195
000120 41 ad c0 3d 07 de a6 bd 09 9c 67 bd 2d 23 a6 bd
       0.094080456 -0.08147817 -0.05654529 -0.08112178
000130 19 ea b0 bc 8b be 6b bd 83 9c a0 3d 85 db ab 3d
       -0.021596001 -0.057554763 0.07842352 0.083914794
000140 81 63 5c 3d 5e 5a 09 3d 98 48 81 3b 87 d0 22 bd
       0.05380583 0.033533446 0.0039454214 -0.03974965
000150 09 d3 80 bd db 04 2c bd 8e 57 22 bd 21 69 e1 3c
       -0.06290252 -0.041996818 -0.03963428 0.02751595
000160 a6 0c 25 bc 5f bf 15 3a b4 6c 78 3d d6 43 05 bd
       -0.010073816 0.00057124154 0.060650542 -0.032535397
000170 d6 5a f6 3d e1 38 f7 bc d3 d9 ec 3c 27 f0 26 bd
       0.12029044 -0.03017849 0.02891246 -0.04075637
000180 50 9d 5a 3b a3 8b b2 3d 59 e6 f6 3c 02 be 0d bc
       0.0033357926 0.0871804 0.030139135 -0.008651258
000190 80 e2 2e bd 34 36 ee bc d4 a4 1b 3d e8 da 9b bc
       -0.042696476 -0.02907858 0.03799899 -0.019025281
0001a0 4f e8 2f 3d d7 6e 46 3d bd 2d 4d bd 41 05 c8 bc
       0.042946156 0.04844555 -0.050092448 -0.024416568
0001b0 9a 56 b4 bc d8 ed 8a bd 5c 64 ed 3b ec 32 19 bd
       -0.022013951 -0.06783646 0.00724463 -0.03740208
0001c0 74 89 67 bd 0f 95 8d 3d 2c 2e db 3b ba e3 3c 3d
       -0.05652757 0.06913196 0.0066888537 0.046115614
0001d0 f2 83 e2 3c 79 91 bb 3d 8e e1 95 bd af 7b 27 bd
       0.027650807 0.09158606 -0.07318412 -0.04088944
0001e0 29 f9 aa bc 4c 73 72 3c a7 18 bf bc d2 89 2f bd
       -0.020870762 0.014797997 -0.023327185 -0.042856045
0001f0 f6 24 1a bd f3 77 73 bb 60 b7 5e bb 52 99 a1 bd
       -0.037632905 -0.0037150353 -0.0033983812 -0.07890572

encoder.4.weight f4 [128, 128]
000000 a5 c6 f7 3d 32 ec d6 bc cf 61 30 3d fb b2 81 3c
       0.12098435 -0.026235674 0.043062028 0.015832415
000010 03 ae b3 bb fd c4 aa 3d dc 03 8f bd 34 05 65 3d
       -0.0054833903 0.08338354 -0.06983158 0.055913165
000020 29 91 d6 bc 9c ab 81 3d 42 e9 d1 3b 90 6d 26 3d
       -0.026192265 0.0633156 0.0064059803 0.04063183
000030 a6 61 63 bc 55 55 51 3c ad bc 04 bb 1e b1 f8 bc
       -0.013878262 0.012776692 -0.002025406 -0.030357894
000040 99 8a 47 3d 1a 16 6b 3d 49 ab db bc a5 e6 a4 bd
       0.04871616 0.057394125 -0.026815074 -0.080518045
000050 06 56 3d bd 3e be 11 3c 24 69 27 3d 76 58 93 bd
       -0.046224616 0.008895455 0.040871754 -0.07194607
000060 59 49 d2 3c b7 12 b0 bd b6 6b 84 bd e6 1a 6d bd
       0.02566974 -0.085973196 -0.06465857 -0.05788698
000070 34 5b b8 3c e0 cc f7 bd 9a fa 8c 3d cf 71 f2 3c
       0.022504427 -0.12099624 0.06883736 0.029595284
000080 33 84 15 bd 4b 83 de bd c7 43 87 bc b8 bc e5 bc
       -0.036503028 -0.10864886 -0.016511811 -0.02804409
000090 8c 8e 07 bd a6 d7 78 3a 61 d2 ae bc 6e 30 7e bc
       -0.033094928 0.00094925833 -0.02134055 -0.015514476
0000a0 8d 72 67 bc c2 55 32 3d d6 42 7d bd 59 b9 70 3d
       -0.014126432 0.043538816 -0.061831318 0.05877051
0000b0 ed a5 82 3c bb 85 3d 3b 03 0b 1f bd 32 44 cc bd
       0.01594826 0.002891882 -0.03882886 -0.09973945
0000c0 23 06 77 bd 41 1e cd 3c 9b ff 66 3c 34 cc d5 bd
       -0.060308587 0.02503884 0.014099027 -0.10439339
0000d0 e7 a7 a6 bd 77 38 66 3d b8 e3 d8 bd b0 08 d0 bb
       -0.081374936 0.056206193 -0.10590309 -0.006348692
0000e0 66 21 b4 bd ac 0a 65 3d de 62 4f bb c6 c1 d1 bd
       -0.08795433 0.05591838 -0.0031644623 -0.102420375
0000f0 d2 0c 91 bd 16 41 ee bc 4c d1 21 bd 22 cf af bc
       -0.070825234 -0.02908377 -0.03950624 -0.021461073
000100 c1 55 56 3d dc 58 0c 3d c0 e7 4f 3d 45 c3 ae bd
       0.052327875 0.03426443 0.050758123 -0.085333385
000110 2d 65 0d 3d c2 97 8a bd d4 7f 37 3d 91 a8 59 3d
       0.034520317 -0.06767227 0.04479964 0.053139273
000120 5d 48 32 bd 4f 58 5d 3d 35 85 13 3c 03 bd df bd
       -0.043526042 0.054039296 0.009003927 -0.10924723
000130 d9 ea 18 3c cd d6 db bd 93 df 9f 3d 28 18 68 bc
       0.009333336 -0.107343294 0.07806315 -0.014165916
000140 77 7b 1e 3d 9d 7a 2d 3b bf 6b aa bd 86 a8 22 3d
       0.038691964 0.0026470788 -0.08321332 0.039711498
000150 77 67 0a 3d 40 12 12 3e a0 e3 06 bd 15 a3 ec bc
       0.033790078 0.14264774 -0.032931924 -0.028886357
000160 8e af 62 3c af 04 9c 3d e5 0c 9e bd 79 41 55 3d
       0.013835801 0.07618081 -0.07717303 0.052064393
000170 da 0c 85 3d 03 08 b7 3d b8 29 8c bd 51 90 e3 bd
       0.06496592 0.08937075 -0.06843895 -0.111115105
000180 16 a5 56 3d d4 7e 14 3d dc a1 36 bd 90 eb c7 bd
       0.052403532 0.036253765 -0.044587955 -0.09761727
000190 ea c8 b3 bd 7d f5 77 bd 24 fb bc bb 00 90 62 bc
       -0.08778556 -0.06053685 -0.005767243 -0.013828278
0001a0 e6 ab 98 bc 8f f4 88 3d f8 d6 69 bd 30 75 82 bd
       -0.018636655 0.06687271 -0.057089776 -0.06370008
0001b0 30 b4 ad bd 64 df cd bd 7b e0 0b bc 2c aa 22 3d
       -0.08481634 -0.10052374 -0.008537407 0.03971307
0001c0 8d 9d 47 bd 9f c2 3c bc af bc 3f 3d 01 60 2b 3d
       -0.048734237 -0.011521011 0.046810802 0.041839603
0001d0 03 86 3e bd b5 6c a0 3c 0b db 84 bd 27 b7 99 bd
       -0.046514522 0.019583086 -0.06487092 -0.07505637
0001e0 7d f9 9b bd f5 2a 3a 3d 2b a4 b4 bd 3a a4 aa 3c
       -0.076159455 0.045451123 -0.08820375 0.020830262
0001f0 65 12 e4 3b b4 62 36 bd 0d 5f 39 3d df b1 d9 bd
       0.0069602006 -0.044527724 0.045256663 -0.10629629
000200 c5 b7 e2 b9 bf ef 4f 3d 1c 5e 84 3d e7 be 9d bd
       -0.00043242998 0.05076575 0.064632624 -0.07702427
000210 9e e5 96 3c aa b6 8e 3d f1 0b 23 3d 58 7d 0c 3d
       0.018420037 0.06968434 0.03980631 0.034299225
000220 f7 3b de bd 13 2b 8c bd d3 e0 c8 bd b1 6c 01 3c
       -0.10851281 -0.06844153 -0.09808507 0.007899449
000230 92 f5 bc bd 52 28 9e 3d cc 25 8d 3d 69 81 5e 3d
       -0.09226526 0.07722534 0.06891975 0.054322634
000240 80 cd 51 3d e6 16 d1 bd 19 d6 f2 bd 50 fc cd bd
       0.05122137 -0.10209446 -0.11857242 -0.100578904
000250 f0 a7 51 bd ae 4b aa 3d 3a 22 5b bc c9 b0 dc bd
       -0.05118555 0.08315216 -0.0133748595 -0.107759066
000260 a8 77 32 3d c2 7b 89 3c 9a f3 97 bd 0b 8a 84 3d
       0.043571144 0.016782645 -0.0741951 0.06471642
000270 cf d9 98 bd f2 55 18 bd 5f cd 54 3d 6c ee 4b 3d
       -0.07463419 -0.03719134 0.05195367 0.049787924
000280 91 e5 c3 3d 53 79 cd bc a8 e3 69 3c a0 f4 40 3d
       0.09565271 -0.025082266 0.014275469 0.047108293
000290 94 b6 45 bc 76 a5 41 3d be e6 f3 bb 4a 98 4a 3d
       -0.012067456 0.047276936 -0.007443278 0.04946164
0002a0 9d 37 b2 bc 8d 57 cc bb f3 35 67 bd 7b 1f 5d 3d
       -0.021755034 -0.006236023 -0.056447934 0.0539851
0002b0 3c 02 c3 3b c3 9c 59 bd ac f4 66 bd ca 3a dc bc
       0.005951194 -0.053128015 -0.05638568 -0.026883502
0002c0 5b ee 1a 3d 0b 13 69 bd af 0d ed 3c c1 3b fd bd
       0.03782497 -0.056902926 0.028937189 -0.12364913
0002d0 f4 55 ae bc 83 1f e2 bc 7d 47 84 bc 36 77 b6 bd
       -0.02128122 -0.027602917 -0.01614737 -0.089094564
0002e0 f3 f8 c2 bd 84 4f f3 bc 74 87 41 3d 72 b1 b2 bd
       -0.095201395 -0.029701002 0.04724832 -0.08725251
0002f0 c9 61 e8 3c c9 1d 47 bc f4 d5 c2 bd 13 b7 a2 bd
       0.02836694 -0.012153097 -0.095134646 -0.07945075
000300 35 68 1e 3d e1 fb 78 b8 0d 90 73 bd bb 8d 76 bc
       0.0386736 -5.9362388e-05 -0.05946355 -0.01504844
000310 f0 db 0f 3d 30 63 c8 bd 48 87 fd bd 8f 2d f4 bd
       0.035121858 -0.097845435 -0.123793185 -0.11922752
000320 c0 c4 c2 3c e6 f1 ad bc 54 8e 1b 3d a9 97 ae bd
       0.023775458 -0.02123351 0.03797753 -0.08525021
000330 2b 6f 57 3d e8 18 82 bb de 00 6b 3d 1f a4 00 3c
       0.052596252 -0.003970254 0.057373874 0.0078516295
000340 1c ac f6 bc 7a 0b 7b 3d 26 ca b6 bd 83 74 9a bd
       -0.030111365 0.06129024 -0.089252755 -0.07541754
000350 83 63 fb bc 5d 55 d1 3d cb bf 00 3d cd b3 10 bc
       -0.0306871 0.1022136 0.031432908 -0.00883193
000360 db 28 8f bd 00 79 10 3d 9c 3b b8 bd 98 1a 56 bc
       -0.069902144 0.035271645 -0.089957446 -0.013067864
000370 47 71 11 bd f5 5f 80 3d 98 e5 9c 3d aa cd cc 3b
       -0.03550842 0.06268302 0.07660979 0.006250103
000380 52 44 59 bd aa 18 97 bd 8f 10 33 bd 1a 0a 6a bd
       -0.05304367 -0.07377751 -0.043716963 -0.05713854
000390 1d 6a e7 bd dc 3e 58 3d 00 c3 a2 3c 97 c9 43 3d
       -0.112995364 0.052794322 0.019868374 0.047799673
0003a0 97 26 6f 3d 6f ea a5 bd 4c 25 56 3d 34 eb d6 bc
       0.05838641 -0.08101355 0.052281663 -0.0262352
0003b0 aa 29 f9 3b af e0 a4 3c bd 82 b0 bd 98 99 b9 3c
       0.0076038437 0.020126669 -0.08618686 0.022656247
0003c0 91 13 04 3d a1 ac 72 bb 37 81 3e 3d 8f 38 ca 3c
       0.032245222 -0.0037029164 0.046509948 0.024685172
0003d0 e1 8b c9 bc ee e7 58 3d 86 bd ab bd 2f ed ec 3c
       -0.024602832 0.05295556 -0.08385758 0.028921692
0003e0 a7 9c 87 bd 91 cf 89 3c c9 ae e1 bb a2 71 6d bd
       -0.06621676 0.016822608 -0.006887291 -0.057969697
0003f0 ae 89 06 bb 6c 46 aa 3c 21 87 ce bd 23 fd cf bd
       -0.002052884 0.020785533 -0.100843675 -0.10155704

encoder.4.bias f4 [128]
000000 9a c6 35 3d 40 53 fa 3c 9c 8f 6b bb 64 e2 55 bd
       0.044378854 0.030557275 -0.0035943752 -0.052217856
000010 cc dd 54 3d 6c 3c 40 3d 03 a6 36 3d af 62 44 bd
       0.051969334 0.046932623 0.044591915 -0.047945675
000020 a5 d8 5f 3d a2 c0 c6 bd 88 e6 91 bd a6 9f 69 3d
       0.054649968 -0.097047105 -0.071240485 0.05703702
000030 d0 8d 9a 3a ed 3b 3c 3d 5d 8e c7 bd 7d 34 97 bd
       0.0011791531 0.045955587 -0.097439505 -0.07383058
000040 6d 2f b0 3b 02 fe 4e 3d 6b 1d ba 3d 79 a8 98 bc
       0.0053767473 0.05053521 0.09087642 -0.018635022
000050 6e 44 0e 3d 84 66 86 3d 2b 9d b5 bd 3a 49 99 3d
       0.03473323 0.06562522 -0.08867868 0.0748467
000060 57 51 64 3c 79 1e 48 bd a5 68 b5 bd 92 5c 60 3c
       0.013935409 -0.048857186 -0.0885785 0.0136939455
000070 2a 54 c3 bb 5a b2 8f 3d 9a ce 14 3c 66 35 18 bd
       -0.005960961 0.0701644 0.009082461 -0.0371603
000080 3a 07 c5 3b 00 85 8d bb b8 99 94 bc 2e b2 95 bd
       0.0060128244 -0.0043188334 -0.018139705 -0.07309376
000090 95 c4 a3 bd a0 28 c8 bd d8 4d a6 bd 28 02 17 3d
       -0.079964794 -0.097733736 -0.08120316 0.03686729
0000a0 2a 8e b2 3d a3 ec 8e 3d 08 88 0a bd 6f af 6b bc
       0.08718522 0.069787286 -0.033821136 -0.014385088
0000b0 d5 d2 a2 3d 2f fb 64 bd 0e 73 27 bd 99 1b 80 3d
       0.07950369 -0.05590361 -0.04088121 0.06255264
0000c0 f2 99 65 bd d9 6d 49 bc 15 c4 8f 3d 7b f1 9d 3d
       -0.056055017 -0.012294256 0.070198216 0.07712074
0000d0 21 d3 56 3d 9d 70 0e 3c 2b c2 b5 bc 26 2b bf 3d
       0.052447442 0.008693841 -0.022187313 0.09334402
0000e0 82 1e 3a bd 2a 4f e8 bc 7e b3 99 bd f8 16 a2 bd
       -0.04543925 -0.02835806 -0.075049385 -0.07914537
0000f0 75 d9 3e 3d 90 6f 93 bd cc 5d a1 3d 94 31 ae bd
       0.046594102 -0.07199013 0.078792185 -0.0850555
000100 3f 58 90 bd ab 66 2d bd 07 25 63 bd 4d d0 bb 3d
       -0.070480816 -0.04233424 -0.055455234 0.091705896
000110 76 85 58 3b 9e 67 01 bd 87 b9 a6 bd 92 73 4c 3c
       0.0033038533 -0.031592958 -0.08140855 0.012478726
000120 c7 6a 57 bd e6 5d c1 3c c3 b9 b9 bd 0d 43 bf bd
       -0.052592065 0.023604345 -0.09068634 -0.09338961
000130 1b 3e 7a bd ed 66 05 bd fb 32 1e bd 3b ee 61 3d
       -0.061094385 -0.03256886 -0.038622838 0.055158835
000140 2b dc 69 bd 5b 60 16 3d 70 c8 91 3c fc c7 fd bc
       -0.057094734 0.036712985 0.017795771 -0.030979149
000150 d7 c9 c2 3d bc 98 de 3c 69 db 1b bc 91 db bd 3c
       0.09511154 0.027172439 -0.009512761 0.023175986
000160 dd 64 84 3d d8 fb 1b 3d 33 2f af 3b 1e 6a d6 bb
       0.06464551 0.038081974 0.0053462028 -0.006543412
000170 41 bc 1f bd 05 01 33 bd 50 ea 36 3d 1f ee bc 3d
       -0.038997892 -0.043702144 0.04465705 0.092251055
000180 84 1e 3a bd c8 43 13 bd db a6 38 3d 17 23 8e 3d
       -0.04543926 -0.035953313 0.045081 0.069402866
000190 50 27 3f bd cc 60 9c bd d8 b6 9c 3d 74 f7 5e bd
       -0.04666835 -0.0763565 0.07652062 -0.05443521
0001a0 05 38 7a bd f6 50 3f 3d a5 8d 8f 3c 12 f0 ff bc
       -0.06108858 0.04670807 0.017523596 -0.031242404
0001b0 b5 51 d8 bd 26 c0 91 3d e8 12 89 bd ea 5d 31 3d
       -0.105624594 0.071167275 -0.06693059 0.043302454
0001c0 5a bd a2 3d 9e 9c ef bc 28 f6 88 bd a8 7f 23 3c
       0.07946272 -0.029249486 -0.066875756 0.009979166
0001d0 cd 2a 98 3d 5f 5a bb 3c 6e 51 b2 3d a8 40 32 bd
       0.074300386 0.02287024 0.08706938 -0.043518692
0001e0 aa 25 b3 3b d6 95 ab bc 7c 2f 29 3c 4b 22 cf 3d
       0.0054671364 -0.02094547 0.010326263 0.10113963
0001f0 63 93 bc bc 2f 5e 91 bd 90 8c 93 3b fe b8 ed 3c
       -0.023019498 -0.07098042 0.0045028403 0.029018875

decoder.0.weight f4 [128, 128]
000000 e8 54 31 bd 17 3b ef bc d7 9c 8d bd 17 8d 53 3d
       -0.043293864 -0.02920298 -0.069146805 0.051648226
000010 2e 13 89 bd 5d dc 40 bd a1 b9 bb 3d ff 78 5c 3d
       -0.06693111 -0.047085155 0.09166265 0.05382633
000020 26 98 ac bc de f5 0f bd 39 f4 3e 3d e5 d1 33 3d
       -0.021068644 -0.035146587 0.046619628 0.043901343
000030 f7 7f 60 bd 62 de 05 3e df 46 3f bd 9e 08 00 bd
       -0.054809537 0.13073114 -0.046698447 -0.031258218
000040 9e e8 85 bc 28 a9 47 3d 15 7c a8 3d 65 5c 7f 3d
       -0.016346272 0.048745304 0.08226792 0.062343974
000050 6b 4c b9 bd 07 9d ee b9 1b 5d 2c 3c 44 2d 31 bd
       -0.09047779 -0.00045511892 0.010520245 -0.04325606
000060 d4 ca 4a ba 5c ea 9b bd 95 3e b0 bd 8c 8f 6b 3d
       -0.0007735912 -0.0761306 -0.086056866 0.057509944
000070 72 b6 d5 3c 00 4d bf bc 5b 27 e7 bc 99 09 e3 bc
       0.026087973 -0.023352146 -0.028217008 -0.027714537
000080 94 54 a6 3c 23 3d 53 bc 8b fd 2b 3d ac 44 d3 bc
       0.020304002 -0.012892994 0.041989844 -0.025789581
000090 d4 aa 74 3d bb ab 93 bd 86 96 83 bd 04 84 35 3d
       0.059733227 -0.07210489 -0.064251944 0.044315353
0000a0 c5 0e be 3c 69 ee e0 3c d6 b3 0b 3c 5f f7 c3 3d
       0.023200402 0.027457433 0.008526763 0.09568667
0000b0 31 93 6f 3d 5c f2 ba bd f9 7a c1 bc 2b 6e 62 bd
       0.058489982 -0.09128258 -0.023618208 -0.055280846
0000c0 05 be 8d bd db 28 a9 3d 9a 67 54 bd b7 61 e7 3d
       -0.06921009 0.08259746 -0.051856615 0.112979345
0000d0 34 63 b9 bd 1e cd 03 3c 65 8f b8 3d 4a e7 08 3e
       -0.090521246 0.008044509 0.09011725 0.1336948
0000e0 5a 5b 1a 3c 10 8e a0 3d b7 a1 e3 3c 24 0a ae bd
       0.009421194 0.07839596 0.027787073 -0.08498028
0000f0 55 f8 93 3d ab 0f ae 3c 8a f9 72 3c 6c 90 f2 bd
       0.072251 0.021247705 0.014830003 -0.118439525
000100 6c e6 cf bc f4 99 1d 3d e9 93 bc 3d 59 72 93 3d
       -0.025378428 0.0384769 0.09207899 0.071995445
000110 9a 22 86 bc 91 f7 88 bd f4 26 30 3d 85 6f 98 3c
       -0.016373921 -0.066878445 0.0430059 0.018607864
000120 7a df 3a bd 8c 06 90 3d 3d 80 ef bd f9 71 1a be
       -0.04562328 0.07032499 -0.116943814 -0.1508254
000130 07 f7 cb bc 4c 91 83 bd 2a 40 50 3d 37 75 1f 3c
       -0.024898065 -0.064241976 0.05084244 0.009732536
000140 69 ef ac bd b0 f2 30 bd 94 96 11 bd 8a 12 ce bd
       -0.08444101 -0.043200195 -0.035543993 -0.1006213
000150 e2 2a cb bc fc 8c 84 3d 08 b4 78 bd a5 38 d4 3d
       -0.024800722 0.06472203 -0.060718566 0.103623666
000160 57 2a b8 3d 03 11 25 3c 3a 06 2b 3d aa 84 d2 bd
       0.08992451 0.010074857 0.041753985 -0.1027921
000170 93 73 03 be 30 40 e5 bd 7b d1 35 bc 78 a0 1b bd
       -0.12837057 -0.111938834 -0.011097307 -0.03799483
000180 b9 da bd 3d ed 0b 80 bd e3 84 03 3c 16 ff 7a bd
       0.09270234 -0.06252275 0.008027288 -0.061278425
000190 29 b8 8a bd 3f ba a5 bd 3b ee 30 3d 43 e4 13 bc
       -0.06773407 -0.08092164 0.043195944 -0.00902659
0001a0 21 9d f4 3c 42 69 fc 3d e6 97 e8 3d 9b 05 11 be
       0.029860081 0.12324764 0.11357097 -0.14162295
0001b0 81 f8 20 3c 0a 84 3e bd 02 6c 40 bd 29 e2 47 3d
       0.009824873 -0.04651264 -0.046978004 0.048799668
0001c0 a0 9c a4 3d b0 d3 0b 3d fe 92 02 be fd ab 3c bd
       0.08037686 0.034137428 -0.12751386 -0.04606246
0001d0 ba ab 6d ba ad 64 55 3d 2c 60 23 bd 23 a5 3f bc
       -0.0009066422 0.052097965 -0.03988664 -0.0116970865
0001e0 84 aa 1f bd 9d 13 d0 bd ed 33 86 3d 1a 9d 98 bc
       -0.038980976 -0.10159991 0.06552873 -0.0186296
0001f0 0e 53 80 3d f0 73 70 bd 1d b9 b4 bb 4a e0 b0 bb
       0.062658414 -0.058704317 -0.0055152313 -0.005397831
000200 57 c2 85 bd 38 42 f6 3c 58 eb b7 bd d5 d9 86 bd
       -0.06531208 0.030060872 -0.08980435 -0.06584517
000210 d0 0f 02 3d 46 f4 8f bd 7f ff 1d bc 63 9e 43 bd
       0.03175336 -0.07029013 -0.009643435 -0.04775847
000220 7d 3a f9 3c 9a f5 84 bd 33 f3 48 bd c9 45 82 bd
       0.030423397 -0.06492157 -0.049060058 -0.06360967
000230 a8 8f 9e bd 8b 0d 0b be a9 19 aa 3d 30 04 14 bc
       -0.07742244 -0.13579385 0.083056755 -0.0090342015
000240 ad a7 88 bd 53 52 8a bd 10 c3 35 3d 47 58 95 3d
       -0.066726066 -0.06753983 0.04437548 0.07292228
000250 ad 1d 97 3d f0 4c 61 3b 20 8c 96 3d 59 a8 ab 3d
       0.07378707 0.0034378134 0.073509455 0.08381719
000260 a8 f3 52 3d 4b d9 4d 3c 10 15 a1 bc 06 f5 2a bd
       0.0515019 0.012564014 -0.019663364 -0.04173758
000270 7e bc 88 bb 0c 23 b0 bc 54 48 96 bd 87 a1 92 bd
       -0.0041728606 -0.021501087 -0.07338014 -0.07159715
000280 87 cb 06 3e dc 84 05 3d 5d 35 90 3d 37 1a a4 3d
       0.13163577 0.032597408 0.07041428 0.080128126
000290 1b 59 8b 3d e0 37 4f 3d 34 bf 69 bd a6 4f bc 3d
       0.06804105 0.050590396 -0.05706711 0.09194879
0002a0 54 33 5c bb 23 62 bb 3d 8c 4b 85 3c 0e 22 59 bd
       -0.003359993 0.091495775 0.016271375 -0.053010993
0002b0 70 fa 09 bd 86 42 7a bc 37 e2 b3 bc 3b 85 fc bc
       -0.0336861 -0.0152746495 -0.021958454 -0.030825248
0002c0 30 88 a7 3c 82 b5 c5 bd 0d 61 92 bd 52 9f 19 3d
       0.020450681 -0.096537605 -0.07147417 0.037505455
0002d0 cd 1c 4d bc 1e 94 ac 3d e5 34 5a bd 4b 55 a5 39
       -0.012519074 0.084266886 -0.0532731 0.000315348
0002e0 a0 14 a9 bd cd 62 93 3b 9e 1f 5e bd 4c 88 65 bd
       -0.08255887 0.004497862 -0.05422937 -0.056038186
0002f0 59 0e 28 bc 04 f6 24 bd 56 28 3c 3d eb 55 8d 3c
       -0.010257327 -0.04027368 0.045936905 0.017252883
000300 9d 22 8c bd e6 b7 9e 3c 20 ed c2 bd b3 97 16 bd
       -0.068425395 0.019374799 -0.09517884 -0.036765765
000310 e4 b9 0b 3c 71 ac 8f bc c6 19 db bc eb 77 12 bc
       0.0085282065 -0.017538281 -0.026745688 -0.0089397235
000320 38 28 96 3d d0 b5 23 3d 6a 1b a1 3d 86 36 b8 bc
       0.0733189 0.03996831 0.07866557 -0.022486936
000330 12 52 89 3d 6a 7d 13 bd 11 94 40 3d f6 3b 27 3d
       0.06705107 -0.036008276 0.047016207 0.040828668
000340 22 a9 bc 3d 40 c9 ff bd d4 48 34 bd 36 09 85 bc
       0.09211947 -0.12489557 -0.044014767 -0.016239744
000350 a7 1b 99 3d 97 39 71 bc 1b a3 11 3c e1 4f d5 3c
       0.074759774 -0.014723203 0.008888985 0.026039066
000360 9f 71 02 bd 7d 1b 25 bd 76 b3 b4 bb 15 6e 78 3d
       -0.03184664 -0.040309418 -0.0055145575 0.060651857
000370 fd 3a d4 b9 f2 e1 9b bc 38 15 9d bd fc bd 4c 3d
       -0.0004047974 -0.019028638 -0.07670063 0.04998587
000380 7b d6 0a bd bb 25 b0 bc 81 a1 db ba 23 bf d9 ba
       -0.03389595 -0.021502366 -0.0016756506 -0.0016612749
000390 5f 2f c2 3d a3 97 fe bc 33 cf 78 bd 44 66 9e 3d
       0.094816916 -0.031078165 -0.060744476 0.07734349
0003a0 db 3b 83 bd b0 f0 9f bd e9 c4 e5 bd f2 88 be 3b
       -0.06407901 -0.07809579 -0.11219198 0.005814665
0003b0 95 e3 4b bb 71 92 d9 3c a0 99 ef b8 ec 4c 9d bd
       -0.0031110991 0.026559087 -0.00011425023 -0.07680687
0003c0 af 34 1b bd 1f 16 21 3d b8 74 68 bd e4 d2 c8 3d
       -0.03789204 0.039327737 -0.056751937 0.09805849
0003d0 d2 39 79 bd b4 26 59 bd 97 c6 52 3d 71 48 fb 3b
       -0.060846157 -0.053015426 0.05145892 0.007668548
0003e0 1d c2 8a 3d 3a 03 79 3d 94 d6 cd bd 87 ba bd 3b
       0.067753054 0.060794093 -0.10050693 0.005790058
0003f0 97 d3 61 3d c8 98 dc 3c ab 0d 37 bb 41 b7 03 3d
       0.05513343 0.02692832 -0.002793173 0.032157186

decoder.0.bias f4 [128]
000000 bc 45 41 3d 05 c2 af 3d ee 71 8a 3d 44 00 ac 3d
       0.047185645 0.08581928 0.067600116 0.08398488
000010 74 44 82 bd ec 73 4a bc c9 66 4c bd 8f f1 84 3d
       -0.06360713 -0.0123567395 -0.04990271 0.06491386
000020 fa 38 9e bd 90 96 94 3b 1c 82 a3 3d 44 5b 79 bd
       -0.07725711 0.00453455 0.07983801 -0.060878053
000030 01 9c b2 3d fd 23 c9 3c 22 d0 7d bc 0e 10 11 bd
       0.08721162 0.024553293 -0.015491517 -0.0354157
000040 2a 65 8f 3d 53 22 eb bb 35 74 15 bd ae 90 6a bd
       0.070017174 -0.0071757226 -0.036487777 -0.057266884
000050 73 87 aa bc cd 87 b4 bd d7 06 fb bc 9a a9 87 3d
       -0.02081654 -0.088149644 -0.03064291 0.06624146
000060 db a4 46 bd 7b 30 43 3d ab 2a 7c 3b 2c ec 99 3b
       -0.048497062 0.047653656 0.003847758 0.0046973433
000070 1c 34 00 3d d9 32 e1 3c 27 2d f7 3c 9c 6d 99 bd
       0.031299695 0.027490066 0.030172898 -0.074916095
000080 11 2e f3 bc 78 8b 07 bd 21 cd 60 bd a7 cb 13 3d
       -0.029685052 -0.033091992 -0.054883126 0.03608289
000090 55 f4 b0 3c ad 01 ea 3d d0 0f 9b bd 9d 33 f4 3c
       0.021600882 0.11426101 -0.07571375 0.029809767
0000a0 aa f1 96 bc 6a 1f 94 3d 15 54 f0 3c 02 04 f4 bc
       -0.018425781 0.07232554 0.029336968 -0.029787067
0000b0 d4 0f 7a bd 3c 19 e3 3c 27 5d 65 3c bb d9 89 3d
       -0.06105025 0.027721994 0.01399926 0.06730982
0000c0 3c 55 6d bd 26 4a 34 bd a2 c2 3c 3d a7 ae 27 bd
       -0.057942614 -0.044016026 0.046084054 -0.040938046
0000d0 22 40 7d bd 9e d1 24 3a c7 bb 32 3b 44 2a 71 bd
       -0.06182874 0.0006287339 0.0027272569 -0.0588782
0000e0 b0 03 ac bc dd 8c 54 3d af a2 bd bc 82 bd 4f 3d
       -0.020997852 0.05189215 -0.023148863 0.050717838
0000f0 4d 46 48 bd b9 36 5d 3d 03 68 02 bd 28 4b 98 3c
       -0.04889517 0.054007266 -0.031837475 0.018590525
000100 3e 74 a7 bd b2 dc 50 3d 9a 8f 90 bd 82 0a 84 3d
       -0.08176468 0.05099172 -0.0705864 0.06447317
000110 fd 4f 47 bd ef c4 0d 3d bd b9 2b bd 85 fc 1a 3d
       -0.048660267 0.03461164 -0.04192518 0.037838478
000120 cf 51 82 bb fc ec dd 3c 62 a9 e7 3c 54 bf 89 3d
       -0.0039770375 0.027090542 0.02827901 0.06725946
000130 16 fc 9e 3d f1 ce 23 bd 59 47 3c 3d 64 99 48 bd
       0.07762925 -0.039992277 0.04596648 -0.04897441
000140 21 34 97 3c 80 65 5a 3d 2d ff 29 bd cb d3 71 bd
       0.018457474 0.053319454 -0.04150312 -0.059039872
000150 dd c5 d5 3d c5 a9 70 3d 89 10 86 3d cd a6 aa 3d
       0.1043813 0.058755655 0.065461226 0.08332596
000160 98 92 ab 3c 4b f1 0b 3d 95 ba 18 bc 4e 62 83 3c
       0.020943925 0.03416566 -0.009321828 0.016038086
000170 d8 85 57 bc 4b 01 bb 3c 40 11 8f 3d dc 64 1e 3d
       -0.013154469 0.022827765 0.06985712 0.038670406
000180 dc 09 bd bb 0f 6e 63 3d ad cf f5 39 0e 77 a8 3d
       -0.0057689976 0.055524882 0.00046884772 0.08225833
000190 ce a3 61 bd db a3 9b bd cc f7 93 3d 14 29 29 3d
       -0.055087857 -0.07599612 0.07224998 0.04129894
0001a0 18 6e f8 3c c3 7e d0 3a cb 36 73 bd 8c 13 9a 3d
       0.030325934 0.0015906919 -0.059378427 0.075232595
0001b0 67 c0 5c bd 96 8a 80 3d 69 20 19 3d d9 2a 05 3d
       -0.053894427 0.06276433 0.037384424 0.032511566
0001c0 00 64 1e bd 0b 05 45 3d 63 2d 0b bd 49 ea 2d bd
       -0.038669586 0.048100512 -0.03397883 -0.04245976
0001d0 cc 21 6e bd 49 a7 14 bd e6 da 0d 3d 5c 50 ce bd
       -0.0581377 -0.036292348 0.034632586 -0.10073921
0001e0 ea 5c 9a 3c 87 7b 83 bd 64 ea b3 bc a6 01 bf 3d
       0.018843133 -0.06420045 -0.021962352 0.09326486
0001f0 9d a1 38 3d 60 73 1f bd 75 77 b0 3d f4 23 31 bd
       0.045076 -0.03892839 0.086165346 -0.04324718

decoder.2.weight f4 [1, 128]
000000 dd 19 c3 3d b3 e5 f7 bc 16 f9 e9 3d ec c2 48 3d
       0.095264174 -0.030260896 0.114244625 0.049014017
000010 a6 fb 78 3d 41 39 89 bd de 0a ac bd 7d 67 97 3d
       0.060786866 -0.067003734 -0.0840051 0.07392786
000020 58 33 ce 3d e7 36 84 bd f3 a7 e5 3d 6f 37 68 bd
       0.10068387 -0.06455784 0.112136744 -0.05669349
000030 0b 16 d8 bd 20 4b 73 bd ef b2 c0 bc 54 83 56 bd
       -0.10551079 -0.059397817 -0.023522822 -0.052371338
000040 0a 4a 70 3d 12 e1 bd 3d f9 32 ae 3d 98 f1 4a 3c
       0.05866436 0.092714444 0.08505816 0.012386702
000050 f5 6e b6 bd 93 f8 5c 3d c0 96 11 3d cd 4b b4 bd
       -0.08907882 0.053947996 0.035544157 -0.0880352
000060 80 02 2f 3d 77 04 93 3c 46 67 c7 3d 4d fd 8a 3d
       0.042726994 0.017946465 0.09736495 0.067865945
000070 c2 b7 a5 bd 12 71 12 3d f0 28 38 bd 10 e7 c1 bd
       -0.0809169 0.035752364 -0.044960916 -0.094679
000080 d1 d4 ad bc 4a d7 1f 3d 67 10 ac bd c4 37 95 bd
       -0.021219643 0.039023675 -0.08401566 -0.07286027
000090 8a d7 19 bd 4d f7 63 3d a7 2d 8c bd 3c bf c4 bd
       -0.03755907 0.055655766 -0.06844645 -0.096067876
0000a0 35 8f c0 bd 37 1b 88 3d 85 88 39 bd 40 9d 38 3d
       -0.094023146 0.06645816 -0.04529621 0.04507184
0000b0 ab 5d c4 bd 8f 1c ac bc d3 13 a1 bd ea fd 53 bd
       -0.09588178 -0.021009712 -0.07865109 -0.051755823
0000c0 a3 bd 44 bd b9 8e c4 bc 79 8c dc bc 60 aa 0b 3c
       -0.048032414 -0.023993837 -0.026922451 0.008524507
0000d0 6e 2a 85 bd 41 20 9c bd 05 66 fb 3d df 9b 8c 3d
       -0.065022334 -0.076233394 0.12275318 0.068656676
0000e0 28 b5 1d bc 54 87 04 bd db 3a a2 3d 31 e8 85 bd
       -0.009625711 -0.03235562 0.07921382 -0.065384276
0000f0 3b ec dd 3d 40 25 17 bd 70 9d 28 3d 45 92 b3 bd
       0.10836073 -0.03690076 0.04116577 -0.08768133
000100 dc 81 c9 bc f7 ad a3 3d ba da 8e 3d 53 ff 8e bd
       -0.024598055 0.079921655 0.069753125 -0.06982293
000110 8a a9 62 3d d4 d7 af 3d eb 16 ba bc 8e d5 8b bd
       0.055337466 0.08586088 -0.022716006 -0.06827842
000120 b5 47 3b bd f8 cd db 3d e7 e2 8c 3d f2 24 97 3d
       -0.045722682 0.10732645 0.06879216 0.07380094
000130 c9 b4 55 bd a0 0d d5 bd de a2 2c bd 23 22 4f 3d
       -0.052174363 -0.104029894 -0.04214751 0.050569665
000140 f9 01 c4 bd a7 f4 96 3d dd 51 af 3d 1b c6 c9 bd
       -0.09570689 0.073708825 0.08560536 -0.09852239
000150 18 74 9a 3d bd bc cd bd a4 06 cf 3c 39 ce bd bc
       0.075416744 -0.100457646 0.025271721 -0.023169624
000160 43 98 a2 3d 1e 17 c3 bd 6c d9 bb bd e1 80 d2 bc
       0.07939198 -0.09525894 -0.09172329 -0.02569622
000170 d2 48 0e 3d 83 d5 80 3d 18 6f 39 3d e8 2d b8 bd
       0.034737416 0.06290724 0.045271963 -0.08993131
000180 92 73 00 3e 08 ac 8e bd c5 a3 5e 3d d9 bd 76 3d
       0.12544087 -0.06966406 0.0543554 0.060239647
000190 51 b2 bc bd 3f e2 cd 3a e8 f2 97 bd 53 46 09 3e
       -0.09213699 0.0015707685 -0.074193776 0.13405733
0001a0 5e 22 ff 3d 69 cb bc 3d 55 2e b2 3d 0b 24 05 bc
       0.12457727 0.09218485 0.087002434 -0.008126269
0001b0 d9 84 53 bd 3e 3a ec 3d b7 8d 6d bd f6 70 15 3e
       -0.051640365 0.11534546 -0.057996478 0.14593872
0001c0 b0 ac e4 3c 64 cd a7 3d cd ae 83 bd 74 9c bc bd
       0.027914375 0.08193472 -0.06429825 -0.092095286
0001d0 87 88 b2 bd b9 b4 c9 bd f1 ff a4 3c 41 3b be 3d
       -0.08717447 -0.09848923 0.020141574 0.092886455
0001e0 49 14 b4 bc 79 99 b0 3d 09 6e 8b bd e8 9d 9b 3d
       -0.021982329 0.086230226 -0.06808097 0.075984776
0001f0 39 9d a8 3d fd 1c a6 3d 61 86 c7 3d ee 3c 14 bd
       0.08233113 0.08110998 0.097424276 -0.03619092
