set_transformer/regression_model/deepset.pth (torch, 235256 bytes, 9 tensors)

encoder.0.weight f4 [128, 64]
0.097039744 0.016566359 0.04439684 -0.02705458 0.04471707 0.13350849 -0.12960055 -0.10831853
0.049322803 -0.08235715 0.08703207 0.06016462 -0.081000835 -0.0981234 0.069193326 0.08033011
-0.08636606 0.008760465 0.08325108 0.003601648 -0.0850383 0.106951624 -0.05719637 0.1476648
0.06158041 0.070360824 0.028913843 0.051286876 0.0857939 -0.01836981 -0.1483447 0.10733293
-0.011509748 -0.021371339 0.019184267 -0.10175481 0.16865402 -0.0064527197 0.077016115 -0.08029586
0.026648253 -0.0827026 0.08394982 0.09258058 0.06331313 0.043950528 0.13079838 -0.011307902
0.034139384 0.11186635 0.0039337627 -0.009810822 -0.10195315 -0.12941338 0.0103942575 0.15557891
-0.0942065 -0.015489367 -0.05491989 -0.10554417 -0.00291337 -0.048348386 0.06964792 0.05208605
0.071472995 -0.11992031 0.06071892 -0.024593024 0.106481045 -0.07471154 -0.041622166 -0.11685191
0.037142377 -0.13591896 -0.055068996 -0.074325055 -0.063096985 0.14972275 0.061868183 -0.12768403
-0.13277426 -0.006260132 0.011613296 0.10705876 0.07893938 0.09967584 0.022433043 0.033072866
0.014714893 0.09637399 -0.13079779 0.11526291 0.0502747 -0.012266567 0.123248555 0.049832165
-0.04807437 0.068664856 -0.10429384 0.036135443 -0.11920464 -0.08727289 -0.0013918475 -0.017384026
-0.036858637 0.006504956 -0.015021459 0.13706651 -0.059334636 -0.024078231 0.089944735 0.011445911
0.052489925 -0.0054683206 0.03179719 -0.02054517 -0.10605955 -0.12798715 0.01829414 -0.0055003064
-0.08618805 -0.060858704 0.08265341 -0.04634577 0.08136526 -0.0022284964 0.108135656 0.0016806338
-0.019678146 -0.10698037 -0.10632986 -0.005034221 0.117846005 0.03190224 0.10725393 0.11313052
0.1687985 -0.12569673 0.086741194 -0.10179717 0.02955936 -0.06537486 0.08262158 0.077005684
0.02512406 0.017838813 0.09406036 0.09939612 -0.13923883 -0.028065586 0.07295561 -0.118321285
0.11705439 0.08274717 -0.11597362 0.07214451 -0.008990219 0.023882208 0.10893115 -0.067834124
-0.004517652 -0.03193708 0.038841736 0.028739642 -0.088255584 -0.02131485 -0.033433724 -0.011115054
-0.02805179 -0.029567068 0.0731502 0.01807378 0.12390729 0.01570844 0.040426683 -0.087039456
-0.06141645 -0.109484345 -0.004194917 0.063630156 0.018382603 -0.07255643 -0.004272651 -0.06110397
0.06141976 0.13563691 0.06411692 0.021038117 -0.078816086 -0.0065447846 0.040732022 -0.010179198
-0.080771245 0.13899024 -0.019098008 0.03149981 -0.124698006 0.067919366 0.1276402 -0.0048629995
0.09603275 0.10982443 0.08954768 -0.015518413 -0.037302297 -0.06342863 0.065197535 -0.008260446
0.09281304 -0.10689597 -0.03640678 0.11513419 0.052831385 -0.049357284 0.08849967 0.08610695
-0.018635472 -0.011385878 -0.03475187 -0.11194722 -0.049271885 -0.04528343 0.019309388 -0.08848109
-0.11622625 0.039802507 0.062206708 -0.11836319 -0.021362375 0.10792858 0.034674183 -0.062992476
-0.07199215 0.115937755 -0.025957193 -0.0151136825 0.06386567 -0.13568307 0.07098423 0.04911239
0.09881668 -0.011665163 -0.020586563 -0.0055662203 -0.034060393 -0.014051932 -0.0022565029 0.046430223
-0.09925803 -0.082010426 -0.04629828 0.07593093 -0.038754843 0.0063287057 0.09322364 0.03309215
00000000: c6bc c63d 2cb6 873c 76d9 353d 91a1 ddbc
00000010: 3f29 373d 73b6 083e 02b6 04be 1bd6 ddbd
00000020: b506 4a3d deaa a8bd df3d b23d 2d6f 763d
00000030: c4e3 a5bd ecf4 c8bd 3bb5 8d3d 1d84 a43d
00000040: b0e0 b0bd 0e88 0f3c 8b7f aa3d a009 6c3b
00000050: 8f28 aebd 7409 db3d be46 6abd 7135 173e
00000060: bd3b 7c3d 5619 903d b9dc ec3c 3012 523d
00000070: b6b4 af3d 497c 96bc ace7 17be 5ed1 db3d
00000080: 6293 3cbc f212 afbc 5328 9d3c d364 d0bd
00000090: a4b3 2c3e 5671 d3bb a0ba 9d3d 2872 a4bd
000000a0: 704d da3c fb5f a9bd e2ed ab3d e39a bd3d
000000b0: 50aa 813d 7805 343d 03f0 053e c744 39bc
000000c0: bdd5 0b3d 2f1a e53d cbe6 803b 92bd 20bc
000000d0: d0cc d0bd f184 04be ad4c 2a3c 1450 1f3e
000000e0: 56ef c0bd 1dc7 7dbc aef3 60bd 8b27 d8bd
000000f0: 3dee 3ebb f508 46bd 92a3 8e3d 2f58 553d
00000100: 6f60 923d c898 f5bd 67b4 783d 4f77 c9bc
00000110: bc12 da3d 5d02 99bd 017c 2abd 0e50 efbd
00000120: 9b22 183d 572e 0bbe 0790 61bd bc37 98bd
00000130: fe38 81bd ec50 193e 7e69 7d3d 9abf 02be
00000140: faf5 07be cb21 cdbb b245 3e3c a041 db3d
00000150: f8aa a13d d922 cc3d 80c5 b73c 6a77 073d
00000160: bc16 713c ba5f c53d dbef 05be f60e ec3d
00000170: d8ec 4d3d b6f9 48bc bd69 fc3d d01c 4c3d
00000180: a1e9 44bd 29a0 8c3d 0298 d5bd c202 143d
00000190: 9021 f4bd 21bc b2bd a76e b6ba f268 8ebc
000001a0: 15f9 16bd 8727 d53b 911c 76bc 2a5b 0c3e
000001b0: e008 73bd b63f c5bc f234 b83d a187 3b3c
000001c0: adff 563d 992f b3bb c53d 023d 584e a8bc
000001d0: c035 d9bd 100f 03be 98dd 953c ea3b b4bb
000001e0: 5c83 b0bd fa46 79bd 3146 a93d 10d5 3dbd
000001f0: d4a2 a63d f70b 12bb 3a76 dd3d b648 dc3a
00000200: 1034 a1bc 8618 dbbd 78c3 d9bd 1bf6 a4bb
00000210: 3f59 f13d ecab 023d f3a7 db3d f9b0 e73d
00000220: 84d9 2c3e a5b6 00be 5ea5 b13d 097b d0bd
00000230: 7926 f23c 41e3 85bd 8135 a93d 28b5 9d3d
00000240: f9d0 cd3c b422 923c b8a2 c03d 3190 cb3d
00000250: a094 0ebe cde9 e5bc c069 953d 6e52 f2bd
00000260: 36ba ef3d 5977 a93d 9483 edbd 80c0 933d
00000270: b64b 13bc 9fa4 c33c 4b17 df3d 9eec 8abd
00000280: d008 94bb 75d0 02bd 8318 1f3d 666f eb3c
00000290: 58bf b4bd 7b9c aebc cdf1 08bd ea1b 36bc
000002a0: decc e5bc a336 f2bc c6cf 953d 770f 943c
000002b0: 1bc3 fd3d fdae 803c 7396 253d be41 b2bd
000002c0: d18f 7bbd 5439 e0bd 8475 89bb 8750 823d
000002d0: 1d97 963c 7798 94bd 9801 8cbb 2848 7abd
000002e0: 4993 7b3d 67e4 0a3e bb4f 833d 2158 ac3c
000002f0: 546a a1bd a275 d6bb 9fd6 263d a7c6 26bc
00000300: 656b a5bd 7553 0e3e 6d73 9cbc f205 013d
00000310: ab61 ffbd 4f19 8b3d 1db4 023e cc59 9fbb
00000320: d2ac c43d a1eb e03d c664 b73d f140 7ebc
00000330: 4bca 18bd dfe6 81bd 4986 853d d256 07bc
00000340: c314 be3d 46ec dabd 471f 15bd 79cb eb3d
00000350: b965 583d dd2a 4abd 513f b53d d758 b03d
00000360: 6ba9 98bc d58b 3abc fa57 0ebd 9644 e5bd
00000370: 51d1 49bd 1e7b 39bd b92e 9e3c 9335 b5bd
00000380: 0708 eebd f407 233d 76cc 7e3d 6668 f2bd
00000390: 2600 afbc a909 dd3d 8406 0e3d 3302 81bd
000003a0: 9f70 93bd c670 ed3d 2ea4 d4bc 619f 77bc
000003b0: 01cc 823d 81f0 0abe 2e60 913d 132a 493d
000003c0: 6660 ca3d 3d1f 3fbc 27a5 a8bc d764 b6bb
000003d0: e982 0bbd 133a 66bc d6e1 13bb 9e2d 3e3d
000003e0: cb47 cbbd 15f5 a7bd 44a3 3dbd ad81 9b3d
000003f0: 66bd 1ebd 0861 cf3b 09ec be3d a28b 073d

encoder.0.bias f4 [128]
-0.10434117 0.080365196 0.09610402 0.03452488 -0.043087285 0.13138086 -0.001659169 -0.109107114
0.087873764 0.018238693 -0.08179291 0.1144595 -0.0012323931 0.024300415 0.10477044 0.020468
-0.12556008 -0.07902793 -0.06605679 -0.0862429 -0.07139647 -0.089251734 -0.066038035 0.018435363
0.048375636 0.051829603 0.07304016 0.10581885 -0.10371147 0.02173619 0.060434163 -0.046768762
0.11613841 -0.066268176 -0.0043818355 0.053963248 0.07039258 0.083246596 0.10351861 -0.10264606
-0.039626 0.11234431 0.11145591 0.116819076 0.045577746 -0.11225843 0.048789576 0.06612017
0.096249916 0.006729615 0.059606533 -0.02341784 -0.0034049547 -0.054958154 0.008960182 0.010755816
-0.066333115 0.020861968 0.039559167 -0.044311278 -0.114706285 -0.012182411 0.013421631 0.053018734
-0.091856994 -0.049441516 0.02040673 -0.016088665 0.022987727 -0.0006232646 -0.11693865 -0.017123189
0.08993683 -0.0026720413 0.04634023 0.037108283 -0.008119497 -0.08586985 0.010083409 0.010080344
-0.02926205 -0.12779443 0.08501157 -0.01018249 0.019433677 -0.070203 0.123652674 0.10683128
0.059985835 -0.020708686 0.015038122 -0.11506845 -0.08991124 0.10877856 -0.00884635 -0.07226166
-0.039378174 0.107412495 0.107408 -0.021612125 -0.050550964 -0.08856046 0.0065436247 0.04383516
0.09739727 -0.031858634 0.00455172 0.07599421 0.04426121 0.05655972 -0.0832104 0.09205824
0.036181655 0.087648645 0.034055017 -0.103687435 0.097436845 -0.056888662 0.12934269 -0.025828887
-0.025242962 0.045610934 0.09272344 -0.09138613 0.042092107 -0.0020708381 -0.011221358 0.09989343
00000000: d3b0 d5bd 8296 a43d 2fd2 c43d f669 0d3d
00000010: 4b7c 30bd b488 063e 7978 d9ba 8d73 dfbd
00000020: 29f7 b33d 5069 953c 0b83 a7bd be69 ea3d
00000030: 4088 a1ba aa11 c73c e291 d63d 82ac a73c
00000040: d292 00be 65d9 a1bd c848 87bd 1ea0 b0bd
00000050: 5038 92bd 9dc9 b6bd f33e 87bd c205 973c
00000060: 8825 463d 474b 543d 1496 953d 8eb7 d83d
00000070: ae66 d4bd 1810 b23c d089 773d 9a90 3fbd
00000080: fad9 ed3d 9cb7 87bd 8095 8fbb 9108 5d3d
00000090: fc29 903d 317d aa3d 9101 d43d 1938 d2bd
000000a0: df4e 22bd c614 e63d ff42 e43d d73e ef3d
000000b0: bbaf 3a3d bfe7 e5bd 94d7 473d 036a 873d
000000c0: ad1e c53d 1a84 dc3b fb25 743d c5d6 bfbc
000000d0: a925 5fbb cd1b 61bd bacd 123c 2939 303c
000000e0: a8d9 87bd b8e6 aa3c cb08 223d be7f 35bd
000000f0: 21eb eabd bc98 47bc 67e6 5b3c 2c2a 593d
00000100: 851f bcbd 3083 4abd 042c a73c 60cc 83bc
00000110: c250 bc3c 9462 23ba 887d efbd ee45 8cbc
00000120: cd30 b83d 6a1d 2fbb 41cf 3d3d dbfe 173d
00000130: a407 05bc 88dc afbd e234 253c 0728 253c
00000140: f7b6 efbc 8bdc 02be 8c1a ae3d 75d4 26bc
00000150: 6033 9f3c 97c6 8fbd 9d3d fd3d 5cca da3d
00000160: b5b3 753d 43a5 a9bc 7562 763c 02a9 ebbd
00000170: 6223 b8bd 4bc7 de3d 48f0 10bc ecfd 93bd
00000180: 024b 21bd 15fb db3d baf8 db3d e90b b1bc
00000190: 870e 4fbd 305f b5bd e76b d63b 7f8c 333d
000001a0: 3878 c73d 337e 02bd 9826 953b daa2 9b3d
000001b0: 3e4b 353d 2aab 673d 376a aabd 0889 bc3d
000001c0: 3733 143d 2281 b33d 467d 0b3d 145a d4bd
000001d0: f88c c73d 1604 69bd 6972 043e 1a97 d3bc
000001e0: 54ca cebc 88d2 3a3d c9e5 bd3d a728 bbbd
000001f0: c668 2c3d e6b6 07bb c9d9 37bc ed94 cc3d

encoder.2.weight f4 [128, 128]
-0.044889808 -0.03197553 0.055868637 -0.058737665 0.05168346 -0.03318689 -0.07262032 -0.019762287
0.041039776 0.030118091 0.0037458995 -0.07566682 -0.0036809747 0.042279337 -0.019765865 0.0545902
-0.00041853162 -0.021903979 -0.020964446 -0.046062537 0.10112804 0.029216018 0.014686748 0.07300183
0.048941065 -0.06353182 -0.011243442 -0.06040246 0.08968069 0.04629759 -0.0006633613 0.026754403
-0.031386193 -0.04723025 -0.04535795 0.0066953963 -0.0030787764 0.065431975 0.08558799 -0.051138517
0.00131125 0.055466156 -0.039802924 -0.09975799 0.09624643 -0.08704165 -0.025703501 0.073403
0.071989566 0.082085006 -0.024887742 0.08303444 -0.022949088 0.02190554 0.010307366 0.073579945
0.02444086 -0.019111354 0.0022359162 0.08391318 0.00937051 -0.049785428 -0.024363924 0.037235215
0.06684023 0.07098111 0.040123783 -0.07513232 0.010179373 -0.0013243805 0.07598567 -0.12483327
0.05553214 -0.0036936537 -0.08179346 -0.07850374 -0.08142244 0.034731664 -0.040421378 0.09492516
-0.049458988 -0.05003183 0.09624608 0.06665925 0.020847784 0.040117692 0.058531545 -0.01468041
-0.08510168 0.07213394 0.07366165 -0.057014275 -0.08828898 -0.08576984 0.012993561 0.09358933
-0.0011313874 0.006314784 -0.07883207 -0.038724475 -0.033891287 0.0881897 -0.04037826 0.03636072
-0.0141793145 -0.005661798 -0.04224676 0.08152069 0.09503747 -0.07695084 -0.052101236 0.025338823
-0.08125627 -0.021245968 -0.0807981 0.04500212 -0.033700876 -0.03901391 -0.09050629 0.006609644
0.018916173 -0.047140434 -0.021534946 0.011291378 0.076748036 0.05834155 -0.10498133 -0.042562123
0.049286395 0.08572205 -0.0142101385 0.04089544 0.013612682 -0.03494533 0.05532173 0.07704103
-0.04674837 0.028534103 -0.007197004 -0.006900852 -0.052994777 0.04975864 -0.022065992 -0.03506609
-0.019881204 0.059642866 -0.006171132 0.05510707 0.014859244 -0.052004773 0.026073735 0.08089001
0.079829745 0.020569935 0.06290852 0.07167648 -0.049263287 0.03638438 -0.011295258 0.03226148
-0.04262859 -0.0426349 -0.06244293 0.024626529 -0.043356247 -0.045506593 -0.0670542 -0.049205396
0.11768701 0.009517921 -0.0031015866 0.040765196 -0.09503065 0.02462466 0.06450108 0.09443918
-0.03131306 0.08200078 0.10948522 -0.07050752 0.01299503 -0.029324733 -0.055015013 0.013853741
-0.1000002 -0.03627529 -0.07082182 0.0109210545 0.026303265 0.007941625 0.018239954 0.08703105
0.004854614 0.056525018 -0.017623676 0.033456147 0.02821739 -0.05551385 -0.043770228 -0.10446482
-0.07849173 0.02996291 -0.036120363 0.008322456 0.08534814 0.038476117 -0.082218245 0.12697275
0.026569746 -0.059944034 -0.04902471 0.04616232 0.022296531 -0.0413734 -0.017151475 0.0457159
0.10562291 -0.048545968 0.069618024 0.013459752 -0.014571737 -0.05062428 0.09593689 -0.029927565
-0.08582556 0.046327006 -0.06393533 -0.051430415 -0.008079313 -0.062216956 -0.030656787 0.04695537
0.052318703 0.053169284 0.08327422 0.077254616 -0.040949646 -0.07986541 -0.0288471 -0.052672166
0.09494414 -0.029355701 -0.044079676 0.10970516 0.005875274 -0.069550574 -0.049415268 -0.07039646
0.012470523 -0.11769309 0.0650444 0.08493427 -0.049457144 0.040903956 -0.01726564 0.035511248
00000000: 60de 37bd c6f8 02bd 83d6 643d e896 70bd
00000010: 09b2 533d faee 07bd f6b9 94bd 85e4 a1bc
00000020: 5319 283d 37ba f63c c47d 753b 35f7 9abd
00000030: 823c 71bb 192d 2d3d 06ec a1bc f999 5f3d
00000040: 5d6e dbb9 f96f b3bc a1bd abbc 12ac 3cbd
00000050: 381c cf3d 6e56 ef3c b0a0 703c fc81 953d
00000060: 6d76 483d f91c 82bd 6a36 38bc 9268 77bd
00000070: 82aa b73d 8ba2 3d3d 6ce5 2dba 0d2c db3c
00000080: cf8e 00bd 8274 41bd 42c9 39bd 0e65 db3b
00000090: 4cc5 49bb 3301 863d c248 af3d 9f76 51bd
000000a0: 40de ab3a 7b30 633d 6408 23bd eb4d ccbd
000000b0: d91c c53d e542 b2bd 2690 d2bc 5054 963d
000000c0: 446f 933d 2f1c a83d 61e1 cbbc f60d aa3d
000000d0: baff bbbc 3f73 b33c 3ae0 283c 15b1 963d
000000e0: 3338 c83c 6a8f 9cbc 7388 123b acda ab3d
000000f0: c486 193c ceeb 4bbd da96 c7bc f483 183d
00000100: 88e3 883d 8b5e 913d d658 243d f9de 99bd
00000110: 63c7 263c d696 adba 609e 9b3d 96a8 ffbd
00000120: ab75 633d 3a11 72bb 5483 a7bd 92c6 a0bd
00000130: cfc0 a6bd ca42 0e3d e390 25bd 1f68 c23d
00000140: 8295 4abd 2dee 4cbd aa1c c53d a584 883d
00000150: f9c8 aa3c 7352 243d c6be 6f3d 1a86 70bc
00000160: ca49 aebd f6ba 933d ebdb 963d cd87 69bd
00000170: dad0 b4bd 19a8 afbd f2e2 543c c3ab bf3d
00000180: 104b 94ba 3fec ce3b b572 a1bd 8e9d 1ebd
00000190: 97d1 0abd cd9c b43d ad63 25bd faee 143d
000001a0: 5b50 68bc 9b86 b9bb f00a 2dbd 52f4 a63d
000001b0: 01a3 c23d 6798 9dbd 1b68 55bd 5d93 cf3c
000001c0: b069 a6bd 060c aebc 7979 a5bd 2554 383d
000001d0: ee09 0abd 0dcd 1fbd 5d5b b9bd b695 d83b
000001e0: 17f6 9a3c 5416 41bd 0e6a b0bc 79ff 383c
000001f0: 132e 9d3d 8df7 6e3d 7400 d7bd 9f55 2ebd
00000200: 88e0 493d 0b8f af3d a4d1 68bc fa81 273d
00000210: ba07 5f3c d622 0fbd 0a99 623d b0c7 9d3d
00000220: 387b 3fbd 5ac0 e93c d8d4 ebbb 8b20 e2bb
00000230: 0d11 59bd b7cf 4b3d bdc3 b4bc 76a1 0fbd
00000240: e8dd a2bc 144c 743d 3537 cabb f3b7 613d
00000250: 3074 733c f502 55bd 9698 d53c a9a9 a53d
00000260: c77d a33d 4882 a83c 2fd6 803d 1ecb 923d
00000270: 4dc8 49bd ca07 153d bf0f 39bc 9d24 043d
00000280: 519b 2ebd efa1 2ebd 28c4 7fbd 93bd c93c
00000290: 5296 31bd 1f65 3abd b653 89bd 998b 49bd
000002a0: e305 f13d 0ef1 1b3c fd43 4bbb 68f9 263d
000002b0: 6e9f c2bd a8b9 c93c 2419 843d 5469 c13d
000002c0: 2042 00bd 06f0 a73d c939 e03d 3f66 90bd
000002d0: 1be9 543c 6c3a f0bc 6c57 61bd cdfa 623c
000002e0: e8cc ccbd 6695 14bd 080b 91bd 39ee 323c
000002f0: f279 d73c 971d 023c f56b 953c 563d b23d
00000300: 7413 9f3b c786 673d 875f 90bc 5009 093d
00000310: 2828 e73c 7e62 63bd 6948 33bd a7f1 d5bd
00000320: 46c0 a0bd c774 f53c f2f2 13bd e95a 083c
00000330: 01cb ae3d 2299 1d3d 0a62 a8bd 2505 023e
00000340: cca8 d93c e087 75bd 22ce 48bd b314 3d3d
00000350: 37a7 b63c 2777 29bd 4081 8cbc 9840 3b3d
00000360: d350 d83d 23d8 46bd e593 8e3d 4b86 5c3c
00000370: 4bbe 6ebc 685b 4fbd 8f7a c43d a72a f5bc
00000380: 50c5 afbd 63c1 3d3d 87f0 82bd b3a8 52bd
00000390: 185f 04bc 35d7 7ebd f123 fbbc 4654 403d
000003a0: 234c 563d 09c8 593d ad8b aa3d ab37 9e3d
000003b0: d1ba 27bd 7a90 a3bd c150 ecbc c5be 57bd
000003c0: 1372 c23d 5e7b f0bc e48c 34bd 19ad e03d
000003d0: 5f85 c03b 8870 8ebd aa67 4abd 052c 90bd
000003e0: 2a51 4c3c 1309 f1bd 0036 853d 05f2 ad3d
000003f0: 9393 4abd e88a 273d ac70 8dbc 3e74 113d

encoder.2.bias f4 [128]
0.0075951177 -0.026620623 0.019398492 0.00071962364 -0.05342644 0.09605642 -0.050078757 0.028085655
0.05368375 -0.04842967 0.033242635 0.015292288 0.073205404 -0.004254101 -0.02501419 -0.032962844
0.0597946 0.10178114 0.04646808 -0.0043137656 0.02227652 -0.032751266 0.035723165 0.019710513
0.030155348 -0.054323256 0.07009569 -0.029987497 -0.010053382 -0.074940115 -0.071305506 0.01108751
0.02887096 0.03158847 -0.069753 -0.065446295 0.045240156 0.0819649 0.013747784 -0.017481484
-0.052943062 -0.036632285 -0.060493983 0.028402135 -0.020805033 -0.05138924 0.027423125 0.035440534
-0.03496864 -0.070898354 0.07670221 -0.056506634 -0.074425355 -0.052501738 0.020366907 -0.024919076
-0.055243466 -0.005525358 -0.004233328 -0.08306785 -0.053062502 -0.03320939 -0.028490478 0.0032169134
-0.008572592 -0.024918584 -0.0073135295 0.07598416 -0.027106058 -0.051149555 -0.033534363 0.05853612
0.007545491 -0.015642818 -0.08085697 -0.04339928 -0.0855248 -0.07609282 0.03575184 -0.08273974
0.067959495 -0.024870327 -0.069474354 -0.02712692 0.082804315 -0.025941554 -0.06986257 0.073795885
0.09544587 0.05455209 -0.036903337 0.076152995 -0.05517995 0.009744198 0.012857136 0.013028391
-0.06994514 0.06498406 0.034007274 -0.011476072 0.045336872 0.08971367 0.01788343 -0.01698679
0.06036072 0.1134702 0.07683624 -0.012420296 0.060827814 0.033312734 0.088418916 -0.009987106
-0.009058387 0.024779122 0.011930393 0.028117243 0.010269069 -0.03271624 -0.037244707 -0.022837134
-0.04960863 -0.0063169426 0.046177007 -0.057263833 -0.03968086 0.06277632 0.10851578 0.050758857
00000000: 77e0 f83b 7e13 dabc 96e9 9e3c 20a5 3c3a
00000010: afd5 5abd 3ab9 c43d 621f 4dbd e313 e63c
00000020: 7ee3 5b3d 315e 46bd 6e29 083d 818c 7a3c
00000030: b7ec 953d fc65 8bbb 8fea ccbc 0c04 07bd
00000040: 2feb 743d a172 d03d 5055 3e3d 7d5a 8dbb
00000050: 407d b63c 3126 06bd 7452 123d f177 a13c
00000060: 5908 f73c 1082 5ebd 548e 8f3d 57a8 f5bc
00000070: f1b6 24bc 347a 99bd 9f08 92bd 63a8 353c
00000080: cb82 ec3c e962 013d a9da 8ebd b508 86bd
00000090: be4d 393d 37dd a73d 633e 613c 5435 8fbc
000000a0: d3da 58bd bc0b 16bd 8ac8 77bd 98ab e83c
000000b0: 516f aabc 867d 52bd 76a6 e03c 182a 113d
000000c0: 473b 0fbd 2833 91bd 0c16 9d3d 8073 67bd
000000d0: 526c 98bd 100c 57bd 80d8 a63c 1723 ccbc
000000e0: f946 62bd 100e b5bb bbb7 8abb 7a1f aabd
000000f0: 1158 59bd 9206 08bd dd64 e9bc dad2 523b
00000100: 0f74 0cbc 0f22 ccbc 55a6 efbb 959d 9b3d
00000110: 860d debc 3282 51bd 545b 09bd 92c3 6f3d
00000120: 2b40 f73b 5e25 80bc 5798 a5bd 72c3 31bd
00000130: a027 afbd 8dd6 9bbd 8570 123d 7473 a9bd
00000140: 592e 8b3d dbbc cbbc 9248 8ebd 4639 debc
00000150: 4f95 a93d 6283 d4bc 1b14 8fbd 4c22 973d
00000160: 2079 c33d 0372 5f3d f427 17bd 1af6 9b3d
00000170: 5f04 62bd 21a6 1f3c bda6 523c 0875 553c
00000180: 663f 8fbd 5d16 853d 364b 0b3d 2206 3cbc
00000190: 28b3 393d cdbb b73d 4580 923c e127 8bbc
000001a0: cd3c 773d 1063 e83d 525c 9d3d 7f7e 4bbc
000001b0: 9626 793d ef72 083d fa14 b53d f5a0 23bc
000001c0: a169 14bc 96fd ca3c b277 433c 2256 e63c
000001d0: 993f 283c 7701 06bd e88d 18bd f114 bbbc
000001e0: 6b32 4bbd 5bfe cebb 1a24 3d3d 7b8d 6abd
000001f0: 6688 22bd df90 803d 853d de3d 85e8 4f3d

encoder.4.weight f4 [128, 128]
-0.0363338 -0.027408434 -0.019091867 0.055240892 -0.08976926 0.01665316 -0.10252446 0.033399746
-0.08932003 0.049914937 -0.050329242 0.00045327604 0.029099995 0.051283315 -0.058776096 0.0035378716
0.00758643 0.08658822 -0.090463154 0.020785743 -0.022754256 0.033314157 -0.086568594 -0.005463355
-0.000359806 -0.034858953 -0.017691853 0.041319698 0.010629263 -0.044065047 -0.026371289 -0.053710133
0.06454071 -0.090281144 -0.04065244 -0.021703204 0.036513615 -0.06432934 0.026537152 0.068337
-0.043839086 -0.0058193495 -0.106828034 -0.0567308 0.07309534 -0.016182404 -0.040691644 -0.023047319
-0.07785052 0.009905979 -0.06185439 -0.026588084 -0.053258132 -0.046027843 -0.036828637 -0.0511229
-0.026293775 0.056808468 -0.07644245 -0.09608044 -0.11350345 -0.06096944 -0.0879985 -0.07744614
0.0028527316 -0.030164022 -0.06602743 -0.060941704 -0.12200644 0.08156294 -0.05287426 0.045912806
0.030635152 0.05881478 -0.09040599 0.11267642 0.012234878 0.022392686 -0.059443388 -0.114959456
-0.09577044 0.009072142 -0.036876705 -0.118188456 0.027662164 0.017778842 0.008960738 0.06855196
0.046577945 -0.03636484 -0.05539846 0.033959966 -0.029228546 0.03834161 0.08286372 -0.09816792
-0.056221172 0.066576935 0.015622915 -0.024739403 -0.07562834 0.07986715 -0.0383748 0.0065048905
0.084657 0.054988626 0.0059500877 0.047913704 0.12075411 -0.05510396 0.084940165 0.06460762
-0.009781754 -0.00927545 -0.06864588 -0.047584314 -0.084748335 0.026219971 0.050350837 -0.08523976
-0.028209016 -0.032822862 -0.0065876683 -0.004036574 0.0028375834 0.10556197 0.033006903 -0.064574204
-0.057625707 -0.064497545 0.052983396 -0.06669427 0.004638263 -0.03654643 0.042863533 0.04694284
-0.010577305 -0.030308941 -0.0849073 0.005140078 -0.028149875 -0.030429682 -0.07926365 0.02736456
-0.04314312 -0.0688412 0.07346232 0.024665935 -0.09379251 -0.045510933 -0.01914949 -0.033292256
-0.031238057 -0.097720735 0.050030295 -0.0058450704 0.10831647 -0.070632406 -0.10455176 0.01198788
0.010196107 0.075587064 -0.104520634 0.104209006 -0.015673112 -0.07593051 0.12628151 0.009113839
-0.10207237 0.046251632 -0.10373223 -0.050493363 -0.019878754 0.05480865 -0.00490197 0.09309239
-0.11082125 -0.10414047 0.06461051 0.026232138 -0.06153768 0.06426284 0.06437701 -0.038436387
0.057768617 0.014353813 0.042418312 0.07931212 -0.012927806 -0.023786785 -0.002556213 -0.1419832
-0.044442065 0.050241854 -0.013104297 -0.03148852 -0.10334344 0.08086903 -0.077728085 -0.088015944
-0.030091148 -0.003721359 -0.049387824 0.047682203 -0.033598553 0.019805247 0.03668834 -0.016425125
-0.10489643 0.04550778 -0.050512105 -0.062074263 0.020840399 -0.09996968 0.042026892 0.019580886
0.059484523 0.07048816 -0.039942395 -0.07259075 0.067667186 -0.017262354 -0.04487309 0.027737701
0.12028237 -0.021390878 -0.063361764 0.010306559 -0.018262198 -0.020550158 -0.10548587 0.038020026
0.04889207 -0.029030323 0.033544507 -0.10555424 -0.008253697 0.058135714 0.08536688 -0.026131855
0.11032226 -0.10337549 -0.079032704 -0.0433339 0.021091152 0.034716133 -0.099055514 0.044035852
-0.019042648 -0.016056124 0.024350196 -0.00459301 0.07812631 0.08744889 0.057151705 0.01859442
00000000: c0d2 14bd a787 e0bc 8c66 9cbc 4644 623d
00000010: f2d8 b7bd 356c 883c 58f8 d1bd 2cce 083d
00000020: 6bed b6bd 9b73 4c3d 0926 4ebd aea5 ed39
00000030: 1d63 ee3c 740e 523d 34bf 70bd a3db 673b
00000040: 9697 f83b 2a55 b13d bf44 b9bd dd46 aa3c
00000050: 2267 babc 6d74 083d e04a b1bd f205 b3bb
00000060: 58a4 bcb9 43c8 0ebd 81ee 90bc d83e 293d
00000070: 5c26 2e3c 8d7d 34bd 9a08 d8bc 28ff 5bbd
00000080: eb2d 843d 52e5 b8bd 2c83 26bd ebca b1bc
00000090: 4d8f 153d 1abf 83bd 7164 d93c 45f4 8b3d
000000a0: 9d90 33bd 3eb0 bebb a8c8 dabd 8e5e 68bd
000000b0: 02b3 953d f690 84bc 48ac 26bd bbcd bcbc
000000c0: 1870 9fbd b04c 223c 075b 7dbd 41cf d9bc
000000d0: 3325 5abd b187 3cbd a0d9 16bd 3f66 51bd
000000e0: 0b66 d7bc ffaf 683d dc8d 9cbd d2c5 c4bd
000000f0: 7f74 e8bd 17bb 79bd 8f38 b4bd 159c 9ebd
00000100: e5f4 3a3b 8a1a f7bc 6439 87bd 029e 79bd
00000110: 83de f9bd 780a a73d ae92 58bd 110f 3c3d
00000120: 92f6 fa3c c4e7 703d c726 b9bd e5c2 e63d
00000130: cc74 483c de70 b73c e97a 73bd dd6f ebbd
00000140: 4b23 c4bd 52a3 143c 070c 17bd ca0c f2bd
00000150: c39b e23c efa4 913c 0fd0 123c f864 8c3d
00000160: 84c8 3e3d 4cf3 14bd 7fe9 62bd 9b19 0b3d
00000170: b470 efbc 180c 1d3d 74b4 a93d 430c c9bd
00000180: 2c48 66bd 7d59 883d 41f7 7f3c 4aaa cabc
00000190: 08e3 9abd 6391 a33d e52e 1dbd fa26 d53b
000001a0: a660 ad3d c13b 613d f4f8 c23b 2941 443d
000001b0: ee4d f73d b1b4 61bd 1cf5 ad3d 0051 843d
000001c0: a643 20bc 0ff8 17bc 3696 8cbd c5e7 42bd
000001d0: 8990 adbd 44cb d63c ae3c 4e3d 2f92 aebd
000001e0: 9816 e7bc 4471 06bd 5edd d7bb 3d45 84bb
000001f0: c0f6 393b e030 d83d 3f32 073d 7b3f 84bd
00000200: ef08 6cbd 4a17 84bd 1e05 593d 0197 88bd
00000210: 92fc 973b b6b1 15bd ac91 2f3d 2347 403d
00000220: 6f4c 2dbc 754a f8bc e1e3 adbd 196e a83b
00000230: 919a e6bc ab47 f9bc fb54 a2bd a42b e03c
00000240: d7b6 30bd 9dfc 8cbd 6a73 963d 3710 ca3c
00000250: 4a16 c0bd ac69 3abd 64df 9cbc 765d 08bd
00000260: f4e6 ffbc cf21 c8bd 91ec 4c3d 0188 bfbb
00000270: 07d5 dd3d b9a7 90bd 3c1f d6bd d068 443c
00000280: 930d 273c 64cd 9a3d ea0e d6bd 886b d53d
00000290: e664 80bc 7581 9bbd f14f 013e 3652 153c
000002a0: 520b d1bd 5a72 3d3d 9071 d4bd 21d2 4ebd
000002b0: c5d8 a2bc 097f 603d b4a0 a0bb 39a7 be3d
000002c0: 40f6 e2bd 9947 d5bd 8452 843d c8e4 d63c
000002d0: ef0e 7cbd 3c9c 833d 18d8 833d 796f 1dbd
000002e0: c99e 6c3d 412c 6b3c d3be 2d3d 656e a23d
000002f0: 26cf 53bc 81dc c2bc 2386 27bb 0b64 11be
00000300: e208 36bd 67ca 4d3d 68b3 56bc 1bfa 00bd
00000310: baa5 d3bd a99e a53d e72f 9fbd b441 b4bd
00000320: b681 f6bc 0be2 73bb e34a 4abd 6a4e 433d
00000330: a39e 09bd 9d3e a23c 8346 163d fc8d 86bc
00000340: f1d3 d6bd 5e66 3a3d c8e5 4ebd 9541 7ebd
00000350: 7cb9 aa3c e7bc ccbd 6424 2c3d 1868 a03c
00000360: 0ba6 733d 195c 903d a39a 23bd 76aa 94bd
00000370: 1895 8a3d c869 8dbc d8cc 37bd 2d3a e33c
00000380: 9a56 f63d ec3b afbc d0c3 81bd d7dc 283c
00000390: 9b9a 95bc ce58 a8bc fa08 d8bd e3ba 1b3d
000003a0: 0d43 483d 00d1 edbc f765 093d d22c d8bd
000003b0: 843a 07bc b71f 6e3d d5d4 ae3d 7912 d6bc
000003c0: a3f0 e13d 87b6 d3bd e6db a1bd e37e 31bd
000003d0: 5ac7 ac3c 8132 0e3d 9edd cabd f05e 343d
000003e0: 54ff 9bbc 2288 83bc 107a c73c f680 96bb
000003f0: b000 a03d 6718 b33d e817 6a3d 5353 983c

encoder.4.bias f4 [128]
0.081090264 0.006682272 -0.09872568 0.06970582 0.09053572 -0.040138915 -0.040426254 -0.085591435
-0.018602744 0.074267805 0.01767035 0.06267154 0.08901781 0.0017084375 -0.019287316 -0.09135738
0.0049852524 -0.055078607 -0.030350728 -0.038313847 0.03509062 -0.084111445 -0.077395245 -0.081399485
0.035478596 0.020892043 -0.03753951 0.016451037 0.06104514 -0.060432903 -0.027122471 -0.012841324
-0.010165884 0.08295455 -0.04994 -0.05815048 -0.030676799 0.06336495 0.08259838 -0.050453696
-0.02363858 0.006681255 0.0665499 -0.05301079 -0.063998416 0.051548846 -0.055146627 0.07096847
-0.08718868 -0.056527086 -0.05914041 -0.081273444 -0.056250248 -0.026864583 -0.0144967865 0.023836046
0.054478075 -0.06727193 -0.031581726 0.029945362 0.011733395 0.08135159 0.051681202 -0.016608302
0.0727209 0.042329073 0.105917595 -0.099534556 -0.019755393 -0.08181618 -0.038513143 0.04798989
-0.08979875 0.018766673 0.03768553 -0.01152025 -0.07557881 0.00081075024 -0.058303684 0.09268765
-0.07788733 -0.026734311 -0.07122979 0.12134487 -0.07836303 -0.008958564 0.07695047 0.05286586
0.006750064 -0.112616256 0.05189781 -0.049484532 -0.0016360903 -0.07620942 -0.067198135 0.10238248
-0.015399048 -0.09046267 0.083662204 -0.051519305 0.07259482 0.06082507 0.007701083 0.045317233
0.02188695 0.033179197 0.05850362 0.04862796 0.06695266 0.09054925 0.08566655 -0.057210814
0.07206451 0.056247316 -0.077744976 0.045805372 0.07026186 -0.076727964 0.00987528 -0.052142892
0.015445924 -0.0043159067 0.08748112 -0.038999584 -0.06718561 0.011257956 0.095071316 -0.00814314
00000000: a712 a63d f6f6 da3b b030 cabd edc1 8e3d
00000010: cb6a b93d b468 24bd 0096 25bd 904a afbd
00000020: c864 98bc b819 983d 69c1 903c f059 803d
00000030: f84e b63d a6ed df3a 6f00 9ebc 9419 bbbd
00000040: 545b a33b 1b9a 61bd 17a2 f8bc fbee 1cbd
00000050: 2fbb 0f3d 9f42 acbd 6681 9ebd c6b4 a6bd
00000060: 0152 113d ca25 ab3c 07c3 19bd 53c4 863c
00000070: 780a 7a3d 7e88 77bd f22f debc 6b64 52bc
00000080: cf8e 26bc 13e4 a93d e38d 4cbd 332f 6ebd
00000090: e94d fbbc 7cc5 813d 5729 a93d 89a8 4ebd
000000a0: b2a5 c1bc 6eee da3b 504b 883d d821 59bd
000000b0: 9a11 83bd e224 533d 6ee1 61bd eb57 913d
000000c0: fb8f b2bd f288 67bd 373d 72bd b172 a6bd
000000d0: a966 66bd 1d13 dcbc ee83 6dbc d043 c33c
000000e0: 6724 5f3d dec5 89bd d75b 01bd fa4f f53c
000000f0: 6d3d 403c aa9b a63d abaf 533d 220e 88bc
00000100: b2ee 943d 4061 2d3d 53eb d83d c6d8 cbbd
00000110: 10d6 a1bc 3e8f a7bd f5bf 1dbd 0c91 443d
00000120: 68e8 b7bd 91bc 993c 245c 1a3d 6ebf 3cbc
00000130: 10c9 9abd 8788 543a d8cf 6ebd 06d3 bd3d
00000140: 6483 9fbd ea01 dbbc ede0 91bd a983 f83d
00000150: cc7c a0bd f1c6 12bc 3598 9d3d df89 583d
00000160: a42f dd3b 5aa3 e6bd cc92 543d 4bb0 4abd
00000170: 1572 d6ba af13 9cbd 2d9f 89bd e8ad d13d
00000180: 4a4c 7cbc 7e44 b9bd 1757 ab3d e805 53bd
00000190: 98ac 943d b523 793d 5e59 fc3b 909e 393d
000001a0: 434c b33c e9e6 073d 7ea1 6f3d 1d2e 473d
000001b0: 7a1e 893d e371 b93d f271 af3d e355 6abd
000001c0: 8f96 933d 9663 663d c238 9fbd 6a9e 3b3d
000001d0: 73e5 8f3d 8d23 9dbd edcb 213c c993 55bd
000001e0: e710 7d3c 736c 8dbb 4d29 b33d 07be 1fbd
000001f0: 9c98 89bd 4a73 383c c0b4 c23d ce6a 05bc

decoder.0.weight f4 [128, 128]
-0.012506142 -0.005546629 -0.0076600173 -0.07182983 -0.015122605 0.09349108 0.056428693 1.5107682e-05
0.03229699 -0.118808046 0.0045593996 -0.042811047 0.008105636 0.018650219 0.08727318 0.09795109
0.114459746 0.077979185 0.0046507344 0.090181746 -0.0052667204 0.050846554 0.037079185 0.05112105
-0.067079805 0.02613729 0.12258332 -0.0061060316 -0.13004492 0.03207033 0.03342746 -0.05109044
0.07009601 -0.08883352 0.017330382 -0.06371651 0.013767182 -0.0030205967 0.069130294 -0.028203923
-0.05992408 -0.058699958 -0.003026661 -0.060361225 0.056300864 -0.07515351 0.0154608255 -0.12018706
0.041536275 0.014822969 0.071576454 -0.014148536 -0.057525963 0.10916873 0.06428209 0.04542278
0.033316907 -0.033388708 0.07497434 -0.09952491 0.0037253697 0.045993943 0.044167604 -0.039917964
-0.021594087 0.021646006 -0.029349137 0.036076736 0.077883214 -0.022394752 -0.07058934 -0.071526
0.02575806 -0.016962908 0.012133538 0.028208148 -0.07473037 -0.07532685 -0.043399826 0.033495285
-0.04185612 0.06786865 -0.010674291 0.026959427 0.0836762 0.013835084 -0.024526412 -0.045118023
-0.042840883 0.067162864 -0.033517584 0.09590958 -0.03594808 -0.012304521 0.08908464 -0.09801293
-0.05957083 -0.06991161 0.035616588 0.10817089 0.057545323 -0.09028544 0.021986421 -0.080728516
-0.018336177 -0.029322408 -0.09803909 0.077629775 -0.10385569 -0.091319926 0.027638067 -0.019023452
-0.092994526 0.046350073 -0.011043064 -0.045378044 0.007982301 0.0329957 0.032894097 -0.068142146
-0.02307719 0.044336516 0.0038003947 -0.008119145 0.101765126 -0.07177655 0.07075546 0.06817545
0.060405232 -0.045156058 0.10399404 -0.005444324 0.065585904 0.048515845 0.024582712 -0.022808686
0.101489626 0.07074579 0.0025095914 -0.010615972 -0.09745579 0.07061401 -0.025273357 0.048414573
-0.013181053 -0.11615176 -0.015830727 0.048293453 -0.070592806 0.029290242 -0.08740181 -0.03280628
-0.03090452 0.063197345 -0.06642398 -0.042873945 -0.02572359 0.03456898 -0.0030550794 -0.022162387
-0.087807484 -0.040663842 -0.06810423 0.041274045 0.023565585 0.0842922 -0.059976436 0.086284816
0.08394337 0.09850038 0.12433669 0.012357264 0.07561575 0.052498482 -0.039651334 0.12962449
-0.081019945 0.07844382 0.0906825 -0.09849246 0.069058724 0.028277969 -0.02900461 0.0671905
0.03451869 0.06654191 -0.0775978 -0.03615222 -0.029735288 -0.07520104 -0.07011828 0.016542982
-0.012627827 0.08324594 0.028313452 0.0006971674 0.07330888 0.09088089 -0.06604063 -0.0056457547
0.009748621 0.12724836 -0.06902842 0.018109338 -0.035071757 0.04332055 -0.059417192 -0.00848084
-0.04907196 0.025214104 -0.073749445 0.007969693 -0.0023016531 -0.064434186 -0.04582306 0.10237872
0.052721646 0.041733958 0.055536095 -0.08410595 0.036270186 0.060141303 -0.06562574 -0.055959426
0.040265106 0.018820077 -0.08074108 -0.079606645 0.036070097 0.047098093 0.0758742 0.049816992
-0.10419792 0.069312036 0.08587117 0.042025026 0.025704974 -0.035335857 0.029840304 0.07394635
0.053362932 -0.11362693 -0.035377245 -0.06601346 0.11398077 -0.0043924768 -0.0005465281 0.061526913
-0.028866488 0.025615573 0.095052734 -0.01981041 0.013079992 0.096943885 0.099764764 0.10210607
00000000: 90e6 4cbc 7fc0 b5bb e200 fbbb 851b 93bd
00000010: cdc4 77bc 4078 bf3d c621 673d 0077 7d37
00000020: d949 043d a251 f3bd 0467 953b a35a 2fbd
00000030: 80cd 043c 58c8 983c 48bc b23d 959a c83d
00000040: df69 ea3d 8db3 9f3d 3065 983b 35b1 b83d
00000050: 7494 acbb 7a44 503d 58e0 173d 4e64 513d
00000060: 2361 89bd df1d d63c f70c fb3d 1b15 c8bb
00000070: 7f2a 05be 2e5c 033d 3beb 083d 3644 51bd
00000080: 7f8e 8f3d 59ee b5bd 72f8 8d3c cd7d 82bd
00000090: bf8f 613c 34f5 45bb 2f94 8d3d ea0b e7bc
000000a0: f472 75bd 5e6f 70bd f25a 46bb 553d 77bd
000000b0: bc9b 663d 15ea 99bd 674f 7d3c a224 f6bd
000000c0: f121 2a3d 0adc 723c ad96 923d 43cf 67bc
000000d0: 58a0 6bbd db93 df3d 54a6 833d 3d0d 3a3d
000000e0: 4f77 083d 99c2 08bd 268c 993d b7d3 cbbd
000000f0: 5525 743b 2564 3c3d 17e9 343d 0581 23bd
00000100: 15e6 b0bc f752 b13c 9a6d f0bc 33c5 133d
00000110: 3c81 9f3d 3375 b7bc 2591 90bd 397c 92bd
00000120: 9102 d33c ccf5 8abc bfcb 463c c614 e73c
00000130: 3c0c 99bd f744 9abd 04c4 31bd 5a32 093d
00000140: 5371 2bbd b8fe 8a3d 39e3 2ebc 04da dc3c
00000150: 6d5e ab3d 8cac 623c 9deb c8bc adcd 38bd
00000160: ec79 2fbd af8c 893d bc49 09bd 3e6c c43d
00000170: 4b3e 13bd e798 49bc 0272 b63d 01bb c8bd
00000180: 8b00 74bd d12d 8fbd b3e2 113d b388 dd3d
00000190: a5b4 6b3d 93e7 b8bd de1c b43c fe54 a5bd
000001a0: c035 96bc 8c35 f0bc b8c8 c8bd 5cfc 9e3d
000001b0: 4bb2 d4bd f105 bbbd 3a69 e23c 12d7 9bbc
000001c0: ea73 bebd 93d9 3d3d f8ed 34bc 54de 39bd
000001d0: 32c8 023c 8026 073d f6bb 063d 1c8e 8bbd
000001e0: 600c bdbc 359a 353d 0b10 793b 2a06 05bc
000001f0: 3c6a d03d 95ff 92bd 3de8 903d 929f 8b3d
00000200: 7a6b 773d 8ff5 38bd d4fa d43d 4d66 b2bb
00000210: e751 863d 8db8 463d af61 c93c 48d9 babc
00000220: cbd9 cf3d 2be3 903d f577 243b 9dee 2dbc
00000230: e796 c7bd 149e 903d 120a cfbc 5c4e 463d
00000240: 58f5 57bc f9e0 edbd 71af 81bc 5bcf 453d
00000250: f692 90bd 17f2 ef3c b8ff b2bd e15f 06bd
00000260: 7a2b fdbc 9c6d 813d 4c09 88bd 979c 2fbd
00000270: 47ba d2bc 3498 0d3d ba37 48bb e58d b5bc
00000280: 69d4 b3bd 218f 26bd 3b7a 8bbd f90e 293d
00000290: 9d0c c13c 64a1 ac3d daa9 75bd 18b6 b03d
000002a0: 80ea ab3d 91ba c93d 3ca4 fe3d 1f76 4a3c
000002b0: 6edc 9a3d a608 573d 7069 22bd 48bc 043e
000002c0: c9ed a5bd 27a7 a03d bfb7 b93d 6ab6 c9bd
000002d0: a96e 8d3d 33a7 e73c 139b edbc 2c9b 893d
000002e0: 7863 0d3d 2047 883d 98eb 9ebd 5a14 14bd
000002f0: 6b97 f3bc 0103 9abd 2c9a 8fbd 2685 873c
00000300: f2e4 4ebc d97c aa3d 9df1 e73c 1dc2 363a
00000310: f722 963d c31f ba3d 4f40 87bd 0600 b9bb
00000320: aeb8 1f3c 654d 023e c65e 8dbd 095a 943c
00000330: 67a7 0fbd e470 313d 715f 73bd 39f3 0abc
00000340: aeff 48bd cf8d ce3c f309 97bd 5193 023c
00000350: 55d7 16bb 12f6 83bd f6b0 3bbd efab d13d
00000360: a7f2 573d 3af1 2a3d d179 633d be3f acbd
00000370: 0c90 143d ba56 763d ca66 86bd b635 65bd
00000380: 06ed 243d 902c 9a3c 945b a5bd cf08 a3bd
00000390: 3dbe 133d eee9 403d ef63 9b3d e70c 4c3d
000003a0: b865 d5bd 78f3 8d3d 39dd af3d 6f22 2c3d
000003b0: 3d93 d23c 55bc 10bd a773 f43c 2f71 973d
000003c0: 1793 5a3d 3cb5 e8bd bbe7 10bd 1132 87bd
000003d0: c06e e93d c4ee 8fbb e144 0fba a503 7c3d
000003e0: 6a79 ecbc c0d7 d13c 02ab c23d 7149 a2bc
000003f0: 764d 563c 848a c63d 7851 cc3d fd1c d13d

decoder.0.bias f4 [128]
-0.030689303 0.05181979 0.059712958 -0.023269333 -0.026442217 0.056934584 0.07826458 -0.09048004
0.043132085 -0.06332182 -0.08143373 0.057567064 0.090356946 0.01645779 -0.058521524 -0.01336429
0.0038123885 0.04271218 -0.009793296 -0.011803975 -0.06541245 0.007018927 -0.0012627279 0.007935807
-0.011438945 0.05998789 0.023647452 0.052484937 0.031552173 0.0050774147 -0.05607029 0.047445558
-0.00017436004 0.012300711 0.0008284386 -0.0016578846 0.04543438 -0.04485414 -0.0181812 0.085160434
-0.044804227 -0.048032638 -0.01689333 0.025139263 0.07879026 -0.019959461 -0.03892647 0.026254343
0.038971532 -0.05478378 -0.092318565 -0.03762357 0.048717637 0.04492351 0.050600998 -0.0063165766
0.007855384 -0.066882886 -0.028700078 0.112369366 -0.0010276438 0.00935394 0.033881217 0.026662372
-0.08050518 0.06166389 -0.0064215097 0.021337898 -0.038963072 -0.0647485 0.08382838 -0.026863642
-0.053457357 0.012070375 -0.01883788 -0.05199779 -0.0055303653 0.052358516 -0.03140532 0.04925376
-0.04650024 0.04232904 0.09050397 -0.05792694 -0.03108377 -0.053441238 0.059834 0.061520644
-0.019247701 -0.00041537383 0.048812665 0.04409251 0.079852946 -0.07116562 -0.024097363 0.039948337
-0.059012488 0.027307086 -0.033243954 -0.0019700679 -0.034297813 0.058026392 -0.04158273 0.017579108
0.100702226 -0.01434914 0.103289746 0.065932445 0.029745003 0.06482329 -0.060120266 0.03125791
0.06878031 -0.07158313 0.0784063 -0.014297463 0.058356404 -0.024097502 -0.09832295 -0.02138627
0.05529123 -0.027722405 0.008058612 0.052799392 0.033815123 -0.00045785043 -0.041669957 -0.029305123
00000000: 2268 fbbc fd40 543d 9395 743d 549f bebc
00000010: 599d d8bc 3d34 693d 2e49 a03d 994d b9bd
00000020: 45ab 303d dfae 81bd bac6 a6bd 71cb 6b3d
00000030: 100d b93d 7dd2 863c 44b4 6fbd e5f5 5abc
00000040: 44d9 793b f8f2 2e3d 1074 20bc 7665 41bc
00000050: f6f6 85bd 07ff e53b 1e82 a5ba 3005 023c
00000060: 6a6a 3bbc ddb5 753d 4db8 c13c 72fa 563d
00000070: da3c 013d 7160 a63b f6a9 65bd 4656 423d
00000080: 6bd4 36b9 ec88 493c 932b 593a 604d d9ba
00000090: 6719 3a3d fab8 37bd bdf0 94bc 9868 ae3d
000000a0: a384 37bd dfbd 44bd e163 8abc dbf0 cd3c
000000b0: ca5c a13d 0682 a3bc 5d71 1fbd 5913 d73c
000000c0: 9da0 1f3d f564 60bd 8411 bdbd 2c1b 1abd
000000d0: 258c 473d b701 383d fe42 4f3d 49fb cebb
000000e0: deb3 003c e5f9 88bd 6d1c ebbc e921 e63d
000000f0: 01b2 86ba 4541 193c 08c7 0a3d 0c6b da3c
00000100: e6df a4bd 4693 7c3d 876b d2bb d1cc ae3c
00000110: be97 1fbd dd9a 84bd 37ae ab3d 2411 dcbc
00000120: 1af6 5abd d2c2 453c e651 9abc a2fb 54bd
00000130: 1138 b5bb e275 563d dda2 00bd 50be 493d
00000140: 0977 3ebd 3761 2d3d 255a b93d cd44 6dbd
00000150: 64a3 febc 33e5 5abd 7f14 753d 12fd 7b3d
00000160: 5bad 9dbc 88c6 d9b9 caef 473d 599a 343d
00000170: f189 a33d 48bf 91bd d567 c5bc dea0 233d
00000180: 14b7 71bd 1cb3 df3c d02a 08bd 411c 01bb
00000190: dd7b 0cbd 15ad 6d3d a752 2abd 1002 903c
000001a0: f83c ce3d a818 6bbc 9389 d33d 9707 873d
000001b0: cbab f33c 13c2 843d ab40 76bd 4b08 003d
000001c0: b1dc 8c3d 2d9a 92bd 7b93 a03d e83f 6abc
000001d0: 2007 6f3d 2068 c5bc 8b5d c9bd 4232 afbc
000001e0: 0f79 623d 191a e3bc 4508 043c 2d44 583d
000001f0: ba81 0a3d a50b f0b9 1eae 2abd 4c11 f0bc

decoder.2.weight f4 [1, 128]
-0.04698181 -0.08143053 -0.08890173 0.06363422 0.11341127 -0.052811813 0.078552336 0.051372904
-0.09592917 -0.08550617 0.12053309 -0.08141802 0.1153651 -0.06420333 -0.01286483 -0.114013255
0.08279985 -0.089386955 0.04348712 0.12932917 0.085220374 0.065533146 -0.05604375 0.10975646
-0.10407324 -0.05027483 0.0866713 -0.031970013 -0.07354834 -0.10032852 0.12157754 -0.043812595
-0.0489277 0.06976507 -0.036210608 -0.08846903 0.07804124 -0.031607952 -0.033664424 -0.031432293
-0.025567722 0.042600155 0.07284552 -0.099267855 0.06914933 -0.10201223 -0.017438082 -0.103416845
-0.061168037 0.03774906 0.047140613 0.066853344 -0.063143164 -0.07306951 -0.06411721 -0.04819814
-0.060408518 -0.055826183 -0.106762856 0.06602372 0.052113388 0.05397405 -0.03758836 -0.014135963
-0.0009048102 -0.047125768 0.09045314 -0.015439662 -0.037177414 0.08421325 0.057871725 -0.041326117
-0.051738888 0.06036785 0.01193938 0.0172311 -0.049327187 -0.07905586 -0.0586473 -0.027436676
0.012402482 0.08631971 -0.091809206 -0.0040098713 -0.038470406 0.10462488 0.07021124 -0.09572156
-0.09479708 0.05934659 -0.085238546 -0.039565653 0.10392079 0.096591786 0.06376372 0.13356726
-0.076619975 -0.098697565 -0.07502009 0.121036716 0.062822714 0.07937213 0.0015010659 0.10217314
0.103014335 0.024183784 0.10021675 -0.10109051 -0.04605538 0.044662494 -0.05475315 0.10447591
-0.07837459 -0.059649214 -0.036748845 0.021786094 -0.026045498 0.053758077 0.09361519 0.064625435
-0.069314875 0.042694453 0.05086591 -0.04787358 -0.07705886 0.118562005 0.02110791 -0.050917987
00000000: 0070 40bd 0dc5 a6bd 1c12 b6bd a852 823d
00000010: 2b44 e83d 3351 58bd 0ce0 a03d 656c 523d
00000020: 8376 c4bd dc1d afbd 0dda f63d 7ebe a6bd
00000030: 8a44 ec3d 097d 83bd 02c7 52bc c87f e9bd
00000040: f892 a93d 8210 b7bd 8d1f 323d de6e 043e
00000050: 0588 ae3d 3e36 863d 228e 65bd ffc7 e03d
00000060: 5a24 d5bd fbec 4dbd b980 b13d fdf2 02bd
00000070: 83a0 96bd 0a79 cdbd a5fd f83d d674 33bd
00000080: 6968 48bd fde0 8e3d 9351 14bd 402f b5bd
00000090: 16d4 9f3d 5777 01bd b5e3 09bd 26bf 00bd
000000a0: 6673 d1bc 807d 2e3d 0830 953d f24c cbbd
000000b0: 2a9e 8d3d caeb d0bd 4fda 8ebc 36cc d3bd
000000c0: 568b 7abd c29e 1a3d 8416 413d 68ea 883d
000000d0: 3451 81bd 78a5 95bd e24f 83bd 6a6b 45bd
000000e0: ec6e 77bd ffa9 64bd 7ca6 dabd 7237 873d
000000f0: d974 553d e513 5d3d 41f6 19bd 879a 67bc
00000100: c930 6dba f306 41bd 7f3f b93d a3f6 7cbc
00000110: 5847 18bd ff77 ac3d e70a 6d3d 9345 29bd
00000120: 28ec 53bd 4744 773d 649d 433c 3c28 8d3c
00000130: 4e0b 4abd 0ae8 a1bd 2738 70bd e1c2 e0bc
00000140: c833 4b3c 63c8 b03d 7706 bcbd 3d65 83bb
00000150: 2593 1dbd 9245 d63d e9ca 8f3d aa09 c4bd
00000160: f924 c2bd 6915 733d 8c91 aebd 980f 22bd
00000170: 6cd4 d43d ead1 c53d 8e96 823d dbc5 083e
00000180: efea 9cbd f321 cabd 22a4 99bd 19e2 f73d
00000190: 32a9 803d db8d a23d 6abf c43a 2740 d13d
000001a0: 2ef9 d23d 121d c63c 703e cd3d 8b08 cfbd
000001b0: 91a4 3cbd 05f0 363d d744 60bd 77f7 d53d
000001c0: db82 a0bd bc52 74bd f585 16bd c078 b23c
000001d0: 5e5d d5bc 6e31 5c3d 52b9 bf3d 575a 843d
000001e0: f5f4 8dbd 61e0 2e3d c658 503d 1617 44bd
000001f0: 09d1 9dbd a3d0 f23d 7fea ac3c 618f 50bd
